#map = affine_map<(d0, d1, d2) -> (d1, d2)>
#map1 = affine_map<(d0, d1, d2) -> (d0, d1, d2)>
module {
  func.func @forward(%arg0: tensor<1x2x8xf32>) -> tensor<1x2x8xf32> {
    %cst = arith.constant dense_resource<torch_tensor_16_8_torch.float32> : tensor<16x8xf32>
    %cst_0 = arith.constant 0.000000e+00 : f32
    %cst_1 = arith.constant 1.000000e+00 : f32
    %cst_2 = arith.constant dense_resource<torch_tensor_16_8_torch.float32_1> : tensor<16x8xf32>
    %cst_3 = arith.constant dense_resource<torch_tensor_8_16_torch.float32> : tensor<8x16xf32>
    %0 = tensor.empty() : tensor<8x16xf32>
    %transposed = linalg.transpose ins(%cst : tensor<16x8xf32>) outs(%0 : tensor<8x16xf32>) permutation = [1, 0] 
    %1 = tensor.empty() : tensor<1x2x8xf32>
    %collapsed = tensor.collapse_shape %arg0 [[0, 1], [2]] : tensor<1x2x8xf32> into tensor<2x8xf32>
    %2 = linalg.generic {indexing_maps = [#map, #map1], iterator_types = ["parallel", "parallel", "parallel"]} ins(%collapsed : tensor<2x8xf32>) outs(%1 : tensor<1x2x8xf32>) {
    ^bb0(%in: f32, %out: f32):
      linalg.yield %in : f32
    } -> tensor<1x2x8xf32>
    %3 = tensor.empty() : tensor<1x8x16xf32>
    %4 = linalg.generic {indexing_maps = [#map, #map1], iterator_types = ["parallel", "parallel", "parallel"]} ins(%transposed : tensor<8x16xf32>) outs(%3 : tensor<1x8x16xf32>) {
    ^bb0(%in: f32, %out: f32):
      linalg.yield %in : f32
    } -> tensor<1x8x16xf32>
    %5 = tensor.empty() : tensor<1x2x16xf32>
    %6 = linalg.fill ins(%cst_0 : f32) outs(%5 : tensor<1x2x16xf32>) -> tensor<1x2x16xf32>
    %7 = linalg.batch_matmul ins(%2, %4 : tensor<1x2x8xf32>, tensor<1x8x16xf32>) outs(%6 : tensor<1x2x16xf32>) -> tensor<1x2x16xf32>
    %8 = linalg.generic {indexing_maps = [#map1, #map1], iterator_types = ["parallel", "parallel", "parallel"]} ins(%7 : tensor<1x2x16xf32>) outs(%5 : tensor<1x2x16xf32>) {
    ^bb0(%in: f32, %out: f32):
      %19 = arith.negf %in : f32
      %20 = math.exp %19 : f32
      %21 = arith.addf %20, %cst_1 : f32
      %22 = arith.divf %cst_1, %21 : f32
      linalg.yield %22 : f32
    } -> tensor<1x2x16xf32>
    %9 = linalg.generic {indexing_maps = [#map1, #map1, #map1], iterator_types = ["parallel", "parallel", "parallel"]} ins(%8, %7 : tensor<1x2x16xf32>, tensor<1x2x16xf32>) outs(%5 : tensor<1x2x16xf32>) {
    ^bb0(%in: f32, %in_7: f32, %out: f32):
      %19 = arith.mulf %in, %in_7 : f32
      linalg.yield %19 : f32
    } -> tensor<1x2x16xf32>
    %transposed_4 = linalg.transpose ins(%cst_2 : tensor<16x8xf32>) outs(%0 : tensor<8x16xf32>) permutation = [1, 0] 
    %10 = linalg.generic {indexing_maps = [#map, #map1], iterator_types = ["parallel", "parallel", "parallel"]} ins(%transposed_4 : tensor<8x16xf32>) outs(%3 : tensor<1x8x16xf32>) {
    ^bb0(%in: f32, %out: f32):
      linalg.yield %in : f32
    } -> tensor<1x8x16xf32>
    %11 = linalg.batch_matmul ins(%2, %10 : tensor<1x2x8xf32>, tensor<1x8x16xf32>) outs(%6 : tensor<1x2x16xf32>) -> tensor<1x2x16xf32>
    %12 = linalg.generic {indexing_maps = [#map1, #map1, #map1], iterator_types = ["parallel", "parallel", "parallel"]} ins(%9, %11 : tensor<1x2x16xf32>, tensor<1x2x16xf32>) outs(%5 : tensor<1x2x16xf32>) {
    ^bb0(%in: f32, %in_7: f32, %out: f32):
      %19 = arith.mulf %in, %in_7 : f32
      linalg.yield %19 : f32
    } -> tensor<1x2x16xf32>
    %13 = tensor.empty() : tensor<16x8xf32>
    %transposed_5 = linalg.transpose ins(%cst_3 : tensor<8x16xf32>) outs(%13 : tensor<16x8xf32>) permutation = [1, 0] 
    %collapsed_6 = tensor.collapse_shape %12 [[0, 1], [2]] : tensor<1x2x16xf32> into tensor<2x16xf32>
    %14 = linalg.generic {indexing_maps = [#map, #map1], iterator_types = ["parallel", "parallel", "parallel"]} ins(%collapsed_6 : tensor<2x16xf32>) outs(%5 : tensor<1x2x16xf32>) {
    ^bb0(%in: f32, %out: f32):
      linalg.yield %in : f32
    } -> tensor<1x2x16xf32>
    %15 = tensor.empty() : tensor<1x16x8xf32>
    %16 = linalg.generic {indexing_maps = [#map, #map1], iterator_types = ["parallel", "parallel", "parallel"]} ins(%transposed_5 : tensor<16x8xf32>) outs(%15 : tensor<1x16x8xf32>) {
    ^bb0(%in: f32, %out: f32):
      linalg.yield %in : f32
    } -> tensor<1x16x8xf32>
    %17 = linalg.fill ins(%cst_0 : f32) outs(%1 : tensor<1x2x8xf32>) -> tensor<1x2x8xf32>
    %18 = linalg.batch_matmul ins(%14, %16 : tensor<1x2x16xf32>, tensor<1x16x8xf32>) outs(%17 : tensor<1x2x8xf32>) -> tensor<1x2x8xf32>
    return %18 : tensor<1x2x8xf32>
  }
}

{-#
  dialect_resources: {
    builtin: {
      torch_tensor_16_8_torch.float32: "…",
      torch_tensor_16_8_torch.float32_1: "…",
      torch_tensor_8_16_torch.float32: "…"
    }
  }
#-}
