#map = affine_map<(d0, d1, d2, d3) -> (d0, d1, d2, d3)>
#map1 = affine_map<(d0, d1, d2, d3) -> (d1)>
#map2 = affine_map<(d0, d1, d2, d3) -> (0, d1, d2, d3)>
#map3 = affine_map<(d0, d1, d2, d3) -> (0, d1, 0, 0)>
#map4 = affine_map<(d0, d1) -> (d0, d1)>
#map5 = affine_map<(d0, d1) -> (d1, d0)>
#map6 = affine_map<(d0, d1) -> (0, d1)>
#map7 = affine_map<(d0, d1) -> (d1)>
module attributes {torch.debug_module_name = "EfficientNet"} {
  ml_program.global private mutable @global_seed(dense<0> : tensor<i64>) : tensor<i64>
  func.func @forward(%arg0: tensor<1x3x480x480xf32>) -> tensor<1x1000xf32> {
    %cst = arith.constant dense_resource<__elided__> : tensor<1000xf32>
    %cst_0 = arith.constant dense_resource<__elided__> : tensor<1000x1280xf32>
    %cst_1 = arith.constant dense_resource<__elided__> : tensor<1280xf32>
    %cst_2 = arith.constant dense_resource<__elided__> : tensor<1280xf32>
    %cst_3 = arith.constant dense_resource<__elided__> : tensor<1280xf32>
    %cst_4 = arith.constant dense_resource<__elided__> : tensor<1280xf32>
    %cst_5 = arith.constant dense_resource<__elided__> : tensor<1280x640x1x1xf32>
    %cst_6 = arith.constant dense_resource<__elided__> : tensor<640xf32>
    %cst_7 = arith.constant dense_resource<__elided__> : tensor<640xf32>
    %cst_8 = arith.constant dense_resource<__elided__> : tensor<640xf32>
    %cst_9 = arith.constant dense_resource<__elided__> : tensor<640xf32>
    %cst_10 = arith.constant dense_resource<__elided__> : tensor<640x3840x1x1xf32>
    %cst_11 = arith.constant dense_resource<__elided__> : tensor<3840xf32>
    %cst_12 = arith.constant dense_resource<__elided__> : tensor<3840x160x1x1xf32>
    %cst_13 = arith.constant dense_resource<__elided__> : tensor<160xf32>
    %cst_14 = arith.constant dense_resource<__elided__> : tensor<160x3840x1x1xf32>
    %cst_15 = arith.constant dense_resource<__elided__> : tensor<3840xf32>
    %cst_16 = arith.constant dense_resource<__elided__> : tensor<3840xf32>
    %cst_17 = arith.constant dense_resource<__elided__> : tensor<3840xf32>
    %cst_18 = arith.constant dense_resource<__elided__> : tensor<3840xf32>
    %cst_19 = arith.constant dense_resource<__elided__> : tensor<3840x1x3x3xf32>
    %cst_20 = arith.constant dense_resource<__elided__> : tensor<3840xf32>
    %cst_21 = arith.constant dense_resource<__elided__> : tensor<3840xf32>
    %cst_22 = arith.constant dense_resource<__elided__> : tensor<3840xf32>
    %cst_23 = arith.constant dense_resource<__elided__> : tensor<3840xf32>
    %cst_24 = arith.constant dense_resource<__elided__> : tensor<3840x640x1x1xf32>
    %cst_25 = arith.constant dense_resource<__elided__> : tensor<640xf32>
    %cst_26 = arith.constant dense_resource<__elided__> : tensor<640xf32>
    %cst_27 = arith.constant dense_resource<__elided__> : tensor<640xf32>
    %cst_28 = arith.constant dense_resource<__elided__> : tensor<640xf32>
    %cst_29 = arith.constant dense_resource<__elided__> : tensor<640x3840x1x1xf32>
    %cst_30 = arith.constant dense_resource<__elided__> : tensor<3840xf32>
    %cst_31 = arith.constant dense_resource<__elided__> : tensor<3840x160x1x1xf32>
    %cst_32 = arith.constant dense_resource<__elided__> : tensor<160xf32>
    %cst_33 = arith.constant dense_resource<__elided__> : tensor<160x3840x1x1xf32>
    %cst_34 = arith.constant dense_resource<__elided__> : tensor<3840xf32>
    %cst_35 = arith.constant dense_resource<__elided__> : tensor<3840xf32>
    %cst_36 = arith.constant dense_resource<__elided__> : tensor<3840xf32>
    %cst_37 = arith.constant dense_resource<__elided__> : tensor<3840xf32>
    %cst_38 = arith.constant dense_resource<__elided__> : tensor<3840x1x3x3xf32>
    %cst_39 = arith.constant dense_resource<__elided__> : tensor<3840xf32>
    %cst_40 = arith.constant dense_resource<__elided__> : tensor<3840xf32>
    %cst_41 = arith.constant dense_resource<__elided__> : tensor<3840xf32>
    %cst_42 = arith.constant dense_resource<__elided__> : tensor<3840xf32>
    %cst_43 = arith.constant dense_resource<__elided__> : tensor<3840x640x1x1xf32>
    %cst_44 = arith.constant dense_resource<__elided__> : tensor<640xf32>
    %cst_45 = arith.constant dense_resource<__elided__> : tensor<640xf32>
    %cst_46 = arith.constant dense_resource<__elided__> : tensor<640xf32>
    %cst_47 = arith.constant dense_resource<__elided__> : tensor<640xf32>
    %cst_48 = arith.constant dense_resource<__elided__> : tensor<640x3840x1x1xf32>
    %cst_49 = arith.constant dense_resource<__elided__> : tensor<3840xf32>
    %cst_50 = arith.constant dense_resource<__elided__> : tensor<3840x160x1x1xf32>
    %cst_51 = arith.constant dense_resource<__elided__> : tensor<160xf32>
    %cst_52 = arith.constant dense_resource<__elided__> : tensor<160x3840x1x1xf32>
    %cst_53 = arith.constant dense_resource<__elided__> : tensor<3840xf32>
    %cst_54 = arith.constant dense_resource<__elided__> : tensor<3840xf32>
    %cst_55 = arith.constant dense_resource<__elided__> : tensor<3840xf32>
    %cst_56 = arith.constant dense_resource<__elided__> : tensor<3840xf32>
    %cst_57 = arith.constant dense_resource<__elided__> : tensor<3840x1x3x3xf32>
    %cst_58 = arith.constant dense_resource<__elided__> : tensor<3840xf32>
    %cst_59 = arith.constant dense_resource<__elided__> : tensor<3840xf32>
    %cst_60 = arith.constant dense_resource<__elided__> : tensor<3840xf32>
    %cst_61 = arith.constant dense_resource<__elided__> : tensor<3840xf32>
    %cst_62 = arith.constant dense_resource<__elided__> : tensor<3840x640x1x1xf32>
    %cst_63 = arith.constant dense_resource<__elided__> : tensor<640xf32>
    %cst_64 = arith.constant dense_resource<__elided__> : tensor<640xf32>
    %cst_65 = arith.constant dense_resource<__elided__> : tensor<640xf32>
    %cst_66 = arith.constant dense_resource<__elided__> : tensor<640xf32>
    %cst_67 = arith.constant dense_resource<__elided__> : tensor<640x3840x1x1xf32>
    %cst_68 = arith.constant dense_resource<__elided__> : tensor<3840xf32>
    %cst_69 = arith.constant dense_resource<__elided__> : tensor<3840x160x1x1xf32>
    %cst_70 = arith.constant dense_resource<__elided__> : tensor<160xf32>
    %cst_71 = arith.constant dense_resource<__elided__> : tensor<160x3840x1x1xf32>
    %cst_72 = arith.constant dense_resource<__elided__> : tensor<3840xf32>
    %cst_73 = arith.constant dense_resource<__elided__> : tensor<3840xf32>
    %cst_74 = arith.constant dense_resource<__elided__> : tensor<3840xf32>
    %cst_75 = arith.constant dense_resource<__elided__> : tensor<3840xf32>
    %cst_76 = arith.constant dense_resource<__elided__> : tensor<3840x1x3x3xf32>
    %cst_77 = arith.constant dense_resource<__elided__> : tensor<3840xf32>
    %cst_78 = arith.constant dense_resource<__elided__> : tensor<3840xf32>
    %cst_79 = arith.constant dense_resource<__elided__> : tensor<3840xf32>
    %cst_80 = arith.constant dense_resource<__elided__> : tensor<3840xf32>
    %cst_81 = arith.constant dense_resource<__elided__> : tensor<3840x640x1x1xf32>
    %cst_82 = arith.constant dense_resource<__elided__> : tensor<640xf32>
    %cst_83 = arith.constant dense_resource<__elided__> : tensor<640xf32>
    %cst_84 = arith.constant dense_resource<__elided__> : tensor<640xf32>
    %cst_85 = arith.constant dense_resource<__elided__> : tensor<640xf32>
    %cst_86 = arith.constant dense_resource<__elided__> : tensor<640x3840x1x1xf32>
    %cst_87 = arith.constant dense_resource<__elided__> : tensor<3840xf32>
    %cst_88 = arith.constant dense_resource<__elided__> : tensor<3840x160x1x1xf32>
    %cst_89 = arith.constant dense_resource<__elided__> : tensor<160xf32>
    %cst_90 = arith.constant dense_resource<__elided__> : tensor<160x3840x1x1xf32>
    %cst_91 = arith.constant dense_resource<__elided__> : tensor<3840xf32>
    %cst_92 = arith.constant dense_resource<__elided__> : tensor<3840xf32>
    %cst_93 = arith.constant dense_resource<__elided__> : tensor<3840xf32>
    %cst_94 = arith.constant dense_resource<__elided__> : tensor<3840xf32>
    %cst_95 = arith.constant dense_resource<__elided__> : tensor<3840x1x3x3xf32>
    %cst_96 = arith.constant dense_resource<__elided__> : tensor<3840xf32>
    %cst_97 = arith.constant dense_resource<__elided__> : tensor<3840xf32>
    %cst_98 = arith.constant dense_resource<__elided__> : tensor<3840xf32>
    %cst_99 = arith.constant dense_resource<__elided__> : tensor<3840xf32>
    %cst_100 = arith.constant dense_resource<__elided__> : tensor<3840x640x1x1xf32>
    %cst_101 = arith.constant dense_resource<__elided__> : tensor<640xf32>
    %cst_102 = arith.constant dense_resource<__elided__> : tensor<640xf32>
    %cst_103 = arith.constant dense_resource<__elided__> : tensor<640xf32>
    %cst_104 = arith.constant dense_resource<__elided__> : tensor<640xf32>
    %cst_105 = arith.constant dense_resource<__elided__> : tensor<640x3840x1x1xf32>
    %cst_106 = arith.constant dense_resource<__elided__> : tensor<3840xf32>
    %cst_107 = arith.constant dense_resource<__elided__> : tensor<3840x160x1x1xf32>
    %cst_108 = arith.constant dense_resource<__elided__> : tensor<160xf32>
    %cst_109 = arith.constant dense_resource<__elided__> : tensor<160x3840x1x1xf32>
    %cst_110 = arith.constant dense_resource<__elided__> : tensor<3840xf32>
    %cst_111 = arith.constant dense_resource<__elided__> : tensor<3840xf32>
    %cst_112 = arith.constant dense_resource<__elided__> : tensor<3840xf32>
    %cst_113 = arith.constant dense_resource<__elided__> : tensor<3840xf32>
    %cst_114 = arith.constant dense_resource<__elided__> : tensor<3840x1x3x3xf32>
    %cst_115 = arith.constant dense_resource<__elided__> : tensor<3840xf32>
    %cst_116 = arith.constant dense_resource<__elided__> : tensor<3840xf32>
    %cst_117 = arith.constant dense_resource<__elided__> : tensor<3840xf32>
    %cst_118 = arith.constant dense_resource<__elided__> : tensor<3840xf32>
    %cst_119 = arith.constant dense_resource<__elided__> : tensor<3840x640x1x1xf32>
    %cst_120 = arith.constant dense_resource<__elided__> : tensor<640xf32>
    %cst_121 = arith.constant dense_resource<__elided__> : tensor<640xf32>
    %cst_122 = arith.constant dense_resource<__elided__> : tensor<640xf32>
    %cst_123 = arith.constant dense_resource<__elided__> : tensor<640xf32>
    %cst_124 = arith.constant dense_resource<__elided__> : tensor<640x2304x1x1xf32>
    %cst_125 = arith.constant dense_resource<__elided__> : tensor<2304xf32>
    %cst_126 = arith.constant dense_resource<__elided__> : tensor<2304x96x1x1xf32>
    %cst_127 = arith.constant dense_resource<__elided__> : tensor<96xf32>
    %cst_128 = arith.constant dense_resource<__elided__> : tensor<96x2304x1x1xf32>
    %cst_129 = arith.constant dense_resource<__elided__> : tensor<2304xf32>
    %cst_130 = arith.constant dense_resource<__elided__> : tensor<2304xf32>
    %cst_131 = arith.constant dense_resource<__elided__> : tensor<2304xf32>
    %cst_132 = arith.constant dense_resource<__elided__> : tensor<2304xf32>
    %cst_133 = arith.constant dense_resource<__elided__> : tensor<2304x1x3x3xf32>
    %cst_134 = arith.constant dense_resource<__elided__> : tensor<2304xf32>
    %cst_135 = arith.constant dense_resource<__elided__> : tensor<2304xf32>
    %cst_136 = arith.constant dense_resource<__elided__> : tensor<2304xf32>
    %cst_137 = arith.constant dense_resource<__elided__> : tensor<2304xf32>
    %cst_138 = arith.constant dense_resource<__elided__> : tensor<2304x384x1x1xf32>
    %cst_139 = arith.constant dense_resource<__elided__> : tensor<384xf32>
    %cst_140 = arith.constant dense_resource<__elided__> : tensor<384xf32>
    %cst_141 = arith.constant dense_resource<__elided__> : tensor<384xf32>
    %cst_142 = arith.constant dense_resource<__elided__> : tensor<384xf32>
    %cst_143 = arith.constant dense_resource<__elided__> : tensor<384x2304x1x1xf32>
    %cst_144 = arith.constant dense_resource<__elided__> : tensor<2304xf32>
    %cst_145 = arith.constant dense_resource<__elided__> : tensor<2304x96x1x1xf32>
    %cst_146 = arith.constant dense_resource<__elided__> : tensor<96xf32>
    %cst_147 = arith.constant dense_resource<__elided__> : tensor<96x2304x1x1xf32>
    %cst_148 = arith.constant dense_resource<__elided__> : tensor<2304xf32>
    %cst_149 = arith.constant dense_resource<__elided__> : tensor<2304xf32>
    %cst_150 = arith.constant dense_resource<__elided__> : tensor<2304xf32>
    %cst_151 = arith.constant dense_resource<__elided__> : tensor<2304xf32>
    %cst_152 = arith.constant dense_resource<__elided__> : tensor<2304x1x3x3xf32>
    %cst_153 = arith.constant dense_resource<__elided__> : tensor<2304xf32>
    %cst_154 = arith.constant dense_resource<__elided__> : tensor<2304xf32>
    %cst_155 = arith.constant dense_resource<__elided__> : tensor<2304xf32>
    %cst_156 = arith.constant dense_resource<__elided__> : tensor<2304xf32>
    %cst_157 = arith.constant dense_resource<__elided__> : tensor<2304x384x1x1xf32>
    %cst_158 = arith.constant dense_resource<__elided__> : tensor<384xf32>
    %cst_159 = arith.constant dense_resource<__elided__> : tensor<384xf32>
    %cst_160 = arith.constant dense_resource<__elided__> : tensor<384xf32>
    %cst_161 = arith.constant dense_resource<__elided__> : tensor<384xf32>
    %cst_162 = arith.constant dense_resource<__elided__> : tensor<384x2304x1x1xf32>
    %cst_163 = arith.constant dense_resource<__elided__> : tensor<2304xf32>
    %cst_164 = arith.constant dense_resource<__elided__> : tensor<2304x96x1x1xf32>
    %cst_165 = arith.constant dense_resource<__elided__> : tensor<96xf32>
    %cst_166 = arith.constant dense_resource<__elided__> : tensor<96x2304x1x1xf32>
    %cst_167 = arith.constant dense_resource<__elided__> : tensor<2304xf32>
    %cst_168 = arith.constant dense_resource<__elided__> : tensor<2304xf32>
    %cst_169 = arith.constant dense_resource<__elided__> : tensor<2304xf32>
    %cst_170 = arith.constant dense_resource<__elided__> : tensor<2304xf32>
    %cst_171 = arith.constant dense_resource<__elided__> : tensor<2304x1x3x3xf32>
    %cst_172 = arith.constant dense_resource<__elided__> : tensor<2304xf32>
    %cst_173 = arith.constant dense_resource<__elided__> : tensor<2304xf32>
    %cst_174 = arith.constant dense_resource<__elided__> : tensor<2304xf32>
    %cst_175 = arith.constant dense_resource<__elided__> : tensor<2304xf32>
    %cst_176 = arith.constant dense_resource<__elided__> : tensor<2304x384x1x1xf32>
    %cst_177 = arith.constant dense_resource<__elided__> : tensor<384xf32>
    %cst_178 = arith.constant dense_resource<__elided__> : tensor<384xf32>
    %cst_179 = arith.constant dense_resource<__elided__> : tensor<384xf32>
    %cst_180 = arith.constant dense_resource<__elided__> : tensor<384xf32>
    %cst_181 = arith.constant dense_resource<__elided__> : tensor<384x2304x1x1xf32>
    %cst_182 = arith.constant dense_resource<__elided__> : tensor<2304xf32>
    %cst_183 = arith.constant dense_resource<__elided__> : tensor<2304x96x1x1xf32>
    %cst_184 = arith.constant dense_resource<__elided__> : tensor<96xf32>
    %cst_185 = arith.constant dense_resource<__elided__> : tensor<96x2304x1x1xf32>
    %cst_186 = arith.constant dense_resource<__elided__> : tensor<2304xf32>
    %cst_187 = arith.constant dense_resource<__elided__> : tensor<2304xf32>
    %cst_188 = arith.constant dense_resource<__elided__> : tensor<2304xf32>
    %cst_189 = arith.constant dense_resource<__elided__> : tensor<2304xf32>
    %cst_190 = arith.constant dense_resource<__elided__> : tensor<2304x1x3x3xf32>
    %cst_191 = arith.constant dense_resource<__elided__> : tensor<2304xf32>
    %cst_192 = arith.constant dense_resource<__elided__> : tensor<2304xf32>
    %cst_193 = arith.constant dense_resource<__elided__> : tensor<2304xf32>
    %cst_194 = arith.constant dense_resource<__elided__> : tensor<2304xf32>
    %cst_195 = arith.constant dense_resource<__elided__> : tensor<2304x384x1x1xf32>
    %cst_196 = arith.constant dense_resource<__elided__> : tensor<384xf32>
    %cst_197 = arith.constant dense_resource<__elided__> : tensor<384xf32>
    %cst_198 = arith.constant dense_resource<__elided__> : tensor<384xf32>
    %cst_199 = arith.constant dense_resource<__elided__> : tensor<384xf32>
    %cst_200 = arith.constant dense_resource<__elided__> : tensor<384x2304x1x1xf32>
    %cst_201 = arith.constant dense_resource<__elided__> : tensor<2304xf32>
    %cst_202 = arith.constant dense_resource<__elided__> : tensor<2304x96x1x1xf32>
    %cst_203 = arith.constant dense_resource<__elided__> : tensor<96xf32>
    %cst_204 = arith.constant dense_resource<__elided__> : tensor<96x2304x1x1xf32>
    %cst_205 = arith.constant dense_resource<__elided__> : tensor<2304xf32>
    %cst_206 = arith.constant dense_resource<__elided__> : tensor<2304xf32>
    %cst_207 = arith.constant dense_resource<__elided__> : tensor<2304xf32>
    %cst_208 = arith.constant dense_resource<__elided__> : tensor<2304xf32>
    %cst_209 = arith.constant dense_resource<__elided__> : tensor<2304x1x3x3xf32>
    %cst_210 = arith.constant dense_resource<__elided__> : tensor<2304xf32>
    %cst_211 = arith.constant dense_resource<__elided__> : tensor<2304xf32>
    %cst_212 = arith.constant dense_resource<__elided__> : tensor<2304xf32>
    %cst_213 = arith.constant dense_resource<__elided__> : tensor<2304xf32>
    %cst_214 = arith.constant dense_resource<__elided__> : tensor<2304x384x1x1xf32>
    %cst_215 = arith.constant dense_resource<__elided__> : tensor<384xf32>
    %cst_216 = arith.constant dense_resource<__elided__> : tensor<384xf32>
    %cst_217 = arith.constant dense_resource<__elided__> : tensor<384xf32>
    %cst_218 = arith.constant dense_resource<__elided__> : tensor<384xf32>
    %cst_219 = arith.constant dense_resource<__elided__> : tensor<384x2304x1x1xf32>
    %cst_220 = arith.constant dense_resource<__elided__> : tensor<2304xf32>
    %cst_221 = arith.constant dense_resource<__elided__> : tensor<2304x96x1x1xf32>
    %cst_222 = arith.constant dense_resource<__elided__> : tensor<96xf32>
    %cst_223 = arith.constant dense_resource<__elided__> : tensor<96x2304x1x1xf32>
    %cst_224 = arith.constant dense_resource<__elided__> : tensor<2304xf32>
    %cst_225 = arith.constant dense_resource<__elided__> : tensor<2304xf32>
    %cst_226 = arith.constant dense_resource<__elided__> : tensor<2304xf32>
    %cst_227 = arith.constant dense_resource<__elided__> : tensor<2304xf32>
    %cst_228 = arith.constant dense_resource<__elided__> : tensor<2304x1x3x3xf32>
    %cst_229 = arith.constant dense_resource<__elided__> : tensor<2304xf32>
    %cst_230 = arith.constant dense_resource<__elided__> : tensor<2304xf32>
    %cst_231 = arith.constant dense_resource<__elided__> : tensor<2304xf32>
    %cst_232 = arith.constant dense_resource<__elided__> : tensor<2304xf32>
    %cst_233 = arith.constant dense_resource<__elided__> : tensor<2304x384x1x1xf32>
    %cst_234 = arith.constant dense_resource<__elided__> : tensor<384xf32>
    %cst_235 = arith.constant dense_resource<__elided__> : tensor<384xf32>
    %cst_236 = arith.constant dense_resource<__elided__> : tensor<384xf32>
    %cst_237 = arith.constant dense_resource<__elided__> : tensor<384xf32>
    %cst_238 = arith.constant dense_resource<__elided__> : tensor<384x2304x1x1xf32>
    %cst_239 = arith.constant dense_resource<__elided__> : tensor<2304xf32>
    %cst_240 = arith.constant dense_resource<__elided__> : tensor<2304x96x1x1xf32>
    %cst_241 = arith.constant dense_resource<__elided__> : tensor<96xf32>
    %cst_242 = arith.constant dense_resource<__elided__> : tensor<96x2304x1x1xf32>
    %cst_243 = arith.constant dense_resource<__elided__> : tensor<2304xf32>
    %cst_244 = arith.constant dense_resource<__elided__> : tensor<2304xf32>
    %cst_245 = arith.constant dense_resource<__elided__> : tensor<2304xf32>
    %cst_246 = arith.constant dense_resource<__elided__> : tensor<2304xf32>
    %cst_247 = arith.constant dense_resource<__elided__> : tensor<2304x1x3x3xf32>
    %cst_248 = arith.constant dense_resource<__elided__> : tensor<2304xf32>
    %cst_249 = arith.constant dense_resource<__elided__> : tensor<2304xf32>
    %cst_250 = arith.constant dense_resource<__elided__> : tensor<2304xf32>
    %cst_251 = arith.constant dense_resource<__elided__> : tensor<2304xf32>
    %cst_252 = arith.constant dense_resource<__elided__> : tensor<2304x384x1x1xf32>
    %cst_253 = arith.constant dense_resource<__elided__> : tensor<384xf32>
    %cst_254 = arith.constant dense_resource<__elided__> : tensor<384xf32>
    %cst_255 = arith.constant dense_resource<__elided__> : tensor<384xf32>
    %cst_256 = arith.constant dense_resource<__elided__> : tensor<384xf32>
    %cst_257 = arith.constant dense_resource<__elided__> : tensor<384x2304x1x1xf32>
    %cst_258 = arith.constant dense_resource<__elided__> : tensor<2304xf32>
    %cst_259 = arith.constant dense_resource<__elided__> : tensor<2304x96x1x1xf32>
    %cst_260 = arith.constant dense_resource<__elided__> : tensor<96xf32>
    %cst_261 = arith.constant dense_resource<__elided__> : tensor<96x2304x1x1xf32>
    %cst_262 = arith.constant dense_resource<__elided__> : tensor<2304xf32>
    %cst_263 = arith.constant dense_resource<__elided__> : tensor<2304xf32>
    %cst_264 = arith.constant dense_resource<__elided__> : tensor<2304xf32>
    %cst_265 = arith.constant dense_resource<__elided__> : tensor<2304xf32>
    %cst_266 = arith.constant dense_resource<__elided__> : tensor<2304x1x3x3xf32>
    %cst_267 = arith.constant dense_resource<__elided__> : tensor<2304xf32>
    %cst_268 = arith.constant dense_resource<__elided__> : tensor<2304xf32>
    %cst_269 = arith.constant dense_resource<__elided__> : tensor<2304xf32>
    %cst_270 = arith.constant dense_resource<__elided__> : tensor<2304xf32>
    %cst_271 = arith.constant dense_resource<__elided__> : tensor<2304x384x1x1xf32>
    %cst_272 = arith.constant dense_resource<__elided__> : tensor<384xf32>
    %cst_273 = arith.constant dense_resource<__elided__> : tensor<384xf32>
    %cst_274 = arith.constant dense_resource<__elided__> : tensor<384xf32>
    %cst_275 = arith.constant dense_resource<__elided__> : tensor<384xf32>
    %cst_276 = arith.constant dense_resource<__elided__> : tensor<384x2304x1x1xf32>
    %cst_277 = arith.constant dense_resource<__elided__> : tensor<2304xf32>
    %cst_278 = arith.constant dense_resource<__elided__> : tensor<2304x96x1x1xf32>
    %cst_279 = arith.constant dense_resource<__elided__> : tensor<96xf32>
    %cst_280 = arith.constant dense_resource<__elided__> : tensor<96x2304x1x1xf32>
    %cst_281 = arith.constant dense_resource<__elided__> : tensor<2304xf32>
    %cst_282 = arith.constant dense_resource<__elided__> : tensor<2304xf32>
    %cst_283 = arith.constant dense_resource<__elided__> : tensor<2304xf32>
    %cst_284 = arith.constant dense_resource<__elided__> : tensor<2304xf32>
    %cst_285 = arith.constant dense_resource<__elided__> : tensor<2304x1x3x3xf32>
    %cst_286 = arith.constant dense_resource<__elided__> : tensor<2304xf32>
    %cst_287 = arith.constant dense_resource<__elided__> : tensor<2304xf32>
    %cst_288 = arith.constant dense_resource<__elided__> : tensor<2304xf32>
    %cst_289 = arith.constant dense_resource<__elided__> : tensor<2304xf32>
    %cst_290 = arith.constant dense_resource<__elided__> : tensor<2304x384x1x1xf32>
    %cst_291 = arith.constant dense_resource<__elided__> : tensor<384xf32>
    %cst_292 = arith.constant dense_resource<__elided__> : tensor<384xf32>
    %cst_293 = arith.constant dense_resource<__elided__> : tensor<384xf32>
    %cst_294 = arith.constant dense_resource<__elided__> : tensor<384xf32>
    %cst_295 = arith.constant dense_resource<__elided__> : tensor<384x2304x1x1xf32>
    %cst_296 = arith.constant dense_resource<__elided__> : tensor<2304xf32>
    %cst_297 = arith.constant dense_resource<__elided__> : tensor<2304x96x1x1xf32>
    %cst_298 = arith.constant dense_resource<__elided__> : tensor<96xf32>
    %cst_299 = arith.constant dense_resource<__elided__> : tensor<96x2304x1x1xf32>
    %cst_300 = arith.constant dense_resource<__elided__> : tensor<2304xf32>
    %cst_301 = arith.constant dense_resource<__elided__> : tensor<2304xf32>
    %cst_302 = arith.constant dense_resource<__elided__> : tensor<2304xf32>
    %cst_303 = arith.constant dense_resource<__elided__> : tensor<2304xf32>
    %cst_304 = arith.constant dense_resource<__elided__> : tensor<2304x1x3x3xf32>
    %cst_305 = arith.constant dense_resource<__elided__> : tensor<2304xf32>
    %cst_306 = arith.constant dense_resource<__elided__> : tensor<2304xf32>
    %cst_307 = arith.constant dense_resource<__elided__> : tensor<2304xf32>
    %cst_308 = arith.constant dense_resource<__elided__> : tensor<2304xf32>
    %cst_309 = arith.constant dense_resource<__elided__> : tensor<2304x384x1x1xf32>
    %cst_310 = arith.constant dense_resource<__elided__> : tensor<384xf32>
    %cst_311 = arith.constant dense_resource<__elided__> : tensor<384xf32>
    %cst_312 = arith.constant dense_resource<__elided__> : tensor<384xf32>
    %cst_313 = arith.constant dense_resource<__elided__> : tensor<384xf32>
    %cst_314 = arith.constant dense_resource<__elided__> : tensor<384x2304x1x1xf32>
    %cst_315 = arith.constant dense_resource<__elided__> : tensor<2304xf32>
    %cst_316 = arith.constant dense_resource<__elided__> : tensor<2304x96x1x1xf32>
    %cst_317 = arith.constant dense_resource<__elided__> : tensor<96xf32>
    %cst_318 = arith.constant dense_resource<__elided__> : tensor<96x2304x1x1xf32>
    %cst_319 = arith.constant dense_resource<__elided__> : tensor<2304xf32>
    %cst_320 = arith.constant dense_resource<__elided__> : tensor<2304xf32>
    %cst_321 = arith.constant dense_resource<__elided__> : tensor<2304xf32>
    %cst_322 = arith.constant dense_resource<__elided__> : tensor<2304xf32>
    %cst_323 = arith.constant dense_resource<__elided__> : tensor<2304x1x3x3xf32>
    %cst_324 = arith.constant dense_resource<__elided__> : tensor<2304xf32>
    %cst_325 = arith.constant dense_resource<__elided__> : tensor<2304xf32>
    %cst_326 = arith.constant dense_resource<__elided__> : tensor<2304xf32>
    %cst_327 = arith.constant dense_resource<__elided__> : tensor<2304xf32>
    %cst_328 = arith.constant dense_resource<__elided__> : tensor<2304x384x1x1xf32>
    %cst_329 = arith.constant dense_resource<__elided__> : tensor<384xf32>
    %cst_330 = arith.constant dense_resource<__elided__> : tensor<384xf32>
    %cst_331 = arith.constant dense_resource<__elided__> : tensor<384xf32>
    %cst_332 = arith.constant dense_resource<__elided__> : tensor<384xf32>
    %cst_333 = arith.constant dense_resource<__elided__> : tensor<384x2304x1x1xf32>
    %cst_334 = arith.constant dense_resource<__elided__> : tensor<2304xf32>
    %cst_335 = arith.constant dense_resource<__elided__> : tensor<2304x96x1x1xf32>
    %cst_336 = arith.constant dense_resource<__elided__> : tensor<96xf32>
    %cst_337 = arith.constant dense_resource<__elided__> : tensor<96x2304x1x1xf32>
    %cst_338 = arith.constant dense_resource<__elided__> : tensor<2304xf32>
    %cst_339 = arith.constant dense_resource<__elided__> : tensor<2304xf32>
    %cst_340 = arith.constant dense_resource<__elided__> : tensor<2304xf32>
    %cst_341 = arith.constant dense_resource<__elided__> : tensor<2304xf32>
    %cst_342 = arith.constant dense_resource<__elided__> : tensor<2304x1x3x3xf32>
    %cst_343 = arith.constant dense_resource<__elided__> : tensor<2304xf32>
    %cst_344 = arith.constant dense_resource<__elided__> : tensor<2304xf32>
    %cst_345 = arith.constant dense_resource<__elided__> : tensor<2304xf32>
    %cst_346 = arith.constant dense_resource<__elided__> : tensor<2304xf32>
    %cst_347 = arith.constant dense_resource<__elided__> : tensor<2304x384x1x1xf32>
    %cst_348 = arith.constant dense_resource<__elided__> : tensor<384xf32>
    %cst_349 = arith.constant dense_resource<__elided__> : tensor<384xf32>
    %cst_350 = arith.constant dense_resource<__elided__> : tensor<384xf32>
    %cst_351 = arith.constant dense_resource<__elided__> : tensor<384xf32>
    %cst_352 = arith.constant dense_resource<__elided__> : tensor<384x2304x1x1xf32>
    %cst_353 = arith.constant dense_resource<__elided__> : tensor<2304xf32>
    %cst_354 = arith.constant dense_resource<__elided__> : tensor<2304x96x1x1xf32>
    %cst_355 = arith.constant dense_resource<__elided__> : tensor<96xf32>
    %cst_356 = arith.constant dense_resource<__elided__> : tensor<96x2304x1x1xf32>
    %cst_357 = arith.constant dense_resource<__elided__> : tensor<2304xf32>
    %cst_358 = arith.constant dense_resource<__elided__> : tensor<2304xf32>
    %cst_359 = arith.constant dense_resource<__elided__> : tensor<2304xf32>
    %cst_360 = arith.constant dense_resource<__elided__> : tensor<2304xf32>
    %cst_361 = arith.constant dense_resource<__elided__> : tensor<2304x1x3x3xf32>
    %cst_362 = arith.constant dense_resource<__elided__> : tensor<2304xf32>
    %cst_363 = arith.constant dense_resource<__elided__> : tensor<2304xf32>
    %cst_364 = arith.constant dense_resource<__elided__> : tensor<2304xf32>
    %cst_365 = arith.constant dense_resource<__elided__> : tensor<2304xf32>
    %cst_366 = arith.constant dense_resource<__elided__> : tensor<2304x384x1x1xf32>
    %cst_367 = arith.constant dense_resource<__elided__> : tensor<384xf32>
    %cst_368 = arith.constant dense_resource<__elided__> : tensor<384xf32>
    %cst_369 = arith.constant dense_resource<__elided__> : tensor<384xf32>
    %cst_370 = arith.constant dense_resource<__elided__> : tensor<384xf32>
    %cst_371 = arith.constant dense_resource<__elided__> : tensor<384x2304x1x1xf32>
    %cst_372 = arith.constant dense_resource<__elided__> : tensor<2304xf32>
    %cst_373 = arith.constant dense_resource<__elided__> : tensor<2304x96x1x1xf32>
    %cst_374 = arith.constant dense_resource<__elided__> : tensor<96xf32>
    %cst_375 = arith.constant dense_resource<__elided__> : tensor<96x2304x1x1xf32>
    %cst_376 = arith.constant dense_resource<__elided__> : tensor<2304xf32>
    %cst_377 = arith.constant dense_resource<__elided__> : tensor<2304xf32>
    %cst_378 = arith.constant dense_resource<__elided__> : tensor<2304xf32>
    %cst_379 = arith.constant dense_resource<__elided__> : tensor<2304xf32>
    %cst_380 = arith.constant dense_resource<__elided__> : tensor<2304x1x3x3xf32>
    %cst_381 = arith.constant dense_resource<__elided__> : tensor<2304xf32>
    %cst_382 = arith.constant dense_resource<__elided__> : tensor<2304xf32>
    %cst_383 = arith.constant dense_resource<__elided__> : tensor<2304xf32>
    %cst_384 = arith.constant dense_resource<__elided__> : tensor<2304xf32>
    %cst_385 = arith.constant dense_resource<__elided__> : tensor<2304x384x1x1xf32>
    %cst_386 = arith.constant dense_resource<__elided__> : tensor<384xf32>
    %cst_387 = arith.constant dense_resource<__elided__> : tensor<384xf32>
    %cst_388 = arith.constant dense_resource<__elided__> : tensor<384xf32>
    %cst_389 = arith.constant dense_resource<__elided__> : tensor<384xf32>
    %cst_390 = arith.constant dense_resource<__elided__> : tensor<384x2304x1x1xf32>
    %cst_391 = arith.constant dense_resource<__elided__> : tensor<2304xf32>
    %cst_392 = arith.constant dense_resource<__elided__> : tensor<2304x96x1x1xf32>
    %cst_393 = arith.constant dense_resource<__elided__> : tensor<96xf32>
    %cst_394 = arith.constant dense_resource<__elided__> : tensor<96x2304x1x1xf32>
    %cst_395 = arith.constant dense_resource<__elided__> : tensor<2304xf32>
    %cst_396 = arith.constant dense_resource<__elided__> : tensor<2304xf32>
    %cst_397 = arith.constant dense_resource<__elided__> : tensor<2304xf32>
    %cst_398 = arith.constant dense_resource<__elided__> : tensor<2304xf32>
    %cst_399 = arith.constant dense_resource<__elided__> : tensor<2304x1x3x3xf32>
    %cst_400 = arith.constant dense_resource<__elided__> : tensor<2304xf32>
    %cst_401 = arith.constant dense_resource<__elided__> : tensor<2304xf32>
    %cst_402 = arith.constant dense_resource<__elided__> : tensor<2304xf32>
    %cst_403 = arith.constant dense_resource<__elided__> : tensor<2304xf32>
    %cst_404 = arith.constant dense_resource<__elided__> : tensor<2304x384x1x1xf32>
    %cst_405 = arith.constant dense_resource<__elided__> : tensor<384xf32>
    %cst_406 = arith.constant dense_resource<__elided__> : tensor<384xf32>
    %cst_407 = arith.constant dense_resource<__elided__> : tensor<384xf32>
    %cst_408 = arith.constant dense_resource<__elided__> : tensor<384xf32>
    %cst_409 = arith.constant dense_resource<__elided__> : tensor<384x2304x1x1xf32>
    %cst_410 = arith.constant dense_resource<__elided__> : tensor<2304xf32>
    %cst_411 = arith.constant dense_resource<__elided__> : tensor<2304x96x1x1xf32>
    %cst_412 = arith.constant dense_resource<__elided__> : tensor<96xf32>
    %cst_413 = arith.constant dense_resource<__elided__> : tensor<96x2304x1x1xf32>
    %cst_414 = arith.constant dense_resource<__elided__> : tensor<2304xf32>
    %cst_415 = arith.constant dense_resource<__elided__> : tensor<2304xf32>
    %cst_416 = arith.constant dense_resource<__elided__> : tensor<2304xf32>
    %cst_417 = arith.constant dense_resource<__elided__> : tensor<2304xf32>
    %cst_418 = arith.constant dense_resource<__elided__> : tensor<2304x1x3x3xf32>
    %cst_419 = arith.constant dense_resource<__elided__> : tensor<2304xf32>
    %cst_420 = arith.constant dense_resource<__elided__> : tensor<2304xf32>
    %cst_421 = arith.constant dense_resource<__elided__> : tensor<2304xf32>
    %cst_422 = arith.constant dense_resource<__elided__> : tensor<2304xf32>
    %cst_423 = arith.constant dense_resource<__elided__> : tensor<2304x384x1x1xf32>
    %cst_424 = arith.constant dense_resource<__elided__> : tensor<384xf32>
    %cst_425 = arith.constant dense_resource<__elided__> : tensor<384xf32>
    %cst_426 = arith.constant dense_resource<__elided__> : tensor<384xf32>
    %cst_427 = arith.constant dense_resource<__elided__> : tensor<384xf32>
    %cst_428 = arith.constant dense_resource<__elided__> : tensor<384x2304x1x1xf32>
    %cst_429 = arith.constant dense_resource<__elided__> : tensor<2304xf32>
    %cst_430 = arith.constant dense_resource<__elided__> : tensor<2304x96x1x1xf32>
    %cst_431 = arith.constant dense_resource<__elided__> : tensor<96xf32>
    %cst_432 = arith.constant dense_resource<__elided__> : tensor<96x2304x1x1xf32>
    %cst_433 = arith.constant dense_resource<__elided__> : tensor<2304xf32>
    %cst_434 = arith.constant dense_resource<__elided__> : tensor<2304xf32>
    %cst_435 = arith.constant dense_resource<__elided__> : tensor<2304xf32>
    %cst_436 = arith.constant dense_resource<__elided__> : tensor<2304xf32>
    %cst_437 = arith.constant dense_resource<__elided__> : tensor<2304x1x3x3xf32>
    %cst_438 = arith.constant dense_resource<__elided__> : tensor<2304xf32>
    %cst_439 = arith.constant dense_resource<__elided__> : tensor<2304xf32>
    %cst_440 = arith.constant dense_resource<__elided__> : tensor<2304xf32>
    %cst_441 = arith.constant dense_resource<__elided__> : tensor<2304xf32>
    %cst_442 = arith.constant dense_resource<__elided__> : tensor<2304x384x1x1xf32>
    %cst_443 = arith.constant dense_resource<__elided__> : tensor<384xf32>
    %cst_444 = arith.constant dense_resource<__elided__> : tensor<384xf32>
    %cst_445 = arith.constant dense_resource<__elided__> : tensor<384xf32>
    %cst_446 = arith.constant dense_resource<__elided__> : tensor<384xf32>
    %cst_447 = arith.constant dense_resource<__elided__> : tensor<384x2304x1x1xf32>
    %cst_448 = arith.constant dense_resource<__elided__> : tensor<2304xf32>
    %cst_449 = arith.constant dense_resource<__elided__> : tensor<2304x96x1x1xf32>
    %cst_450 = arith.constant dense_resource<__elided__> : tensor<96xf32>
    %cst_451 = arith.constant dense_resource<__elided__> : tensor<96x2304x1x1xf32>
    %cst_452 = arith.constant dense_resource<__elided__> : tensor<2304xf32>
    %cst_453 = arith.constant dense_resource<__elided__> : tensor<2304xf32>
    %cst_454 = arith.constant dense_resource<__elided__> : tensor<2304xf32>
    %cst_455 = arith.constant dense_resource<__elided__> : tensor<2304xf32>
    %cst_456 = arith.constant dense_resource<__elided__> : tensor<2304x1x3x3xf32>
    %cst_457 = arith.constant dense_resource<__elided__> : tensor<2304xf32>
    %cst_458 = arith.constant dense_resource<__elided__> : tensor<2304xf32>
    %cst_459 = arith.constant dense_resource<__elided__> : tensor<2304xf32>
    %cst_460 = arith.constant dense_resource<__elided__> : tensor<2304xf32>
    %cst_461 = arith.constant dense_resource<__elided__> : tensor<2304x384x1x1xf32>
    %cst_462 = arith.constant dense_resource<__elided__> : tensor<384xf32>
    %cst_463 = arith.constant dense_resource<__elided__> : tensor<384xf32>
    %cst_464 = arith.constant dense_resource<__elided__> : tensor<384xf32>
    %cst_465 = arith.constant dense_resource<__elided__> : tensor<384xf32>
    %cst_466 = arith.constant dense_resource<__elided__> : tensor<384x2304x1x1xf32>
    %cst_467 = arith.constant dense_resource<__elided__> : tensor<2304xf32>
    %cst_468 = arith.constant dense_resource<__elided__> : tensor<2304x96x1x1xf32>
    %cst_469 = arith.constant dense_resource<__elided__> : tensor<96xf32>
    %cst_470 = arith.constant dense_resource<__elided__> : tensor<96x2304x1x1xf32>
    %cst_471 = arith.constant dense_resource<__elided__> : tensor<2304xf32>
    %cst_472 = arith.constant dense_resource<__elided__> : tensor<2304xf32>
    %cst_473 = arith.constant dense_resource<__elided__> : tensor<2304xf32>
    %cst_474 = arith.constant dense_resource<__elided__> : tensor<2304xf32>
    %cst_475 = arith.constant dense_resource<__elided__> : tensor<2304x1x3x3xf32>
    %cst_476 = arith.constant dense_resource<__elided__> : tensor<2304xf32>
    %cst_477 = arith.constant dense_resource<__elided__> : tensor<2304xf32>
    %cst_478 = arith.constant dense_resource<__elided__> : tensor<2304xf32>
    %cst_479 = arith.constant dense_resource<__elided__> : tensor<2304xf32>
    %cst_480 = arith.constant dense_resource<__elided__> : tensor<2304x384x1x1xf32>
    %cst_481 = arith.constant dense_resource<__elided__> : tensor<384xf32>
    %cst_482 = arith.constant dense_resource<__elided__> : tensor<384xf32>
    %cst_483 = arith.constant dense_resource<__elided__> : tensor<384xf32>
    %cst_484 = arith.constant dense_resource<__elided__> : tensor<384xf32>
    %cst_485 = arith.constant dense_resource<__elided__> : tensor<384x2304x1x1xf32>
    %cst_486 = arith.constant dense_resource<__elided__> : tensor<2304xf32>
    %cst_487 = arith.constant dense_resource<__elided__> : tensor<2304x96x1x1xf32>
    %cst_488 = arith.constant dense_resource<__elided__> : tensor<96xf32>
    %cst_489 = arith.constant dense_resource<__elided__> : tensor<96x2304x1x1xf32>
    %cst_490 = arith.constant dense_resource<__elided__> : tensor<2304xf32>
    %cst_491 = arith.constant dense_resource<__elided__> : tensor<2304xf32>
    %cst_492 = arith.constant dense_resource<__elided__> : tensor<2304xf32>
    %cst_493 = arith.constant dense_resource<__elided__> : tensor<2304xf32>
    %cst_494 = arith.constant dense_resource<__elided__> : tensor<2304x1x3x3xf32>
    %cst_495 = arith.constant dense_resource<__elided__> : tensor<2304xf32>
    %cst_496 = arith.constant dense_resource<__elided__> : tensor<2304xf32>
    %cst_497 = arith.constant dense_resource<__elided__> : tensor<2304xf32>
    %cst_498 = arith.constant dense_resource<__elided__> : tensor<2304xf32>
    %cst_499 = arith.constant dense_resource<__elided__> : tensor<2304x384x1x1xf32>
    %cst_500 = arith.constant dense_resource<__elided__> : tensor<384xf32>
    %cst_501 = arith.constant dense_resource<__elided__> : tensor<384xf32>
    %cst_502 = arith.constant dense_resource<__elided__> : tensor<384xf32>
    %cst_503 = arith.constant dense_resource<__elided__> : tensor<384xf32>
    %cst_504 = arith.constant dense_resource<__elided__> : tensor<384x2304x1x1xf32>
    %cst_505 = arith.constant dense_resource<__elided__> : tensor<2304xf32>
    %cst_506 = arith.constant dense_resource<__elided__> : tensor<2304x96x1x1xf32>
    %cst_507 = arith.constant dense_resource<__elided__> : tensor<96xf32>
    %cst_508 = arith.constant dense_resource<__elided__> : tensor<96x2304x1x1xf32>
    %cst_509 = arith.constant dense_resource<__elided__> : tensor<2304xf32>
    %cst_510 = arith.constant dense_resource<__elided__> : tensor<2304xf32>
    %cst_511 = arith.constant dense_resource<__elided__> : tensor<2304xf32>
    %cst_512 = arith.constant dense_resource<__elided__> : tensor<2304xf32>
    %cst_513 = arith.constant dense_resource<__elided__> : tensor<2304x1x3x3xf32>
    %cst_514 = arith.constant dense_resource<__elided__> : tensor<2304xf32>
    %cst_515 = arith.constant dense_resource<__elided__> : tensor<2304xf32>
    %cst_516 = arith.constant dense_resource<__elided__> : tensor<2304xf32>
    %cst_517 = arith.constant dense_resource<__elided__> : tensor<2304xf32>
    %cst_518 = arith.constant dense_resource<__elided__> : tensor<2304x384x1x1xf32>
    %cst_519 = arith.constant dense_resource<__elided__> : tensor<384xf32>
    %cst_520 = arith.constant dense_resource<__elided__> : tensor<384xf32>
    %cst_521 = arith.constant dense_resource<__elided__> : tensor<384xf32>
    %cst_522 = arith.constant dense_resource<__elided__> : tensor<384xf32>
    %cst_523 = arith.constant dense_resource<__elided__> : tensor<384x2304x1x1xf32>
    %cst_524 = arith.constant dense_resource<__elided__> : tensor<2304xf32>
    %cst_525 = arith.constant dense_resource<__elided__> : tensor<2304x96x1x1xf32>
    %cst_526 = arith.constant dense_resource<__elided__> : tensor<96xf32>
    %cst_527 = arith.constant dense_resource<__elided__> : tensor<96x2304x1x1xf32>
    %cst_528 = arith.constant dense_resource<__elided__> : tensor<2304xf32>
    %cst_529 = arith.constant dense_resource<__elided__> : tensor<2304xf32>
    %cst_530 = arith.constant dense_resource<__elided__> : tensor<2304xf32>
    %cst_531 = arith.constant dense_resource<__elided__> : tensor<2304xf32>
    %cst_532 = arith.constant dense_resource<__elided__> : tensor<2304x1x3x3xf32>
    %cst_533 = arith.constant dense_resource<__elided__> : tensor<2304xf32>
    %cst_534 = arith.constant dense_resource<__elided__> : tensor<2304xf32>
    %cst_535 = arith.constant dense_resource<__elided__> : tensor<2304xf32>
    %cst_536 = arith.constant dense_resource<__elided__> : tensor<2304xf32>
    %cst_537 = arith.constant dense_resource<__elided__> : tensor<2304x384x1x1xf32>
    %cst_538 = arith.constant dense_resource<__elided__> : tensor<384xf32>
    %cst_539 = arith.constant dense_resource<__elided__> : tensor<384xf32>
    %cst_540 = arith.constant dense_resource<__elided__> : tensor<384xf32>
    %cst_541 = arith.constant dense_resource<__elided__> : tensor<384xf32>
    %cst_542 = arith.constant dense_resource<__elided__> : tensor<384x2304x1x1xf32>
    %cst_543 = arith.constant dense_resource<__elided__> : tensor<2304xf32>
    %cst_544 = arith.constant dense_resource<__elided__> : tensor<2304x96x1x1xf32>
    %cst_545 = arith.constant dense_resource<__elided__> : tensor<96xf32>
    %cst_546 = arith.constant dense_resource<__elided__> : tensor<96x2304x1x1xf32>
    %cst_547 = arith.constant dense_resource<__elided__> : tensor<2304xf32>
    %cst_548 = arith.constant dense_resource<__elided__> : tensor<2304xf32>
    %cst_549 = arith.constant dense_resource<__elided__> : tensor<2304xf32>
    %cst_550 = arith.constant dense_resource<__elided__> : tensor<2304xf32>
    %cst_551 = arith.constant dense_resource<__elided__> : tensor<2304x1x3x3xf32>
    %cst_552 = arith.constant dense_resource<__elided__> : tensor<2304xf32>
    %cst_553 = arith.constant dense_resource<__elided__> : tensor<2304xf32>
    %cst_554 = arith.constant dense_resource<__elided__> : tensor<2304xf32>
    %cst_555 = arith.constant dense_resource<__elided__> : tensor<2304xf32>
    %cst_556 = arith.constant dense_resource<__elided__> : tensor<2304x384x1x1xf32>
    %cst_557 = arith.constant dense_resource<__elided__> : tensor<384xf32>
    %cst_558 = arith.constant dense_resource<__elided__> : tensor<384xf32>
    %cst_559 = arith.constant dense_resource<__elided__> : tensor<384xf32>
    %cst_560 = arith.constant dense_resource<__elided__> : tensor<384xf32>
    %cst_561 = arith.constant dense_resource<__elided__> : tensor<384x2304x1x1xf32>
    %cst_562 = arith.constant dense_resource<__elided__> : tensor<2304xf32>
    %cst_563 = arith.constant dense_resource<__elided__> : tensor<2304x96x1x1xf32>
    %cst_564 = arith.constant dense_resource<__elided__> : tensor<96xf32>
    %cst_565 = arith.constant dense_resource<__elided__> : tensor<96x2304x1x1xf32>
    %cst_566 = arith.constant dense_resource<__elided__> : tensor<2304xf32>
    %cst_567 = arith.constant dense_resource<__elided__> : tensor<2304xf32>
    %cst_568 = arith.constant dense_resource<__elided__> : tensor<2304xf32>
    %cst_569 = arith.constant dense_resource<__elided__> : tensor<2304xf32>
    %cst_570 = arith.constant dense_resource<__elided__> : tensor<2304x1x3x3xf32>
    %cst_571 = arith.constant dense_resource<__elided__> : tensor<2304xf32>
    %cst_572 = arith.constant dense_resource<__elided__> : tensor<2304xf32>
    %cst_573 = arith.constant dense_resource<__elided__> : tensor<2304xf32>
    %cst_574 = arith.constant dense_resource<__elided__> : tensor<2304xf32>
    %cst_575 = arith.constant dense_resource<__elided__> : tensor<2304x384x1x1xf32>
    %cst_576 = arith.constant dense_resource<__elided__> : tensor<384xf32>
    %cst_577 = arith.constant dense_resource<__elided__> : tensor<384xf32>
    %cst_578 = arith.constant dense_resource<__elided__> : tensor<384xf32>
    %cst_579 = arith.constant dense_resource<__elided__> : tensor<384xf32>
    %cst_580 = arith.constant dense_resource<__elided__> : tensor<384x2304x1x1xf32>
    %cst_581 = arith.constant dense_resource<__elided__> : tensor<2304xf32>
    %cst_582 = arith.constant dense_resource<__elided__> : tensor<2304x96x1x1xf32>
    %cst_583 = arith.constant dense_resource<__elided__> : tensor<96xf32>
    %cst_584 = arith.constant dense_resource<__elided__> : tensor<96x2304x1x1xf32>
    %cst_585 = arith.constant dense_resource<__elided__> : tensor<2304xf32>
    %cst_586 = arith.constant dense_resource<__elided__> : tensor<2304xf32>
    %cst_587 = arith.constant dense_resource<__elided__> : tensor<2304xf32>
    %cst_588 = arith.constant dense_resource<__elided__> : tensor<2304xf32>
    %cst_589 = arith.constant dense_resource<__elided__> : tensor<2304x1x3x3xf32>
    %cst_590 = arith.constant dense_resource<__elided__> : tensor<2304xf32>
    %cst_591 = arith.constant dense_resource<__elided__> : tensor<2304xf32>
    %cst_592 = arith.constant dense_resource<__elided__> : tensor<2304xf32>
    %cst_593 = arith.constant dense_resource<__elided__> : tensor<2304xf32>
    %cst_594 = arith.constant dense_resource<__elided__> : tensor<2304x384x1x1xf32>
    %cst_595 = arith.constant dense_resource<__elided__> : tensor<384xf32>
    %cst_596 = arith.constant dense_resource<__elided__> : tensor<384xf32>
    %cst_597 = arith.constant dense_resource<__elided__> : tensor<384xf32>
    %cst_598 = arith.constant dense_resource<__elided__> : tensor<384xf32>
    %cst_599 = arith.constant dense_resource<__elided__> : tensor<384x1344x1x1xf32>
    %cst_600 = arith.constant dense_resource<__elided__> : tensor<1344xf32>
    %cst_601 = arith.constant dense_resource<__elided__> : tensor<1344x56x1x1xf32>
    %cst_602 = arith.constant dense_resource<__elided__> : tensor<56xf32>
    %cst_603 = arith.constant dense_resource<__elided__> : tensor<56x1344x1x1xf32>
    %cst_604 = arith.constant dense_resource<__elided__> : tensor<1344xf32>
    %cst_605 = arith.constant dense_resource<__elided__> : tensor<1344xf32>
    %cst_606 = arith.constant dense_resource<__elided__> : tensor<1344xf32>
    %cst_607 = arith.constant dense_resource<__elided__> : tensor<1344xf32>
    %cst_608 = arith.constant dense_resource<__elided__> : tensor<1344x1x3x3xf32>
    %cst_609 = arith.constant dense_resource<__elided__> : tensor<1344xf32>
    %cst_610 = arith.constant dense_resource<__elided__> : tensor<1344xf32>
    %cst_611 = arith.constant dense_resource<__elided__> : tensor<1344xf32>
    %cst_612 = arith.constant dense_resource<__elided__> : tensor<1344xf32>
    %cst_613 = arith.constant dense_resource<__elided__> : tensor<1344x224x1x1xf32>
    %cst_614 = arith.constant dense_resource<__elided__> : tensor<224xf32>
    %cst_615 = arith.constant dense_resource<__elided__> : tensor<224xf32>
    %cst_616 = arith.constant dense_resource<__elided__> : tensor<224xf32>
    %cst_617 = arith.constant dense_resource<__elided__> : tensor<224xf32>
    %cst_618 = arith.constant dense_resource<__elided__> : tensor<224x1344x1x1xf32>
    %cst_619 = arith.constant dense_resource<__elided__> : tensor<1344xf32>
    %cst_620 = arith.constant dense_resource<__elided__> : tensor<1344x56x1x1xf32>
    %cst_621 = arith.constant dense_resource<__elided__> : tensor<56xf32>
    %cst_622 = arith.constant dense_resource<__elided__> : tensor<56x1344x1x1xf32>
    %cst_623 = arith.constant dense_resource<__elided__> : tensor<1344xf32>
    %cst_624 = arith.constant dense_resource<__elided__> : tensor<1344xf32>
    %cst_625 = arith.constant dense_resource<__elided__> : tensor<1344xf32>
    %cst_626 = arith.constant dense_resource<__elided__> : tensor<1344xf32>
    %cst_627 = arith.constant dense_resource<__elided__> : tensor<1344x1x3x3xf32>
    %cst_628 = arith.constant dense_resource<__elided__> : tensor<1344xf32>
    %cst_629 = arith.constant dense_resource<__elided__> : tensor<1344xf32>
    %cst_630 = arith.constant dense_resource<__elided__> : tensor<1344xf32>
    %cst_631 = arith.constant dense_resource<__elided__> : tensor<1344xf32>
    %cst_632 = arith.constant dense_resource<__elided__> : tensor<1344x224x1x1xf32>
    %cst_633 = arith.constant dense_resource<__elided__> : tensor<224xf32>
    %cst_634 = arith.constant dense_resource<__elided__> : tensor<224xf32>
    %cst_635 = arith.constant dense_resource<__elided__> : tensor<224xf32>
    %cst_636 = arith.constant dense_resource<__elided__> : tensor<224xf32>
    %cst_637 = arith.constant dense_resource<__elided__> : tensor<224x1344x1x1xf32>
    %cst_638 = arith.constant dense_resource<__elided__> : tensor<1344xf32>
    %cst_639 = arith.constant dense_resource<__elided__> : tensor<1344x56x1x1xf32>
    %cst_640 = arith.constant dense_resource<__elided__> : tensor<56xf32>
    %cst_641 = arith.constant dense_resource<__elided__> : tensor<56x1344x1x1xf32>
    %cst_642 = arith.constant dense_resource<__elided__> : tensor<1344xf32>
    %cst_643 = arith.constant dense_resource<__elided__> : tensor<1344xf32>
    %cst_644 = arith.constant dense_resource<__elided__> : tensor<1344xf32>
    %cst_645 = arith.constant dense_resource<__elided__> : tensor<1344xf32>
    %cst_646 = arith.constant dense_resource<__elided__> : tensor<1344x1x3x3xf32>
    %cst_647 = arith.constant dense_resource<__elided__> : tensor<1344xf32>
    %cst_648 = arith.constant dense_resource<__elided__> : tensor<1344xf32>
    %cst_649 = arith.constant dense_resource<__elided__> : tensor<1344xf32>
    %cst_650 = arith.constant dense_resource<__elided__> : tensor<1344xf32>
    %cst_651 = arith.constant dense_resource<__elided__> : tensor<1344x224x1x1xf32>
    %cst_652 = arith.constant dense_resource<__elided__> : tensor<224xf32>
    %cst_653 = arith.constant dense_resource<__elided__> : tensor<224xf32>
    %cst_654 = arith.constant dense_resource<__elided__> : tensor<224xf32>
    %cst_655 = arith.constant dense_resource<__elided__> : tensor<224xf32>
    %cst_656 = arith.constant dense_resource<__elided__> : tensor<224x1344x1x1xf32>
    %cst_657 = arith.constant dense_resource<__elided__> : tensor<1344xf32>
    %cst_658 = arith.constant dense_resource<__elided__> : tensor<1344x56x1x1xf32>
    %cst_659 = arith.constant dense_resource<__elided__> : tensor<56xf32>
    %cst_660 = arith.constant dense_resource<__elided__> : tensor<56x1344x1x1xf32>
    %cst_661 = arith.constant dense_resource<__elided__> : tensor<1344xf32>
    %cst_662 = arith.constant dense_resource<__elided__> : tensor<1344xf32>
    %cst_663 = arith.constant dense_resource<__elided__> : tensor<1344xf32>
    %cst_664 = arith.constant dense_resource<__elided__> : tensor<1344xf32>
    %cst_665 = arith.constant dense_resource<__elided__> : tensor<1344x1x3x3xf32>
    %cst_666 = arith.constant dense_resource<__elided__> : tensor<1344xf32>
    %cst_667 = arith.constant dense_resource<__elided__> : tensor<1344xf32>
    %cst_668 = arith.constant dense_resource<__elided__> : tensor<1344xf32>
    %cst_669 = arith.constant dense_resource<__elided__> : tensor<1344xf32>
    %cst_670 = arith.constant dense_resource<__elided__> : tensor<1344x224x1x1xf32>
    %cst_671 = arith.constant dense_resource<__elided__> : tensor<224xf32>
    %cst_672 = arith.constant dense_resource<__elided__> : tensor<224xf32>
    %cst_673 = arith.constant dense_resource<__elided__> : tensor<224xf32>
    %cst_674 = arith.constant dense_resource<__elided__> : tensor<224xf32>
    %cst_675 = arith.constant dense_resource<__elided__> : tensor<224x1344x1x1xf32>
    %cst_676 = arith.constant dense_resource<__elided__> : tensor<1344xf32>
    %cst_677 = arith.constant dense_resource<__elided__> : tensor<1344x56x1x1xf32>
    %cst_678 = arith.constant dense_resource<__elided__> : tensor<56xf32>
    %cst_679 = arith.constant dense_resource<__elided__> : tensor<56x1344x1x1xf32>
    %cst_680 = arith.constant dense_resource<__elided__> : tensor<1344xf32>
    %cst_681 = arith.constant dense_resource<__elided__> : tensor<1344xf32>
    %cst_682 = arith.constant dense_resource<__elided__> : tensor<1344xf32>
    %cst_683 = arith.constant dense_resource<__elided__> : tensor<1344xf32>
    %cst_684 = arith.constant dense_resource<__elided__> : tensor<1344x1x3x3xf32>
    %cst_685 = arith.constant dense_resource<__elided__> : tensor<1344xf32>
    %cst_686 = arith.constant dense_resource<__elided__> : tensor<1344xf32>
    %cst_687 = arith.constant dense_resource<__elided__> : tensor<1344xf32>
    %cst_688 = arith.constant dense_resource<__elided__> : tensor<1344xf32>
    %cst_689 = arith.constant dense_resource<__elided__> : tensor<1344x224x1x1xf32>
    %cst_690 = arith.constant dense_resource<__elided__> : tensor<224xf32>
    %cst_691 = arith.constant dense_resource<__elided__> : tensor<224xf32>
    %cst_692 = arith.constant dense_resource<__elided__> : tensor<224xf32>
    %cst_693 = arith.constant dense_resource<__elided__> : tensor<224xf32>
    %cst_694 = arith.constant dense_resource<__elided__> : tensor<224x1344x1x1xf32>
    %cst_695 = arith.constant dense_resource<__elided__> : tensor<1344xf32>
    %cst_696 = arith.constant dense_resource<__elided__> : tensor<1344x56x1x1xf32>
    %cst_697 = arith.constant dense_resource<__elided__> : tensor<56xf32>
    %cst_698 = arith.constant dense_resource<__elided__> : tensor<56x1344x1x1xf32>
    %cst_699 = arith.constant dense_resource<__elided__> : tensor<1344xf32>
    %cst_700 = arith.constant dense_resource<__elided__> : tensor<1344xf32>
    %cst_701 = arith.constant dense_resource<__elided__> : tensor<1344xf32>
    %cst_702 = arith.constant dense_resource<__elided__> : tensor<1344xf32>
    %cst_703 = arith.constant dense_resource<__elided__> : tensor<1344x1x3x3xf32>
    %cst_704 = arith.constant dense_resource<__elided__> : tensor<1344xf32>
    %cst_705 = arith.constant dense_resource<__elided__> : tensor<1344xf32>
    %cst_706 = arith.constant dense_resource<__elided__> : tensor<1344xf32>
    %cst_707 = arith.constant dense_resource<__elided__> : tensor<1344xf32>
    %cst_708 = arith.constant dense_resource<__elided__> : tensor<1344x224x1x1xf32>
    %cst_709 = arith.constant dense_resource<__elided__> : tensor<224xf32>
    %cst_710 = arith.constant dense_resource<__elided__> : tensor<224xf32>
    %cst_711 = arith.constant dense_resource<__elided__> : tensor<224xf32>
    %cst_712 = arith.constant dense_resource<__elided__> : tensor<224xf32>
    %cst_713 = arith.constant dense_resource<__elided__> : tensor<224x1344x1x1xf32>
    %cst_714 = arith.constant dense_resource<__elided__> : tensor<1344xf32>
    %cst_715 = arith.constant dense_resource<__elided__> : tensor<1344x56x1x1xf32>
    %cst_716 = arith.constant dense_resource<__elided__> : tensor<56xf32>
    %cst_717 = arith.constant dense_resource<__elided__> : tensor<56x1344x1x1xf32>
    %cst_718 = arith.constant dense_resource<__elided__> : tensor<1344xf32>
    %cst_719 = arith.constant dense_resource<__elided__> : tensor<1344xf32>
    %cst_720 = arith.constant dense_resource<__elided__> : tensor<1344xf32>
    %cst_721 = arith.constant dense_resource<__elided__> : tensor<1344xf32>
    %cst_722 = arith.constant dense_resource<__elided__> : tensor<1344x1x3x3xf32>
    %cst_723 = arith.constant dense_resource<__elided__> : tensor<1344xf32>
    %cst_724 = arith.constant dense_resource<__elided__> : tensor<1344xf32>
    %cst_725 = arith.constant dense_resource<__elided__> : tensor<1344xf32>
    %cst_726 = arith.constant dense_resource<__elided__> : tensor<1344xf32>
    %cst_727 = arith.constant dense_resource<__elided__> : tensor<1344x224x1x1xf32>
    %cst_728 = arith.constant dense_resource<__elided__> : tensor<224xf32>
    %cst_729 = arith.constant dense_resource<__elided__> : tensor<224xf32>
    %cst_730 = arith.constant dense_resource<__elided__> : tensor<224xf32>
    %cst_731 = arith.constant dense_resource<__elided__> : tensor<224xf32>
    %cst_732 = arith.constant dense_resource<__elided__> : tensor<224x1344x1x1xf32>
    %cst_733 = arith.constant dense_resource<__elided__> : tensor<1344xf32>
    %cst_734 = arith.constant dense_resource<__elided__> : tensor<1344x56x1x1xf32>
    %cst_735 = arith.constant dense_resource<__elided__> : tensor<56xf32>
    %cst_736 = arith.constant dense_resource<__elided__> : tensor<56x1344x1x1xf32>
    %cst_737 = arith.constant dense_resource<__elided__> : tensor<1344xf32>
    %cst_738 = arith.constant dense_resource<__elided__> : tensor<1344xf32>
    %cst_739 = arith.constant dense_resource<__elided__> : tensor<1344xf32>
    %cst_740 = arith.constant dense_resource<__elided__> : tensor<1344xf32>
    %cst_741 = arith.constant dense_resource<__elided__> : tensor<1344x1x3x3xf32>
    %cst_742 = arith.constant dense_resource<__elided__> : tensor<1344xf32>
    %cst_743 = arith.constant dense_resource<__elided__> : tensor<1344xf32>
    %cst_744 = arith.constant dense_resource<__elided__> : tensor<1344xf32>
    %cst_745 = arith.constant dense_resource<__elided__> : tensor<1344xf32>
    %cst_746 = arith.constant dense_resource<__elided__> : tensor<1344x224x1x1xf32>
    %cst_747 = arith.constant dense_resource<__elided__> : tensor<224xf32>
    %cst_748 = arith.constant dense_resource<__elided__> : tensor<224xf32>
    %cst_749 = arith.constant dense_resource<__elided__> : tensor<224xf32>
    %cst_750 = arith.constant dense_resource<__elided__> : tensor<224xf32>
    %cst_751 = arith.constant dense_resource<__elided__> : tensor<224x1344x1x1xf32>
    %cst_752 = arith.constant dense_resource<__elided__> : tensor<1344xf32>
    %cst_753 = arith.constant dense_resource<__elided__> : tensor<1344x56x1x1xf32>
    %cst_754 = arith.constant dense_resource<__elided__> : tensor<56xf32>
    %cst_755 = arith.constant dense_resource<__elided__> : tensor<56x1344x1x1xf32>
    %cst_756 = arith.constant dense_resource<__elided__> : tensor<1344xf32>
    %cst_757 = arith.constant dense_resource<__elided__> : tensor<1344xf32>
    %cst_758 = arith.constant dense_resource<__elided__> : tensor<1344xf32>
    %cst_759 = arith.constant dense_resource<__elided__> : tensor<1344xf32>
    %cst_760 = arith.constant dense_resource<__elided__> : tensor<1344x1x3x3xf32>
    %cst_761 = arith.constant dense_resource<__elided__> : tensor<1344xf32>
    %cst_762 = arith.constant dense_resource<__elided__> : tensor<1344xf32>
    %cst_763 = arith.constant dense_resource<__elided__> : tensor<1344xf32>
    %cst_764 = arith.constant dense_resource<__elided__> : tensor<1344xf32>
    %cst_765 = arith.constant dense_resource<__elided__> : tensor<1344x224x1x1xf32>
    %cst_766 = arith.constant dense_resource<__elided__> : tensor<224xf32>
    %cst_767 = arith.constant dense_resource<__elided__> : tensor<224xf32>
    %cst_768 = arith.constant dense_resource<__elided__> : tensor<224xf32>
    %cst_769 = arith.constant dense_resource<__elided__> : tensor<224xf32>
    %cst_770 = arith.constant dense_resource<__elided__> : tensor<224x1344x1x1xf32>
    %cst_771 = arith.constant dense_resource<__elided__> : tensor<1344xf32>
    %cst_772 = arith.constant dense_resource<__elided__> : tensor<1344x56x1x1xf32>
    %cst_773 = arith.constant dense_resource<__elided__> : tensor<56xf32>
    %cst_774 = arith.constant dense_resource<__elided__> : tensor<56x1344x1x1xf32>
    %cst_775 = arith.constant dense_resource<__elided__> : tensor<1344xf32>
    %cst_776 = arith.constant dense_resource<__elided__> : tensor<1344xf32>
    %cst_777 = arith.constant dense_resource<__elided__> : tensor<1344xf32>
    %cst_778 = arith.constant dense_resource<__elided__> : tensor<1344xf32>
    %cst_779 = arith.constant dense_resource<__elided__> : tensor<1344x1x3x3xf32>
    %cst_780 = arith.constant dense_resource<__elided__> : tensor<1344xf32>
    %cst_781 = arith.constant dense_resource<__elided__> : tensor<1344xf32>
    %cst_782 = arith.constant dense_resource<__elided__> : tensor<1344xf32>
    %cst_783 = arith.constant dense_resource<__elided__> : tensor<1344xf32>
    %cst_784 = arith.constant dense_resource<__elided__> : tensor<1344x224x1x1xf32>
    %cst_785 = arith.constant dense_resource<__elided__> : tensor<224xf32>
    %cst_786 = arith.constant dense_resource<__elided__> : tensor<224xf32>
    %cst_787 = arith.constant dense_resource<__elided__> : tensor<224xf32>
    %cst_788 = arith.constant dense_resource<__elided__> : tensor<224xf32>
    %cst_789 = arith.constant dense_resource<__elided__> : tensor<224x1344x1x1xf32>
    %cst_790 = arith.constant dense_resource<__elided__> : tensor<1344xf32>
    %cst_791 = arith.constant dense_resource<__elided__> : tensor<1344x56x1x1xf32>
    %cst_792 = arith.constant dense_resource<__elided__> : tensor<56xf32>
    %cst_793 = arith.constant dense_resource<__elided__> : tensor<56x1344x1x1xf32>
    %cst_794 = arith.constant dense_resource<__elided__> : tensor<1344xf32>
    %cst_795 = arith.constant dense_resource<__elided__> : tensor<1344xf32>
    %cst_796 = arith.constant dense_resource<__elided__> : tensor<1344xf32>
    %cst_797 = arith.constant dense_resource<__elided__> : tensor<1344xf32>
    %cst_798 = arith.constant dense_resource<__elided__> : tensor<1344x1x3x3xf32>
    %cst_799 = arith.constant dense_resource<__elided__> : tensor<1344xf32>
    %cst_800 = arith.constant dense_resource<__elided__> : tensor<1344xf32>
    %cst_801 = arith.constant dense_resource<__elided__> : tensor<1344xf32>
    %cst_802 = arith.constant dense_resource<__elided__> : tensor<1344xf32>
    %cst_803 = arith.constant dense_resource<__elided__> : tensor<1344x224x1x1xf32>
    %cst_804 = arith.constant dense_resource<__elided__> : tensor<224xf32>
    %cst_805 = arith.constant dense_resource<__elided__> : tensor<224xf32>
    %cst_806 = arith.constant dense_resource<__elided__> : tensor<224xf32>
    %cst_807 = arith.constant dense_resource<__elided__> : tensor<224xf32>
    %cst_808 = arith.constant dense_resource<__elided__> : tensor<224x1344x1x1xf32>
    %cst_809 = arith.constant dense_resource<__elided__> : tensor<1344xf32>
    %cst_810 = arith.constant dense_resource<__elided__> : tensor<1344x56x1x1xf32>
    %cst_811 = arith.constant dense_resource<__elided__> : tensor<56xf32>
    %cst_812 = arith.constant dense_resource<__elided__> : tensor<56x1344x1x1xf32>
    %cst_813 = arith.constant dense_resource<__elided__> : tensor<1344xf32>
    %cst_814 = arith.constant dense_resource<__elided__> : tensor<1344xf32>
    %cst_815 = arith.constant dense_resource<__elided__> : tensor<1344xf32>
    %cst_816 = arith.constant dense_resource<__elided__> : tensor<1344xf32>
    %cst_817 = arith.constant dense_resource<__elided__> : tensor<1344x1x3x3xf32>
    %cst_818 = arith.constant dense_resource<__elided__> : tensor<1344xf32>
    %cst_819 = arith.constant dense_resource<__elided__> : tensor<1344xf32>
    %cst_820 = arith.constant dense_resource<__elided__> : tensor<1344xf32>
    %cst_821 = arith.constant dense_resource<__elided__> : tensor<1344xf32>
    %cst_822 = arith.constant dense_resource<__elided__> : tensor<1344x224x1x1xf32>
    %cst_823 = arith.constant dense_resource<__elided__> : tensor<224xf32>
    %cst_824 = arith.constant dense_resource<__elided__> : tensor<224xf32>
    %cst_825 = arith.constant dense_resource<__elided__> : tensor<224xf32>
    %cst_826 = arith.constant dense_resource<__elided__> : tensor<224xf32>
    %cst_827 = arith.constant dense_resource<__elided__> : tensor<224x1344x1x1xf32>
    %cst_828 = arith.constant dense_resource<__elided__> : tensor<1344xf32>
    %cst_829 = arith.constant dense_resource<__elided__> : tensor<1344x56x1x1xf32>
    %cst_830 = arith.constant dense_resource<__elided__> : tensor<56xf32>
    %cst_831 = arith.constant dense_resource<__elided__> : tensor<56x1344x1x1xf32>
    %cst_832 = arith.constant dense_resource<__elided__> : tensor<1344xf32>
    %cst_833 = arith.constant dense_resource<__elided__> : tensor<1344xf32>
    %cst_834 = arith.constant dense_resource<__elided__> : tensor<1344xf32>
    %cst_835 = arith.constant dense_resource<__elided__> : tensor<1344xf32>
    %cst_836 = arith.constant dense_resource<__elided__> : tensor<1344x1x3x3xf32>
    %cst_837 = arith.constant dense_resource<__elided__> : tensor<1344xf32>
    %cst_838 = arith.constant dense_resource<__elided__> : tensor<1344xf32>
    %cst_839 = arith.constant dense_resource<__elided__> : tensor<1344xf32>
    %cst_840 = arith.constant dense_resource<__elided__> : tensor<1344xf32>
    %cst_841 = arith.constant dense_resource<__elided__> : tensor<1344x224x1x1xf32>
    %cst_842 = arith.constant dense_resource<__elided__> : tensor<224xf32>
    %cst_843 = arith.constant dense_resource<__elided__> : tensor<224xf32>
    %cst_844 = arith.constant dense_resource<__elided__> : tensor<224xf32>
    %cst_845 = arith.constant dense_resource<__elided__> : tensor<224xf32>
    %cst_846 = arith.constant dense_resource<__elided__> : tensor<224x1344x1x1xf32>
    %cst_847 = arith.constant dense_resource<__elided__> : tensor<1344xf32>
    %cst_848 = arith.constant dense_resource<__elided__> : tensor<1344x56x1x1xf32>
    %cst_849 = arith.constant dense_resource<__elided__> : tensor<56xf32>
    %cst_850 = arith.constant dense_resource<__elided__> : tensor<56x1344x1x1xf32>
    %cst_851 = arith.constant dense_resource<__elided__> : tensor<1344xf32>
    %cst_852 = arith.constant dense_resource<__elided__> : tensor<1344xf32>
    %cst_853 = arith.constant dense_resource<__elided__> : tensor<1344xf32>
    %cst_854 = arith.constant dense_resource<__elided__> : tensor<1344xf32>
    %cst_855 = arith.constant dense_resource<__elided__> : tensor<1344x1x3x3xf32>
    %cst_856 = arith.constant dense_resource<__elided__> : tensor<1344xf32>
    %cst_857 = arith.constant dense_resource<__elided__> : tensor<1344xf32>
    %cst_858 = arith.constant dense_resource<__elided__> : tensor<1344xf32>
    %cst_859 = arith.constant dense_resource<__elided__> : tensor<1344xf32>
    %cst_860 = arith.constant dense_resource<__elided__> : tensor<1344x224x1x1xf32>
    %cst_861 = arith.constant dense_resource<__elided__> : tensor<224xf32>
    %cst_862 = arith.constant dense_resource<__elided__> : tensor<224xf32>
    %cst_863 = arith.constant dense_resource<__elided__> : tensor<224xf32>
    %cst_864 = arith.constant dense_resource<__elided__> : tensor<224xf32>
    %cst_865 = arith.constant dense_resource<__elided__> : tensor<224x1344x1x1xf32>
    %cst_866 = arith.constant dense_resource<__elided__> : tensor<1344xf32>
    %cst_867 = arith.constant dense_resource<__elided__> : tensor<1344x56x1x1xf32>
    %cst_868 = arith.constant dense_resource<__elided__> : tensor<56xf32>
    %cst_869 = arith.constant dense_resource<__elided__> : tensor<56x1344x1x1xf32>
    %cst_870 = arith.constant dense_resource<__elided__> : tensor<1344xf32>
    %cst_871 = arith.constant dense_resource<__elided__> : tensor<1344xf32>
    %cst_872 = arith.constant dense_resource<__elided__> : tensor<1344xf32>
    %cst_873 = arith.constant dense_resource<__elided__> : tensor<1344xf32>
    %cst_874 = arith.constant dense_resource<__elided__> : tensor<1344x1x3x3xf32>
    %cst_875 = arith.constant dense_resource<__elided__> : tensor<1344xf32>
    %cst_876 = arith.constant dense_resource<__elided__> : tensor<1344xf32>
    %cst_877 = arith.constant dense_resource<__elided__> : tensor<1344xf32>
    %cst_878 = arith.constant dense_resource<__elided__> : tensor<1344xf32>
    %cst_879 = arith.constant dense_resource<__elided__> : tensor<1344x224x1x1xf32>
    %cst_880 = arith.constant dense_resource<__elided__> : tensor<224xf32>
    %cst_881 = arith.constant dense_resource<__elided__> : tensor<224xf32>
    %cst_882 = arith.constant dense_resource<__elided__> : tensor<224xf32>
    %cst_883 = arith.constant dense_resource<__elided__> : tensor<224xf32>
    %cst_884 = arith.constant dense_resource<__elided__> : tensor<224x1344x1x1xf32>
    %cst_885 = arith.constant dense_resource<__elided__> : tensor<1344xf32>
    %cst_886 = arith.constant dense_resource<__elided__> : tensor<1344x56x1x1xf32>
    %cst_887 = arith.constant dense_resource<__elided__> : tensor<56xf32>
    %cst_888 = arith.constant dense_resource<__elided__> : tensor<56x1344x1x1xf32>
    %cst_889 = arith.constant dense_resource<__elided__> : tensor<1344xf32>
    %cst_890 = arith.constant dense_resource<__elided__> : tensor<1344xf32>
    %cst_891 = arith.constant dense_resource<__elided__> : tensor<1344xf32>
    %cst_892 = arith.constant dense_resource<__elided__> : tensor<1344xf32>
    %cst_893 = arith.constant dense_resource<__elided__> : tensor<1344x1x3x3xf32>
    %cst_894 = arith.constant dense_resource<__elided__> : tensor<1344xf32>
    %cst_895 = arith.constant dense_resource<__elided__> : tensor<1344xf32>
    %cst_896 = arith.constant dense_resource<__elided__> : tensor<1344xf32>
    %cst_897 = arith.constant dense_resource<__elided__> : tensor<1344xf32>
    %cst_898 = arith.constant dense_resource<__elided__> : tensor<1344x224x1x1xf32>
    %cst_899 = arith.constant dense_resource<__elided__> : tensor<224xf32>
    %cst_900 = arith.constant dense_resource<__elided__> : tensor<224xf32>
    %cst_901 = arith.constant dense_resource<__elided__> : tensor<224xf32>
    %cst_902 = arith.constant dense_resource<__elided__> : tensor<224xf32>
    %cst_903 = arith.constant dense_resource<__elided__> : tensor<224x1344x1x1xf32>
    %cst_904 = arith.constant dense_resource<__elided__> : tensor<1344xf32>
    %cst_905 = arith.constant dense_resource<__elided__> : tensor<1344x56x1x1xf32>
    %cst_906 = arith.constant dense_resource<__elided__> : tensor<56xf32>
    %cst_907 = arith.constant dense_resource<__elided__> : tensor<56x1344x1x1xf32>
    %cst_908 = arith.constant dense_resource<__elided__> : tensor<1344xf32>
    %cst_909 = arith.constant dense_resource<__elided__> : tensor<1344xf32>
    %cst_910 = arith.constant dense_resource<__elided__> : tensor<1344xf32>
    %cst_911 = arith.constant dense_resource<__elided__> : tensor<1344xf32>
    %cst_912 = arith.constant dense_resource<__elided__> : tensor<1344x1x3x3xf32>
    %cst_913 = arith.constant dense_resource<__elided__> : tensor<1344xf32>
    %cst_914 = arith.constant dense_resource<__elided__> : tensor<1344xf32>
    %cst_915 = arith.constant dense_resource<__elided__> : tensor<1344xf32>
    %cst_916 = arith.constant dense_resource<__elided__> : tensor<1344xf32>
    %cst_917 = arith.constant dense_resource<__elided__> : tensor<1344x224x1x1xf32>
    %cst_918 = arith.constant dense_resource<__elided__> : tensor<224xf32>
    %cst_919 = arith.constant dense_resource<__elided__> : tensor<224xf32>
    %cst_920 = arith.constant dense_resource<__elided__> : tensor<224xf32>
    %cst_921 = arith.constant dense_resource<__elided__> : tensor<224xf32>
    %cst_922 = arith.constant dense_resource<__elided__> : tensor<224x1344x1x1xf32>
    %cst_923 = arith.constant dense_resource<__elided__> : tensor<1344xf32>
    %cst_924 = arith.constant dense_resource<__elided__> : tensor<1344x56x1x1xf32>
    %cst_925 = arith.constant dense_resource<__elided__> : tensor<56xf32>
    %cst_926 = arith.constant dense_resource<__elided__> : tensor<56x1344x1x1xf32>
    %cst_927 = arith.constant dense_resource<__elided__> : tensor<1344xf32>
    %cst_928 = arith.constant dense_resource<__elided__> : tensor<1344xf32>
    %cst_929 = arith.constant dense_resource<__elided__> : tensor<1344xf32>
    %cst_930 = arith.constant dense_resource<__elided__> : tensor<1344xf32>
    %cst_931 = arith.constant dense_resource<__elided__> : tensor<1344x1x3x3xf32>
    %cst_932 = arith.constant dense_resource<__elided__> : tensor<1344xf32>
    %cst_933 = arith.constant dense_resource<__elided__> : tensor<1344xf32>
    %cst_934 = arith.constant dense_resource<__elided__> : tensor<1344xf32>
    %cst_935 = arith.constant dense_resource<__elided__> : tensor<1344xf32>
    %cst_936 = arith.constant dense_resource<__elided__> : tensor<1344x224x1x1xf32>
    %cst_937 = arith.constant dense_resource<__elided__> : tensor<224xf32>
    %cst_938 = arith.constant dense_resource<__elided__> : tensor<224xf32>
    %cst_939 = arith.constant dense_resource<__elided__> : tensor<224xf32>
    %cst_940 = arith.constant dense_resource<__elided__> : tensor<224xf32>
    %cst_941 = arith.constant dense_resource<__elided__> : tensor<224x1344x1x1xf32>
    %cst_942 = arith.constant dense_resource<__elided__> : tensor<1344xf32>
    %cst_943 = arith.constant dense_resource<__elided__> : tensor<1344x56x1x1xf32>
    %cst_944 = arith.constant dense_resource<__elided__> : tensor<56xf32>
    %cst_945 = arith.constant dense_resource<__elided__> : tensor<56x1344x1x1xf32>
    %cst_946 = arith.constant dense_resource<__elided__> : tensor<1344xf32>
    %cst_947 = arith.constant dense_resource<__elided__> : tensor<1344xf32>
    %cst_948 = arith.constant dense_resource<__elided__> : tensor<1344xf32>
    %cst_949 = arith.constant dense_resource<__elided__> : tensor<1344xf32>
    %cst_950 = arith.constant dense_resource<__elided__> : tensor<1344x1x3x3xf32>
    %cst_951 = arith.constant dense_resource<__elided__> : tensor<1344xf32>
    %cst_952 = arith.constant dense_resource<__elided__> : tensor<1344xf32>
    %cst_953 = arith.constant dense_resource<__elided__> : tensor<1344xf32>
    %cst_954 = arith.constant dense_resource<__elided__> : tensor<1344xf32>
    %cst_955 = arith.constant dense_resource<__elided__> : tensor<1344x224x1x1xf32>
    %cst_956 = arith.constant dense_resource<__elided__> : tensor<224xf32>
    %cst_957 = arith.constant dense_resource<__elided__> : tensor<224xf32>
    %cst_958 = arith.constant dense_resource<__elided__> : tensor<224xf32>
    %cst_959 = arith.constant dense_resource<__elided__> : tensor<224xf32>
    %cst_960 = arith.constant dense_resource<__elided__> : tensor<224x1152x1x1xf32>
    %cst_961 = arith.constant dense_resource<__elided__> : tensor<1152xf32>
    %cst_962 = arith.constant dense_resource<__elided__> : tensor<1152x48x1x1xf32>
    %cst_963 = arith.constant dense_resource<__elided__> : tensor<48xf32>
    %cst_964 = arith.constant dense_resource<__elided__> : tensor<48x1152x1x1xf32>
    %cst_965 = arith.constant dense_resource<__elided__> : tensor<1152xf32>
    %cst_966 = arith.constant dense_resource<__elided__> : tensor<1152xf32>
    %cst_967 = arith.constant dense_resource<__elided__> : tensor<1152xf32>
    %cst_968 = arith.constant dense_resource<__elided__> : tensor<1152xf32>
    %cst_969 = arith.constant dense_resource<__elided__> : tensor<1152x1x3x3xf32>
    %cst_970 = arith.constant dense_resource<__elided__> : tensor<1152xf32>
    %cst_971 = arith.constant dense_resource<__elided__> : tensor<1152xf32>
    %cst_972 = arith.constant dense_resource<__elided__> : tensor<1152xf32>
    %cst_973 = arith.constant dense_resource<__elided__> : tensor<1152xf32>
    %cst_974 = arith.constant dense_resource<__elided__> : tensor<1152x192x1x1xf32>
    %cst_975 = arith.constant dense_resource<__elided__> : tensor<192xf32>
    %cst_976 = arith.constant dense_resource<__elided__> : tensor<192xf32>
    %cst_977 = arith.constant dense_resource<__elided__> : tensor<192xf32>
    %cst_978 = arith.constant dense_resource<__elided__> : tensor<192xf32>
    %cst_979 = arith.constant dense_resource<__elided__> : tensor<192x768x1x1xf32>
    %cst_980 = arith.constant dense_resource<__elided__> : tensor<768xf32>
    %cst_981 = arith.constant dense_resource<__elided__> : tensor<768x48x1x1xf32>
    %cst_982 = arith.constant dense_resource<__elided__> : tensor<48xf32>
    %cst_983 = arith.constant dense_resource<__elided__> : tensor<48x768x1x1xf32>
    %cst_984 = arith.constant dense_resource<__elided__> : tensor<768xf32>
    %cst_985 = arith.constant dense_resource<__elided__> : tensor<768xf32>
    %cst_986 = arith.constant dense_resource<__elided__> : tensor<768xf32>
    %cst_987 = arith.constant dense_resource<__elided__> : tensor<768xf32>
    %cst_988 = arith.constant dense_resource<__elided__> : tensor<768x1x3x3xf32>
    %cst_989 = arith.constant dense_resource<__elided__> : tensor<768xf32>
    %cst_990 = arith.constant dense_resource<__elided__> : tensor<768xf32>
    %cst_991 = arith.constant dense_resource<__elided__> : tensor<768xf32>
    %cst_992 = arith.constant dense_resource<__elided__> : tensor<768xf32>
    %cst_993 = arith.constant dense_resource<__elided__> : tensor<768x192x1x1xf32>
    %cst_994 = arith.constant dense_resource<__elided__> : tensor<192xf32>
    %cst_995 = arith.constant dense_resource<__elided__> : tensor<192xf32>
    %cst_996 = arith.constant dense_resource<__elided__> : tensor<192xf32>
    %cst_997 = arith.constant dense_resource<__elided__> : tensor<192xf32>
    %cst_998 = arith.constant dense_resource<__elided__> : tensor<192x768x1x1xf32>
    %cst_999 = arith.constant dense_resource<__elided__> : tensor<768xf32>
    %cst_1000 = arith.constant dense_resource<__elided__> : tensor<768x48x1x1xf32>
    %cst_1001 = arith.constant dense_resource<__elided__> : tensor<48xf32>
    %cst_1002 = arith.constant dense_resource<__elided__> : tensor<48x768x1x1xf32>
    %cst_1003 = arith.constant dense_resource<__elided__> : tensor<768xf32>
    %cst_1004 = arith.constant dense_resource<__elided__> : tensor<768xf32>
    %cst_1005 = arith.constant dense_resource<__elided__> : tensor<768xf32>
    %cst_1006 = arith.constant dense_resource<__elided__> : tensor<768xf32>
    %cst_1007 = arith.constant dense_resource<__elided__> : tensor<768x1x3x3xf32>
    %cst_1008 = arith.constant dense_resource<__elided__> : tensor<768xf32>
    %cst_1009 = arith.constant dense_resource<__elided__> : tensor<768xf32>
    %cst_1010 = arith.constant dense_resource<__elided__> : tensor<768xf32>
    %cst_1011 = arith.constant dense_resource<__elided__> : tensor<768xf32>
    %cst_1012 = arith.constant dense_resource<__elided__> : tensor<768x192x1x1xf32>
    %cst_1013 = arith.constant dense_resource<__elided__> : tensor<192xf32>
    %cst_1014 = arith.constant dense_resource<__elided__> : tensor<192xf32>
    %cst_1015 = arith.constant dense_resource<__elided__> : tensor<192xf32>
    %cst_1016 = arith.constant dense_resource<__elided__> : tensor<192xf32>
    %cst_1017 = arith.constant dense_resource<__elided__> : tensor<192x768x1x1xf32>
    %cst_1018 = arith.constant dense_resource<__elided__> : tensor<768xf32>
    %cst_1019 = arith.constant dense_resource<__elided__> : tensor<768x48x1x1xf32>
    %cst_1020 = arith.constant dense_resource<__elided__> : tensor<48xf32>
    %cst_1021 = arith.constant dense_resource<__elided__> : tensor<48x768x1x1xf32>
    %cst_1022 = arith.constant dense_resource<__elided__> : tensor<768xf32>
    %cst_1023 = arith.constant dense_resource<__elided__> : tensor<768xf32>
    %cst_1024 = arith.constant dense_resource<__elided__> : tensor<768xf32>
    %cst_1025 = arith.constant dense_resource<__elided__> : tensor<768xf32>
    %cst_1026 = arith.constant dense_resource<__elided__> : tensor<768x1x3x3xf32>
    %cst_1027 = arith.constant dense_resource<__elided__> : tensor<768xf32>
    %cst_1028 = arith.constant dense_resource<__elided__> : tensor<768xf32>
    %cst_1029 = arith.constant dense_resource<__elided__> : tensor<768xf32>
    %cst_1030 = arith.constant dense_resource<__elided__> : tensor<768xf32>
    %cst_1031 = arith.constant dense_resource<__elided__> : tensor<768x192x1x1xf32>
    %cst_1032 = arith.constant dense_resource<__elided__> : tensor<192xf32>
    %cst_1033 = arith.constant dense_resource<__elided__> : tensor<192xf32>
    %cst_1034 = arith.constant dense_resource<__elided__> : tensor<192xf32>
    %cst_1035 = arith.constant dense_resource<__elided__> : tensor<192xf32>
    %cst_1036 = arith.constant dense_resource<__elided__> : tensor<192x768x1x1xf32>
    %cst_1037 = arith.constant dense_resource<__elided__> : tensor<768xf32>
    %cst_1038 = arith.constant dense_resource<__elided__> : tensor<768x48x1x1xf32>
    %cst_1039 = arith.constant dense_resource<__elided__> : tensor<48xf32>
    %cst_1040 = arith.constant dense_resource<__elided__> : tensor<48x768x1x1xf32>
    %cst_1041 = arith.constant dense_resource<__elided__> : tensor<768xf32>
    %cst_1042 = arith.constant dense_resource<__elided__> : tensor<768xf32>
    %cst_1043 = arith.constant dense_resource<__elided__> : tensor<768xf32>
    %cst_1044 = arith.constant dense_resource<__elided__> : tensor<768xf32>
    %cst_1045 = arith.constant dense_resource<__elided__> : tensor<768x1x3x3xf32>
    %cst_1046 = arith.constant dense_resource<__elided__> : tensor<768xf32>
    %cst_1047 = arith.constant dense_resource<__elided__> : tensor<768xf32>
    %cst_1048 = arith.constant dense_resource<__elided__> : tensor<768xf32>
    %cst_1049 = arith.constant dense_resource<__elided__> : tensor<768xf32>
    %cst_1050 = arith.constant dense_resource<__elided__> : tensor<768x192x1x1xf32>
    %cst_1051 = arith.constant dense_resource<__elided__> : tensor<192xf32>
    %cst_1052 = arith.constant dense_resource<__elided__> : tensor<192xf32>
    %cst_1053 = arith.constant dense_resource<__elided__> : tensor<192xf32>
    %cst_1054 = arith.constant dense_resource<__elided__> : tensor<192xf32>
    %cst_1055 = arith.constant dense_resource<__elided__> : tensor<192x768x1x1xf32>
    %cst_1056 = arith.constant dense_resource<__elided__> : tensor<768xf32>
    %cst_1057 = arith.constant dense_resource<__elided__> : tensor<768x48x1x1xf32>
    %cst_1058 = arith.constant dense_resource<__elided__> : tensor<48xf32>
    %cst_1059 = arith.constant dense_resource<__elided__> : tensor<48x768x1x1xf32>
    %cst_1060 = arith.constant dense_resource<__elided__> : tensor<768xf32>
    %cst_1061 = arith.constant dense_resource<__elided__> : tensor<768xf32>
    %cst_1062 = arith.constant dense_resource<__elided__> : tensor<768xf32>
    %cst_1063 = arith.constant dense_resource<__elided__> : tensor<768xf32>
    %cst_1064 = arith.constant dense_resource<__elided__> : tensor<768x1x3x3xf32>
    %cst_1065 = arith.constant dense_resource<__elided__> : tensor<768xf32>
    %cst_1066 = arith.constant dense_resource<__elided__> : tensor<768xf32>
    %cst_1067 = arith.constant dense_resource<__elided__> : tensor<768xf32>
    %cst_1068 = arith.constant dense_resource<__elided__> : tensor<768xf32>
    %cst_1069 = arith.constant dense_resource<__elided__> : tensor<768x192x1x1xf32>
    %cst_1070 = arith.constant dense_resource<__elided__> : tensor<192xf32>
    %cst_1071 = arith.constant dense_resource<__elided__> : tensor<192xf32>
    %cst_1072 = arith.constant dense_resource<__elided__> : tensor<192xf32>
    %cst_1073 = arith.constant dense_resource<__elided__> : tensor<192xf32>
    %cst_1074 = arith.constant dense_resource<__elided__> : tensor<192x768x1x1xf32>
    %cst_1075 = arith.constant dense_resource<__elided__> : tensor<768xf32>
    %cst_1076 = arith.constant dense_resource<__elided__> : tensor<768x48x1x1xf32>
    %cst_1077 = arith.constant dense_resource<__elided__> : tensor<48xf32>
    %cst_1078 = arith.constant dense_resource<__elided__> : tensor<48x768x1x1xf32>
    %cst_1079 = arith.constant dense_resource<__elided__> : tensor<768xf32>
    %cst_1080 = arith.constant dense_resource<__elided__> : tensor<768xf32>
    %cst_1081 = arith.constant dense_resource<__elided__> : tensor<768xf32>
    %cst_1082 = arith.constant dense_resource<__elided__> : tensor<768xf32>
    %cst_1083 = arith.constant dense_resource<__elided__> : tensor<768x1x3x3xf32>
    %cst_1084 = arith.constant dense_resource<__elided__> : tensor<768xf32>
    %cst_1085 = arith.constant dense_resource<__elided__> : tensor<768xf32>
    %cst_1086 = arith.constant dense_resource<__elided__> : tensor<768xf32>
    %cst_1087 = arith.constant dense_resource<__elided__> : tensor<768xf32>
    %cst_1088 = arith.constant dense_resource<__elided__> : tensor<768x192x1x1xf32>
    %cst_1089 = arith.constant dense_resource<__elided__> : tensor<192xf32>
    %cst_1090 = arith.constant dense_resource<__elided__> : tensor<192xf32>
    %cst_1091 = arith.constant dense_resource<__elided__> : tensor<192xf32>
    %cst_1092 = arith.constant dense_resource<__elided__> : tensor<192xf32>
    %cst_1093 = arith.constant dense_resource<__elided__> : tensor<192x768x1x1xf32>
    %cst_1094 = arith.constant dense_resource<__elided__> : tensor<768xf32>
    %cst_1095 = arith.constant dense_resource<__elided__> : tensor<768x48x1x1xf32>
    %cst_1096 = arith.constant dense_resource<__elided__> : tensor<48xf32>
    %cst_1097 = arith.constant dense_resource<__elided__> : tensor<48x768x1x1xf32>
    %cst_1098 = arith.constant dense_resource<__elided__> : tensor<768xf32>
    %cst_1099 = arith.constant dense_resource<__elided__> : tensor<768xf32>
    %cst_1100 = arith.constant dense_resource<__elided__> : tensor<768xf32>
    %cst_1101 = arith.constant dense_resource<__elided__> : tensor<768xf32>
    %cst_1102 = arith.constant dense_resource<__elided__> : tensor<768x1x3x3xf32>
    %cst_1103 = arith.constant dense_resource<__elided__> : tensor<768xf32>
    %cst_1104 = arith.constant dense_resource<__elided__> : tensor<768xf32>
    %cst_1105 = arith.constant dense_resource<__elided__> : tensor<768xf32>
    %cst_1106 = arith.constant dense_resource<__elided__> : tensor<768xf32>
    %cst_1107 = arith.constant dense_resource<__elided__> : tensor<768x192x1x1xf32>
    %cst_1108 = arith.constant dense_resource<__elided__> : tensor<192xf32>
    %cst_1109 = arith.constant dense_resource<__elided__> : tensor<192xf32>
    %cst_1110 = arith.constant dense_resource<__elided__> : tensor<192xf32>
    %cst_1111 = arith.constant dense_resource<__elided__> : tensor<192xf32>
    %cst_1112 = arith.constant dense_resource<__elided__> : tensor<192x768x1x1xf32>
    %cst_1113 = arith.constant dense_resource<__elided__> : tensor<768xf32>
    %cst_1114 = arith.constant dense_resource<__elided__> : tensor<768x48x1x1xf32>
    %cst_1115 = arith.constant dense_resource<__elided__> : tensor<48xf32>
    %cst_1116 = arith.constant dense_resource<__elided__> : tensor<48x768x1x1xf32>
    %cst_1117 = arith.constant dense_resource<__elided__> : tensor<768xf32>
    %cst_1118 = arith.constant dense_resource<__elided__> : tensor<768xf32>
    %cst_1119 = arith.constant dense_resource<__elided__> : tensor<768xf32>
    %cst_1120 = arith.constant dense_resource<__elided__> : tensor<768xf32>
    %cst_1121 = arith.constant dense_resource<__elided__> : tensor<768x1x3x3xf32>
    %cst_1122 = arith.constant dense_resource<__elided__> : tensor<768xf32>
    %cst_1123 = arith.constant dense_resource<__elided__> : tensor<768xf32>
    %cst_1124 = arith.constant dense_resource<__elided__> : tensor<768xf32>
    %cst_1125 = arith.constant dense_resource<__elided__> : tensor<768xf32>
    %cst_1126 = arith.constant dense_resource<__elided__> : tensor<768x192x1x1xf32>
    %cst_1127 = arith.constant dense_resource<__elided__> : tensor<192xf32>
    %cst_1128 = arith.constant dense_resource<__elided__> : tensor<192xf32>
    %cst_1129 = arith.constant dense_resource<__elided__> : tensor<192xf32>
    %cst_1130 = arith.constant dense_resource<__elided__> : tensor<192xf32>
    %cst_1131 = arith.constant dense_resource<__elided__> : tensor<192x768x1x1xf32>
    %cst_1132 = arith.constant dense_resource<__elided__> : tensor<768xf32>
    %cst_1133 = arith.constant dense_resource<__elided__> : tensor<768x48x1x1xf32>
    %cst_1134 = arith.constant dense_resource<__elided__> : tensor<48xf32>
    %cst_1135 = arith.constant dense_resource<__elided__> : tensor<48x768x1x1xf32>
    %cst_1136 = arith.constant dense_resource<__elided__> : tensor<768xf32>
    %cst_1137 = arith.constant dense_resource<__elided__> : tensor<768xf32>
    %cst_1138 = arith.constant dense_resource<__elided__> : tensor<768xf32>
    %cst_1139 = arith.constant dense_resource<__elided__> : tensor<768xf32>
    %cst_1140 = arith.constant dense_resource<__elided__> : tensor<768x1x3x3xf32>
    %cst_1141 = arith.constant dense_resource<__elided__> : tensor<768xf32>
    %cst_1142 = arith.constant dense_resource<__elided__> : tensor<768xf32>
    %cst_1143 = arith.constant dense_resource<__elided__> : tensor<768xf32>
    %cst_1144 = arith.constant dense_resource<__elided__> : tensor<768xf32>
    %cst_1145 = arith.constant dense_resource<__elided__> : tensor<768x192x1x1xf32>
    %cst_1146 = arith.constant dense_resource<__elided__> : tensor<192xf32>
    %cst_1147 = arith.constant dense_resource<__elided__> : tensor<192xf32>
    %cst_1148 = arith.constant dense_resource<__elided__> : tensor<192xf32>
    %cst_1149 = arith.constant dense_resource<__elided__> : tensor<192xf32>
    %cst_1150 = arith.constant dense_resource<__elided__> : tensor<192x384x1x1xf32>
    %cst_1151 = arith.constant dense_resource<__elided__> : tensor<384xf32>
    %cst_1152 = arith.constant dense_resource<__elided__> : tensor<384x24x1x1xf32>
    %cst_1153 = arith.constant dense_resource<__elided__> : tensor<24xf32>
    %cst_1154 = arith.constant dense_resource<__elided__> : tensor<24x384x1x1xf32>
    %cst_1155 = arith.constant dense_resource<__elided__> : tensor<384xf32>
    %cst_1156 = arith.constant dense_resource<__elided__> : tensor<384xf32>
    %cst_1157 = arith.constant dense_resource<__elided__> : tensor<384xf32>
    %cst_1158 = arith.constant dense_resource<__elided__> : tensor<384xf32>
    %cst_1159 = arith.constant dense_resource<__elided__> : tensor<384x1x3x3xf32>
    %cst_1160 = arith.constant dense_resource<__elided__> : tensor<384xf32>
    %cst_1161 = arith.constant dense_resource<__elided__> : tensor<384xf32>
    %cst_1162 = arith.constant dense_resource<__elided__> : tensor<384xf32>
    %cst_1163 = arith.constant dense_resource<__elided__> : tensor<384xf32>
    %cst_1164 = arith.constant dense_resource<__elided__> : tensor<384x96x1x1xf32>
    %cst_1165 = arith.constant dense_resource<__elided__> : tensor<96xf32>
    %cst_1166 = arith.constant dense_resource<__elided__> : tensor<96xf32>
    %cst_1167 = arith.constant dense_resource<__elided__> : tensor<96xf32>
    %cst_1168 = arith.constant dense_resource<__elided__> : tensor<96xf32>
    %cst_1169 = arith.constant dense_resource<__elided__> : tensor<96x384x1x1xf32>
    %cst_1170 = arith.constant dense_resource<__elided__> : tensor<384xf32>
    %cst_1171 = arith.constant dense_resource<__elided__> : tensor<384xf32>
    %cst_1172 = arith.constant dense_resource<__elided__> : tensor<384xf32>
    %cst_1173 = arith.constant dense_resource<__elided__> : tensor<384xf32>
    %cst_1174 = arith.constant dense_resource<__elided__> : tensor<384x96x3x3xf32>
    %cst_1175 = arith.constant dense_resource<__elided__> : tensor<96xf32>
    %cst_1176 = arith.constant dense_resource<__elided__> : tensor<96xf32>
    %cst_1177 = arith.constant dense_resource<__elided__> : tensor<96xf32>
    %cst_1178 = arith.constant dense_resource<__elided__> : tensor<96xf32>
    %cst_1179 = arith.constant dense_resource<__elided__> : tensor<96x384x1x1xf32>
    %cst_1180 = arith.constant dense_resource<__elided__> : tensor<384xf32>
    %cst_1181 = arith.constant dense_resource<__elided__> : tensor<384xf32>
    %cst_1182 = arith.constant dense_resource<__elided__> : tensor<384xf32>
    %cst_1183 = arith.constant dense_resource<__elided__> : tensor<384xf32>
    %cst_1184 = arith.constant dense_resource<__elided__> : tensor<384x96x3x3xf32>
    %cst_1185 = arith.constant dense_resource<__elided__> : tensor<96xf32>
    %cst_1186 = arith.constant dense_resource<__elided__> : tensor<96xf32>
    %cst_1187 = arith.constant dense_resource<__elided__> : tensor<96xf32>
    %cst_1188 = arith.constant dense_resource<__elided__> : tensor<96xf32>
    %cst_1189 = arith.constant dense_resource<__elided__> : tensor<96x384x1x1xf32>
    %cst_1190 = arith.constant dense_resource<__elided__> : tensor<384xf32>
    %cst_1191 = arith.constant dense_resource<__elided__> : tensor<384xf32>
    %cst_1192 = arith.constant dense_resource<__elided__> : tensor<384xf32>
    %cst_1193 = arith.constant dense_resource<__elided__> : tensor<384xf32>
    %cst_1194 = arith.constant dense_resource<__elided__> : tensor<384x96x3x3xf32>
    %cst_1195 = arith.constant dense_resource<__elided__> : tensor<96xf32>
    %cst_1196 = arith.constant dense_resource<__elided__> : tensor<96xf32>
    %cst_1197 = arith.constant dense_resource<__elided__> : tensor<96xf32>
    %cst_1198 = arith.constant dense_resource<__elided__> : tensor<96xf32>
    %cst_1199 = arith.constant dense_resource<__elided__> : tensor<96x384x1x1xf32>
    %cst_1200 = arith.constant dense_resource<__elided__> : tensor<384xf32>
    %cst_1201 = arith.constant dense_resource<__elided__> : tensor<384xf32>
    %cst_1202 = arith.constant dense_resource<__elided__> : tensor<384xf32>
    %cst_1203 = arith.constant dense_resource<__elided__> : tensor<384xf32>
    %cst_1204 = arith.constant dense_resource<__elided__> : tensor<384x96x3x3xf32>
    %cst_1205 = arith.constant dense_resource<__elided__> : tensor<96xf32>
    %cst_1206 = arith.constant dense_resource<__elided__> : tensor<96xf32>
    %cst_1207 = arith.constant dense_resource<__elided__> : tensor<96xf32>
    %cst_1208 = arith.constant dense_resource<__elided__> : tensor<96xf32>
    %cst_1209 = arith.constant dense_resource<__elided__> : tensor<96x384x1x1xf32>
    %cst_1210 = arith.constant dense_resource<__elided__> : tensor<384xf32>
    %cst_1211 = arith.constant dense_resource<__elided__> : tensor<384xf32>
    %cst_1212 = arith.constant dense_resource<__elided__> : tensor<384xf32>
    %cst_1213 = arith.constant dense_resource<__elided__> : tensor<384xf32>
    %cst_1214 = arith.constant dense_resource<__elided__> : tensor<384x96x3x3xf32>
    %cst_1215 = arith.constant dense_resource<__elided__> : tensor<96xf32>
    %cst_1216 = arith.constant dense_resource<__elided__> : tensor<96xf32>
    %cst_1217 = arith.constant dense_resource<__elided__> : tensor<96xf32>
    %cst_1218 = arith.constant dense_resource<__elided__> : tensor<96xf32>
    %cst_1219 = arith.constant dense_resource<__elided__> : tensor<96x384x1x1xf32>
    %cst_1220 = arith.constant dense_resource<__elided__> : tensor<384xf32>
    %cst_1221 = arith.constant dense_resource<__elided__> : tensor<384xf32>
    %cst_1222 = arith.constant dense_resource<__elided__> : tensor<384xf32>
    %cst_1223 = arith.constant dense_resource<__elided__> : tensor<384xf32>
    %cst_1224 = arith.constant dense_resource<__elided__> : tensor<384x96x3x3xf32>
    %cst_1225 = arith.constant dense_resource<__elided__> : tensor<96xf32>
    %cst_1226 = arith.constant dense_resource<__elided__> : tensor<96xf32>
    %cst_1227 = arith.constant dense_resource<__elided__> : tensor<96xf32>
    %cst_1228 = arith.constant dense_resource<__elided__> : tensor<96xf32>
    %cst_1229 = arith.constant dense_resource<__elided__> : tensor<96x256x1x1xf32>
    %cst_1230 = arith.constant dense_resource<__elided__> : tensor<256xf32>
    %cst_1231 = arith.constant dense_resource<__elided__> : tensor<256xf32>
    %cst_1232 = arith.constant dense_resource<__elided__> : tensor<256xf32>
    %cst_1233 = arith.constant dense_resource<__elided__> : tensor<256xf32>
    %cst_1234 = arith.constant dense_resource<__elided__> : tensor<256x64x3x3xf32>
    %cst_1235 = arith.constant dense_resource<__elided__> : tensor<64xf32>
    %cst_1236 = arith.constant dense_resource<__elided__> : tensor<64xf32>
    %cst_1237 = arith.constant dense_resource<__elided__> : tensor<64xf32>
    %cst_1238 = arith.constant dense_resource<__elided__> : tensor<64xf32>
    %cst_1239 = arith.constant dense_resource<__elided__> : tensor<64x256x1x1xf32>
    %cst_1240 = arith.constant dense_resource<__elided__> : tensor<256xf32>
    %cst_1241 = arith.constant dense_resource<__elided__> : tensor<256xf32>
    %cst_1242 = arith.constant dense_resource<__elided__> : tensor<256xf32>
    %cst_1243 = arith.constant dense_resource<__elided__> : tensor<256xf32>
    %cst_1244 = arith.constant dense_resource<__elided__> : tensor<256x64x3x3xf32>
    %cst_1245 = arith.constant dense_resource<__elided__> : tensor<64xf32>
    %cst_1246 = arith.constant dense_resource<__elided__> : tensor<64xf32>
    %cst_1247 = arith.constant dense_resource<__elided__> : tensor<64xf32>
    %cst_1248 = arith.constant dense_resource<__elided__> : tensor<64xf32>
    %cst_1249 = arith.constant dense_resource<__elided__> : tensor<64x256x1x1xf32>
    %cst_1250 = arith.constant dense_resource<__elided__> : tensor<256xf32>
    %cst_1251 = arith.constant dense_resource<__elided__> : tensor<256xf32>
    %cst_1252 = arith.constant dense_resource<__elided__> : tensor<256xf32>
    %cst_1253 = arith.constant dense_resource<__elided__> : tensor<256xf32>
    %cst_1254 = arith.constant dense_resource<__elided__> : tensor<256x64x3x3xf32>
    %cst_1255 = arith.constant dense_resource<__elided__> : tensor<64xf32>
    %cst_1256 = arith.constant dense_resource<__elided__> : tensor<64xf32>
    %cst_1257 = arith.constant dense_resource<__elided__> : tensor<64xf32>
    %cst_1258 = arith.constant dense_resource<__elided__> : tensor<64xf32>
    %cst_1259 = arith.constant dense_resource<__elided__> : tensor<64x256x1x1xf32>
    %cst_1260 = arith.constant dense_resource<__elided__> : tensor<256xf32>
    %cst_1261 = arith.constant dense_resource<__elided__> : tensor<256xf32>
    %cst_1262 = arith.constant dense_resource<__elided__> : tensor<256xf32>
    %cst_1263 = arith.constant dense_resource<__elided__> : tensor<256xf32>
    %cst_1264 = arith.constant dense_resource<__elided__> : tensor<256x64x3x3xf32>
    %cst_1265 = arith.constant dense_resource<__elided__> : tensor<64xf32>
    %cst_1266 = arith.constant dense_resource<__elided__> : tensor<64xf32>
    %cst_1267 = arith.constant dense_resource<__elided__> : tensor<64xf32>
    %cst_1268 = arith.constant dense_resource<__elided__> : tensor<64xf32>
    %cst_1269 = arith.constant dense_resource<__elided__> : tensor<64x256x1x1xf32>
    %cst_1270 = arith.constant dense_resource<__elided__> : tensor<256xf32>
    %cst_1271 = arith.constant dense_resource<__elided__> : tensor<256xf32>
    %cst_1272 = arith.constant dense_resource<__elided__> : tensor<256xf32>
    %cst_1273 = arith.constant dense_resource<__elided__> : tensor<256xf32>
    %cst_1274 = arith.constant dense_resource<__elided__> : tensor<256x64x3x3xf32>
    %cst_1275 = arith.constant dense_resource<__elided__> : tensor<64xf32>
    %cst_1276 = arith.constant dense_resource<__elided__> : tensor<64xf32>
    %cst_1277 = arith.constant dense_resource<__elided__> : tensor<64xf32>
    %cst_1278 = arith.constant dense_resource<__elided__> : tensor<64xf32>
    %cst_1279 = arith.constant dense_resource<__elided__> : tensor<64x256x1x1xf32>
    %cst_1280 = arith.constant dense_resource<__elided__> : tensor<256xf32>
    %cst_1281 = arith.constant dense_resource<__elided__> : tensor<256xf32>
    %cst_1282 = arith.constant dense_resource<__elided__> : tensor<256xf32>
    %cst_1283 = arith.constant dense_resource<__elided__> : tensor<256xf32>
    %cst_1284 = arith.constant dense_resource<__elided__> : tensor<256x64x3x3xf32>
    %cst_1285 = arith.constant dense_resource<__elided__> : tensor<64xf32>
    %cst_1286 = arith.constant dense_resource<__elided__> : tensor<64xf32>
    %cst_1287 = arith.constant dense_resource<__elided__> : tensor<64xf32>
    %cst_1288 = arith.constant dense_resource<__elided__> : tensor<64xf32>
    %cst_1289 = arith.constant dense_resource<__elided__> : tensor<64x256x1x1xf32>
    %cst_1290 = arith.constant dense_resource<__elided__> : tensor<256xf32>
    %cst_1291 = arith.constant dense_resource<__elided__> : tensor<256xf32>
    %cst_1292 = arith.constant dense_resource<__elided__> : tensor<256xf32>
    %cst_1293 = arith.constant dense_resource<__elided__> : tensor<256xf32>
    %cst_1294 = arith.constant dense_resource<__elided__> : tensor<256x64x3x3xf32>
    %cst_1295 = arith.constant dense_resource<__elided__> : tensor<64xf32>
    %cst_1296 = arith.constant dense_resource<__elided__> : tensor<64xf32>
    %cst_1297 = arith.constant dense_resource<__elided__> : tensor<64xf32>
    %cst_1298 = arith.constant dense_resource<__elided__> : tensor<64xf32>
    %cst_1299 = arith.constant dense_resource<__elided__> : tensor<64x128x1x1xf32>
    %cst_1300 = arith.constant dense_resource<__elided__> : tensor<128xf32>
    %cst_1301 = arith.constant dense_resource<__elided__> : tensor<128xf32>
    %cst_1302 = arith.constant dense_resource<__elided__> : tensor<128xf32>
    %cst_1303 = arith.constant dense_resource<__elided__> : tensor<128xf32>
    %cst_1304 = arith.constant dense_resource<__elided__> : tensor<128x32x3x3xf32>
    %cst_1305 = arith.constant dense_resource<__elided__> : tensor<32xf32>
    %cst_1306 = arith.constant dense_resource<__elided__> : tensor<32xf32>
    %cst_1307 = arith.constant dense_resource<__elided__> : tensor<32xf32>
    %cst_1308 = arith.constant dense_resource<__elided__> : tensor<32xf32>
    %cst_1309 = arith.constant dense_resource<__elided__> : tensor<32x32x3x3xf32>
    %cst_1310 = arith.constant dense_resource<__elided__> : tensor<32xf32>
    %cst_1311 = arith.constant dense_resource<__elided__> : tensor<32xf32>
    %cst_1312 = arith.constant dense_resource<__elided__> : tensor<32xf32>
    %cst_1313 = arith.constant dense_resource<__elided__> : tensor<32xf32>
    %cst_1314 = arith.constant dense_resource<__elided__> : tensor<32x32x3x3xf32>
    %cst_1315 = arith.constant dense_resource<__elided__> : tensor<32xf32>
    %cst_1316 = arith.constant dense_resource<__elided__> : tensor<32xf32>
    %cst_1317 = arith.constant dense_resource<__elided__> : tensor<32xf32>
    %cst_1318 = arith.constant dense_resource<__elided__> : tensor<32xf32>
    %cst_1319 = arith.constant dense_resource<__elided__> : tensor<32x32x3x3xf32>
    %cst_1320 = arith.constant dense_resource<__elided__> : tensor<32xf32>
    %cst_1321 = arith.constant dense_resource<__elided__> : tensor<32xf32>
    %cst_1322 = arith.constant dense_resource<__elided__> : tensor<32xf32>
    %cst_1323 = arith.constant dense_resource<__elided__> : tensor<32xf32>
    %cst_1324 = arith.constant dense_resource<__elided__> : tensor<32x32x3x3xf32>
    %cst_1325 = arith.constant dense_resource<__elided__> : tensor<32xf32>
    %cst_1326 = arith.constant dense_resource<__elided__> : tensor<32xf32>
    %cst_1327 = arith.constant dense_resource<__elided__> : tensor<32xf32>
    %cst_1328 = arith.constant dense_resource<__elided__> : tensor<32xf32>
    %cst_1329 = arith.constant dense_resource<__elided__> : tensor<32x3x3x3xf32>
    %false = arith.constant false
    %cst_1330 = arith.constant 0.000000e+00 : f32
    %cst_1331 = arith.constant 1.000000e+00 : f32
    %cst_1332 = arith.constant 1.000000e-03 : f64
    %c0 = arith.constant 0 : index
    %c1 = arith.constant 1 : index
    %cst_1333 = arith.constant 9.000000e+02 : f32
    %cst_1334 = arith.constant 2.250000e+02 : f32
    %padded = tensor.pad %arg0 low[0, 0, 1, 1] high[0, 0, 1, 1] {
    ^bb0(%arg1: index, %arg2: index, %arg3: index, %arg4: index):
      tensor.yield %cst_1330 : f32
    } : tensor<1x3x480x480xf32> to tensor<1x3x482x482xf32>
    %0 = tensor.empty() : tensor<1x32x240x240xf32>
    %1 = linalg.fill ins(%cst_1330 : f32) outs(%0 : tensor<1x32x240x240xf32>) -> tensor<1x32x240x240xf32>
    %2 = linalg.conv_2d_nchw_fchw {dilations = dense<1> : vector<2xi64>, strides = dense<2> : vector<2xi64>} ins(%padded, %cst_1329 : tensor<1x3x482x482xf32>, tensor<32x3x3x3xf32>) outs(%1 : tensor<1x32x240x240xf32>) -> tensor<1x32x240x240xf32>
    %3 = arith.cmpi eq, %false, %false : i1
    cf.assert %3, "training is not supported for now"
    %4 = linalg.generic {indexing_maps = [#map, #map1, #map1, #map1, #map1, #map], iterator_types = ["parallel", "parallel", "parallel", "parallel"]} ins(%2, %cst_1326, %cst_1325, %cst_1328, %cst_1327 : tensor<1x32x240x240xf32>, tensor<32xf32>, tensor<32xf32>, tensor<32xf32>, tensor<32xf32>) outs(%2 : tensor<1x32x240x240xf32>) {
    ^bb0(%in: f32, %in_1475: f32, %in_1476: f32, %in_1477: f32, %in_1478: f32, %out: f32):
      %1469 = arith.truncf %cst_1332 : f64 to f32
      %1470 = arith.addf %in_1478, %1469 : f32
      %1471 = math.rsqrt %1470 : f32
      %1472 = arith.subf %in, %in_1477 : f32
      %1473 = arith.mulf %1472, %1471 : f32
      %1474 = arith.mulf %1473, %in_1475 : f32
      %1475 = arith.addf %1474, %in_1476 : f32
      linalg.yield %1475 : f32
    } -> tensor<1x32x240x240xf32>
    %5 = linalg.generic {indexing_maps = [#map2, #map], iterator_types = ["parallel", "parallel", "parallel", "parallel"]} ins(%4 : tensor<1x32x240x240xf32>) outs(%0 : tensor<1x32x240x240xf32>) {
    ^bb0(%in: f32, %out: f32):
      %1469 = arith.negf %in : f32
      %1470 = math.exp %1469 : f32
      %1471 = arith.addf %1470, %cst_1331 : f32
      %1472 = arith.divf %cst_1331, %1471 : f32
      linalg.yield %1472 : f32
    } -> tensor<1x32x240x240xf32>
    %6 = linalg.generic {indexing_maps = [#map2, #map2, #map], iterator_types = ["parallel", "parallel", "parallel", "parallel"]} ins(%5, %4 : tensor<1x32x240x240xf32>, tensor<1x32x240x240xf32>) outs(%0 : tensor<1x32x240x240xf32>) {
    ^bb0(%in: f32, %in_1475: f32, %out: f32):
      %1469 = arith.mulf %in, %in_1475 : f32
      linalg.yield %1469 : f32
    } -> tensor<1x32x240x240xf32>
    %padded_1335 = tensor.pad %6 low[0, 0, 1, 1] high[0, 0, 1, 1] {
    ^bb0(%arg1: index, %arg2: index, %arg3: index, %arg4: index):
      tensor.yield %cst_1330 : f32
    } : tensor<1x32x240x240xf32> to tensor<1x32x242x242xf32>
    %7 = linalg.conv_2d_nchw_fchw {dilations = dense<1> : vector<2xi64>, strides = dense<1> : vector<2xi64>} ins(%padded_1335, %cst_1324 : tensor<1x32x242x242xf32>, tensor<32x32x3x3xf32>) outs(%1 : tensor<1x32x240x240xf32>) -> tensor<1x32x240x240xf32>
    cf.assert %3, "training is not supported for now"
    %8 = linalg.generic {indexing_maps = [#map, #map1, #map1, #map1, #map1, #map], iterator_types = ["parallel", "parallel", "parallel", "parallel"]} ins(%7, %cst_1321, %cst_1320, %cst_1323, %cst_1322 : tensor<1x32x240x240xf32>, tensor<32xf32>, tensor<32xf32>, tensor<32xf32>, tensor<32xf32>) outs(%7 : tensor<1x32x240x240xf32>) {
    ^bb0(%in: f32, %in_1475: f32, %in_1476: f32, %in_1477: f32, %in_1478: f32, %out: f32):
      %1469 = arith.truncf %cst_1332 : f64 to f32
      %1470 = arith.addf %in_1478, %1469 : f32
      %1471 = math.rsqrt %1470 : f32
      %1472 = arith.subf %in, %in_1477 : f32
      %1473 = arith.mulf %1472, %1471 : f32
      %1474 = arith.mulf %1473, %in_1475 : f32
      %1475 = arith.addf %1474, %in_1476 : f32
      linalg.yield %1475 : f32
    } -> tensor<1x32x240x240xf32>
    %9 = linalg.generic {indexing_maps = [#map2, #map], iterator_types = ["parallel", "parallel", "parallel", "parallel"]} ins(%8 : tensor<1x32x240x240xf32>) outs(%0 : tensor<1x32x240x240xf32>) {
    ^bb0(%in: f32, %out: f32):
      %1469 = arith.negf %in : f32
      %1470 = math.exp %1469 : f32
      %1471 = arith.addf %1470, %cst_1331 : f32
      %1472 = arith.divf %cst_1331, %1471 : f32
      linalg.yield %1472 : f32
    } -> tensor<1x32x240x240xf32>
    %10 = linalg.generic {indexing_maps = [#map2, #map2, #map], iterator_types = ["parallel", "parallel", "parallel", "parallel"]} ins(%9, %8 : tensor<1x32x240x240xf32>, tensor<1x32x240x240xf32>) outs(%0 : tensor<1x32x240x240xf32>) {
    ^bb0(%in: f32, %in_1475: f32, %out: f32):
      %1469 = arith.mulf %in, %in_1475 : f32
      linalg.yield %1469 : f32
    } -> tensor<1x32x240x240xf32>
    %11 = linalg.generic {indexing_maps = [#map2, #map2, #map], iterator_types = ["parallel", "parallel", "parallel", "parallel"]} ins(%10, %6 : tensor<1x32x240x240xf32>, tensor<1x32x240x240xf32>) outs(%0 : tensor<1x32x240x240xf32>) {
    ^bb0(%in: f32, %in_1475: f32, %out: f32):
      %1469 = arith.addf %in, %in_1475 : f32
      linalg.yield %1469 : f32
    } -> tensor<1x32x240x240xf32>
    %padded_1336 = tensor.pad %11 low[0, 0, 1, 1] high[0, 0, 1, 1] {
    ^bb0(%arg1: index, %arg2: index, %arg3: index, %arg4: index):
      tensor.yield %cst_1330 : f32
    } : tensor<1x32x240x240xf32> to tensor<1x32x242x242xf32>
    %12 = linalg.conv_2d_nchw_fchw {dilations = dense<1> : vector<2xi64>, strides = dense<1> : vector<2xi64>} ins(%padded_1336, %cst_1319 : tensor<1x32x242x242xf32>, tensor<32x32x3x3xf32>) outs(%1 : tensor<1x32x240x240xf32>) -> tensor<1x32x240x240xf32>
    cf.assert %3, "training is not supported for now"
    %13 = linalg.generic {indexing_maps = [#map, #map1, #map1, #map1, #map1, #map], iterator_types = ["parallel", "parallel", "parallel", "parallel"]} ins(%12, %cst_1316, %cst_1315, %cst_1318, %cst_1317 : tensor<1x32x240x240xf32>, tensor<32xf32>, tensor<32xf32>, tensor<32xf32>, tensor<32xf32>) outs(%12 : tensor<1x32x240x240xf32>) {
    ^bb0(%in: f32, %in_1475: f32, %in_1476: f32, %in_1477: f32, %in_1478: f32, %out: f32):
      %1469 = arith.truncf %cst_1332 : f64 to f32
      %1470 = arith.addf %in_1478, %1469 : f32
      %1471 = math.rsqrt %1470 : f32
      %1472 = arith.subf %in, %in_1477 : f32
      %1473 = arith.mulf %1472, %1471 : f32
      %1474 = arith.mulf %1473, %in_1475 : f32
      %1475 = arith.addf %1474, %in_1476 : f32
      linalg.yield %1475 : f32
    } -> tensor<1x32x240x240xf32>
    %14 = linalg.generic {indexing_maps = [#map2, #map], iterator_types = ["parallel", "parallel", "parallel", "parallel"]} ins(%13 : tensor<1x32x240x240xf32>) outs(%0 : tensor<1x32x240x240xf32>) {
    ^bb0(%in: f32, %out: f32):
      %1469 = arith.negf %in : f32
      %1470 = math.exp %1469 : f32
      %1471 = arith.addf %1470, %cst_1331 : f32
      %1472 = arith.divf %cst_1331, %1471 : f32
      linalg.yield %1472 : f32
    } -> tensor<1x32x240x240xf32>
    %15 = linalg.generic {indexing_maps = [#map2, #map2, #map], iterator_types = ["parallel", "parallel", "parallel", "parallel"]} ins(%14, %13 : tensor<1x32x240x240xf32>, tensor<1x32x240x240xf32>) outs(%0 : tensor<1x32x240x240xf32>) {
    ^bb0(%in: f32, %in_1475: f32, %out: f32):
      %1469 = arith.mulf %in, %in_1475 : f32
      linalg.yield %1469 : f32
    } -> tensor<1x32x240x240xf32>
    %16 = linalg.generic {indexing_maps = [#map2, #map2, #map], iterator_types = ["parallel", "parallel", "parallel", "parallel"]} ins(%15, %11 : tensor<1x32x240x240xf32>, tensor<1x32x240x240xf32>) outs(%0 : tensor<1x32x240x240xf32>) {
    ^bb0(%in: f32, %in_1475: f32, %out: f32):
      %1469 = arith.addf %in, %in_1475 : f32
      linalg.yield %1469 : f32
    } -> tensor<1x32x240x240xf32>
    %padded_1337 = tensor.pad %16 low[0, 0, 1, 1] high[0, 0, 1, 1] {
    ^bb0(%arg1: index, %arg2: index, %arg3: index, %arg4: index):
      tensor.yield %cst_1330 : f32
    } : tensor<1x32x240x240xf32> to tensor<1x32x242x242xf32>
    %17 = linalg.conv_2d_nchw_fchw {dilations = dense<1> : vector<2xi64>, strides = dense<1> : vector<2xi64>} ins(%padded_1337, %cst_1314 : tensor<1x32x242x242xf32>, tensor<32x32x3x3xf32>) outs(%1 : tensor<1x32x240x240xf32>) -> tensor<1x32x240x240xf32>
    cf.assert %3, "training is not supported for now"
    %18 = linalg.generic {indexing_maps = [#map, #map1, #map1, #map1, #map1, #map], iterator_types = ["parallel", "parallel", "parallel", "parallel"]} ins(%17, %cst_1311, %cst_1310, %cst_1313, %cst_1312 : tensor<1x32x240x240xf32>, tensor<32xf32>, tensor<32xf32>, tensor<32xf32>, tensor<32xf32>) outs(%17 : tensor<1x32x240x240xf32>) {
    ^bb0(%in: f32, %in_1475: f32, %in_1476: f32, %in_1477: f32, %in_1478: f32, %out: f32):
      %1469 = arith.truncf %cst_1332 : f64 to f32
      %1470 = arith.addf %in_1478, %1469 : f32
      %1471 = math.rsqrt %1470 : f32
      %1472 = arith.subf %in, %in_1477 : f32
      %1473 = arith.mulf %1472, %1471 : f32
      %1474 = arith.mulf %1473, %in_1475 : f32
      %1475 = arith.addf %1474, %in_1476 : f32
      linalg.yield %1475 : f32
    } -> tensor<1x32x240x240xf32>
    %19 = linalg.generic {indexing_maps = [#map2, #map], iterator_types = ["parallel", "parallel", "parallel", "parallel"]} ins(%18 : tensor<1x32x240x240xf32>) outs(%0 : tensor<1x32x240x240xf32>) {
    ^bb0(%in: f32, %out: f32):
      %1469 = arith.negf %in : f32
      %1470 = math.exp %1469 : f32
      %1471 = arith.addf %1470, %cst_1331 : f32
      %1472 = arith.divf %cst_1331, %1471 : f32
      linalg.yield %1472 : f32
    } -> tensor<1x32x240x240xf32>
    %20 = linalg.generic {indexing_maps = [#map2, #map2, #map], iterator_types = ["parallel", "parallel", "parallel", "parallel"]} ins(%19, %18 : tensor<1x32x240x240xf32>, tensor<1x32x240x240xf32>) outs(%0 : tensor<1x32x240x240xf32>) {
    ^bb0(%in: f32, %in_1475: f32, %out: f32):
      %1469 = arith.mulf %in, %in_1475 : f32
      linalg.yield %1469 : f32
    } -> tensor<1x32x240x240xf32>
    %21 = linalg.generic {indexing_maps = [#map2, #map2, #map], iterator_types = ["parallel", "parallel", "parallel", "parallel"]} ins(%20, %16 : tensor<1x32x240x240xf32>, tensor<1x32x240x240xf32>) outs(%0 : tensor<1x32x240x240xf32>) {
    ^bb0(%in: f32, %in_1475: f32, %out: f32):
      %1469 = arith.addf %in, %in_1475 : f32
      linalg.yield %1469 : f32
    } -> tensor<1x32x240x240xf32>
    %padded_1338 = tensor.pad %21 low[0, 0, 1, 1] high[0, 0, 1, 1] {
    ^bb0(%arg1: index, %arg2: index, %arg3: index, %arg4: index):
      tensor.yield %cst_1330 : f32
    } : tensor<1x32x240x240xf32> to tensor<1x32x242x242xf32>
    %22 = linalg.conv_2d_nchw_fchw {dilations = dense<1> : vector<2xi64>, strides = dense<1> : vector<2xi64>} ins(%padded_1338, %cst_1309 : tensor<1x32x242x242xf32>, tensor<32x32x3x3xf32>) outs(%1 : tensor<1x32x240x240xf32>) -> tensor<1x32x240x240xf32>
    cf.assert %3, "training is not supported for now"
    %23 = linalg.generic {indexing_maps = [#map, #map1, #map1, #map1, #map1, #map], iterator_types = ["parallel", "parallel", "parallel", "parallel"]} ins(%22, %cst_1306, %cst_1305, %cst_1308, %cst_1307 : tensor<1x32x240x240xf32>, tensor<32xf32>, tensor<32xf32>, tensor<32xf32>, tensor<32xf32>) outs(%22 : tensor<1x32x240x240xf32>) {
    ^bb0(%in: f32, %in_1475: f32, %in_1476: f32, %in_1477: f32, %in_1478: f32, %out: f32):
      %1469 = arith.truncf %cst_1332 : f64 to f32
      %1470 = arith.addf %in_1478, %1469 : f32
      %1471 = math.rsqrt %1470 : f32
      %1472 = arith.subf %in, %in_1477 : f32
      %1473 = arith.mulf %1472, %1471 : f32
      %1474 = arith.mulf %1473, %in_1475 : f32
      %1475 = arith.addf %1474, %in_1476 : f32
      linalg.yield %1475 : f32
    } -> tensor<1x32x240x240xf32>
    %24 = linalg.generic {indexing_maps = [#map2, #map], iterator_types = ["parallel", "parallel", "parallel", "parallel"]} ins(%23 : tensor<1x32x240x240xf32>) outs(%0 : tensor<1x32x240x240xf32>) {
    ^bb0(%in: f32, %out: f32):
      %1469 = arith.negf %in : f32
      %1470 = math.exp %1469 : f32
      %1471 = arith.addf %1470, %cst_1331 : f32
      %1472 = arith.divf %cst_1331, %1471 : f32
      linalg.yield %1472 : f32
    } -> tensor<1x32x240x240xf32>
    %25 = linalg.generic {indexing_maps = [#map2, #map2, #map], iterator_types = ["parallel", "parallel", "parallel", "parallel"]} ins(%24, %23 : tensor<1x32x240x240xf32>, tensor<1x32x240x240xf32>) outs(%0 : tensor<1x32x240x240xf32>) {
    ^bb0(%in: f32, %in_1475: f32, %out: f32):
      %1469 = arith.mulf %in, %in_1475 : f32
      linalg.yield %1469 : f32
    } -> tensor<1x32x240x240xf32>
    %26 = linalg.generic {indexing_maps = [#map2, #map2, #map], iterator_types = ["parallel", "parallel", "parallel", "parallel"]} ins(%25, %21 : tensor<1x32x240x240xf32>, tensor<1x32x240x240xf32>) outs(%0 : tensor<1x32x240x240xf32>) {
    ^bb0(%in: f32, %in_1475: f32, %out: f32):
      %1469 = arith.addf %in, %in_1475 : f32
      linalg.yield %1469 : f32
    } -> tensor<1x32x240x240xf32>
    %padded_1339 = tensor.pad %26 low[0, 0, 1, 1] high[0, 0, 1, 1] {
    ^bb0(%arg1: index, %arg2: index, %arg3: index, %arg4: index):
      tensor.yield %cst_1330 : f32
    } : tensor<1x32x240x240xf32> to tensor<1x32x242x242xf32>
    %27 = tensor.empty() : tensor<1x128x120x120xf32>
    %28 = linalg.fill ins(%cst_1330 : f32) outs(%27 : tensor<1x128x120x120xf32>) -> tensor<1x128x120x120xf32>
    %29 = linalg.conv_2d_nchw_fchw {dilations = dense<1> : vector<2xi64>, strides = dense<2> : vector<2xi64>} ins(%padded_1339, %cst_1304 : tensor<1x32x242x242xf32>, tensor<128x32x3x3xf32>) outs(%28 : tensor<1x128x120x120xf32>) -> tensor<1x128x120x120xf32>
    cf.assert %3, "training is not supported for now"
    %30 = linalg.generic {indexing_maps = [#map, #map1, #map1, #map1, #map1, #map], iterator_types = ["parallel", "parallel", "parallel", "parallel"]} ins(%29, %cst_1301, %cst_1300, %cst_1303, %cst_1302 : tensor<1x128x120x120xf32>, tensor<128xf32>, tensor<128xf32>, tensor<128xf32>, tensor<128xf32>) outs(%29 : tensor<1x128x120x120xf32>) {
    ^bb0(%in: f32, %in_1475: f32, %in_1476: f32, %in_1477: f32, %in_1478: f32, %out: f32):
      %1469 = arith.truncf %cst_1332 : f64 to f32
      %1470 = arith.addf %in_1478, %1469 : f32
      %1471 = math.rsqrt %1470 : f32
      %1472 = arith.subf %in, %in_1477 : f32
      %1473 = arith.mulf %1472, %1471 : f32
      %1474 = arith.mulf %1473, %in_1475 : f32
      %1475 = arith.addf %1474, %in_1476 : f32
      linalg.yield %1475 : f32
    } -> tensor<1x128x120x120xf32>
    %31 = linalg.generic {indexing_maps = [#map2, #map], iterator_types = ["parallel", "parallel", "parallel", "parallel"]} ins(%30 : tensor<1x128x120x120xf32>) outs(%27 : tensor<1x128x120x120xf32>) {
    ^bb0(%in: f32, %out: f32):
      %1469 = arith.negf %in : f32
      %1470 = math.exp %1469 : f32
      %1471 = arith.addf %1470, %cst_1331 : f32
      %1472 = arith.divf %cst_1331, %1471 : f32
      linalg.yield %1472 : f32
    } -> tensor<1x128x120x120xf32>
    %32 = linalg.generic {indexing_maps = [#map2, #map2, #map], iterator_types = ["parallel", "parallel", "parallel", "parallel"]} ins(%31, %30 : tensor<1x128x120x120xf32>, tensor<1x128x120x120xf32>) outs(%27 : tensor<1x128x120x120xf32>) {
    ^bb0(%in: f32, %in_1475: f32, %out: f32):
      %1469 = arith.mulf %in, %in_1475 : f32
      linalg.yield %1469 : f32
    } -> tensor<1x128x120x120xf32>
    %33 = tensor.empty() : tensor<1x64x120x120xf32>
    %34 = linalg.fill ins(%cst_1330 : f32) outs(%33 : tensor<1x64x120x120xf32>) -> tensor<1x64x120x120xf32>
    %35 = linalg.conv_2d_nchw_fchw {dilations = dense<1> : vector<2xi64>, strides = dense<1> : vector<2xi64>} ins(%32, %cst_1299 : tensor<1x128x120x120xf32>, tensor<64x128x1x1xf32>) outs(%34 : tensor<1x64x120x120xf32>) -> tensor<1x64x120x120xf32>
    cf.assert %3, "training is not supported for now"
    %36 = linalg.generic {indexing_maps = [#map, #map1, #map1, #map1, #map1, #map], iterator_types = ["parallel", "parallel", "parallel", "parallel"]} ins(%35, %cst_1296, %cst_1295, %cst_1298, %cst_1297 : tensor<1x64x120x120xf32>, tensor<64xf32>, tensor<64xf32>, tensor<64xf32>, tensor<64xf32>) outs(%35 : tensor<1x64x120x120xf32>) {
    ^bb0(%in: f32, %in_1475: f32, %in_1476: f32, %in_1477: f32, %in_1478: f32, %out: f32):
      %1469 = arith.truncf %cst_1332 : f64 to f32
      %1470 = arith.addf %in_1478, %1469 : f32
      %1471 = math.rsqrt %1470 : f32
      %1472 = arith.subf %in, %in_1477 : f32
      %1473 = arith.mulf %1472, %1471 : f32
      %1474 = arith.mulf %1473, %in_1475 : f32
      %1475 = arith.addf %1474, %in_1476 : f32
      linalg.yield %1475 : f32
    } -> tensor<1x64x120x120xf32>
    %padded_1340 = tensor.pad %36 low[0, 0, 1, 1] high[0, 0, 1, 1] {
    ^bb0(%arg1: index, %arg2: index, %arg3: index, %arg4: index):
      tensor.yield %cst_1330 : f32
    } : tensor<1x64x120x120xf32> to tensor<1x64x122x122xf32>
    %37 = tensor.empty() : tensor<1x256x120x120xf32>
    %38 = linalg.fill ins(%cst_1330 : f32) outs(%37 : tensor<1x256x120x120xf32>) -> tensor<1x256x120x120xf32>
    %39 = linalg.conv_2d_nchw_fchw {dilations = dense<1> : vector<2xi64>, strides = dense<1> : vector<2xi64>} ins(%padded_1340, %cst_1294 : tensor<1x64x122x122xf32>, tensor<256x64x3x3xf32>) outs(%38 : tensor<1x256x120x120xf32>) -> tensor<1x256x120x120xf32>
    cf.assert %3, "training is not supported for now"
    %40 = linalg.generic {indexing_maps = [#map, #map1, #map1, #map1, #map1, #map], iterator_types = ["parallel", "parallel", "parallel", "parallel"]} ins(%39, %cst_1291, %cst_1290, %cst_1293, %cst_1292 : tensor<1x256x120x120xf32>, tensor<256xf32>, tensor<256xf32>, tensor<256xf32>, tensor<256xf32>) outs(%39 : tensor<1x256x120x120xf32>) {
    ^bb0(%in: f32, %in_1475: f32, %in_1476: f32, %in_1477: f32, %in_1478: f32, %out: f32):
      %1469 = arith.truncf %cst_1332 : f64 to f32
      %1470 = arith.addf %in_1478, %1469 : f32
      %1471 = math.rsqrt %1470 : f32
      %1472 = arith.subf %in, %in_1477 : f32
      %1473 = arith.mulf %1472, %1471 : f32
      %1474 = arith.mulf %1473, %in_1475 : f32
      %1475 = arith.addf %1474, %in_1476 : f32
      linalg.yield %1475 : f32
    } -> tensor<1x256x120x120xf32>
    %41 = linalg.generic {indexing_maps = [#map2, #map], iterator_types = ["parallel", "parallel", "parallel", "parallel"]} ins(%40 : tensor<1x256x120x120xf32>) outs(%37 : tensor<1x256x120x120xf32>) {
    ^bb0(%in: f32, %out: f32):
      %1469 = arith.negf %in : f32
      %1470 = math.exp %1469 : f32
      %1471 = arith.addf %1470, %cst_1331 : f32
      %1472 = arith.divf %cst_1331, %1471 : f32
      linalg.yield %1472 : f32
    } -> tensor<1x256x120x120xf32>
    %42 = linalg.generic {indexing_maps = [#map2, #map2, #map], iterator_types = ["parallel", "parallel", "parallel", "parallel"]} ins(%41, %40 : tensor<1x256x120x120xf32>, tensor<1x256x120x120xf32>) outs(%37 : tensor<1x256x120x120xf32>) {
    ^bb0(%in: f32, %in_1475: f32, %out: f32):
      %1469 = arith.mulf %in, %in_1475 : f32
      linalg.yield %1469 : f32
    } -> tensor<1x256x120x120xf32>
    %43 = linalg.conv_2d_nchw_fchw {dilations = dense<1> : vector<2xi64>, strides = dense<1> : vector<2xi64>} ins(%42, %cst_1289 : tensor<1x256x120x120xf32>, tensor<64x256x1x1xf32>) outs(%34 : tensor<1x64x120x120xf32>) -> tensor<1x64x120x120xf32>
    cf.assert %3, "training is not supported for now"
    %44 = linalg.generic {indexing_maps = [#map, #map1, #map1, #map1, #map1, #map], iterator_types = ["parallel", "parallel", "parallel", "parallel"]} ins(%43, %cst_1286, %cst_1285, %cst_1288, %cst_1287 : tensor<1x64x120x120xf32>, tensor<64xf32>, tensor<64xf32>, tensor<64xf32>, tensor<64xf32>) outs(%43 : tensor<1x64x120x120xf32>) {
    ^bb0(%in: f32, %in_1475: f32, %in_1476: f32, %in_1477: f32, %in_1478: f32, %out: f32):
      %1469 = arith.truncf %cst_1332 : f64 to f32
      %1470 = arith.addf %in_1478, %1469 : f32
      %1471 = math.rsqrt %1470 : f32
      %1472 = arith.subf %in, %in_1477 : f32
      %1473 = arith.mulf %1472, %1471 : f32
      %1474 = arith.mulf %1473, %in_1475 : f32
      %1475 = arith.addf %1474, %in_1476 : f32
      linalg.yield %1475 : f32
    } -> tensor<1x64x120x120xf32>
    %45 = linalg.generic {indexing_maps = [#map2, #map2, #map], iterator_types = ["parallel", "parallel", "parallel", "parallel"]} ins(%44, %36 : tensor<1x64x120x120xf32>, tensor<1x64x120x120xf32>) outs(%33 : tensor<1x64x120x120xf32>) {
    ^bb0(%in: f32, %in_1475: f32, %out: f32):
      %1469 = arith.addf %in, %in_1475 : f32
      linalg.yield %1469 : f32
    } -> tensor<1x64x120x120xf32>
    %padded_1341 = tensor.pad %45 low[0, 0, 1, 1] high[0, 0, 1, 1] {
    ^bb0(%arg1: index, %arg2: index, %arg3: index, %arg4: index):
      tensor.yield %cst_1330 : f32
    } : tensor<1x64x120x120xf32> to tensor<1x64x122x122xf32>
    %46 = linalg.conv_2d_nchw_fchw {dilations = dense<1> : vector<2xi64>, strides = dense<1> : vector<2xi64>} ins(%padded_1341, %cst_1284 : tensor<1x64x122x122xf32>, tensor<256x64x3x3xf32>) outs(%38 : tensor<1x256x120x120xf32>) -> tensor<1x256x120x120xf32>
    cf.assert %3, "training is not supported for now"
    %47 = linalg.generic {indexing_maps = [#map, #map1, #map1, #map1, #map1, #map], iterator_types = ["parallel", "parallel", "parallel", "parallel"]} ins(%46, %cst_1281, %cst_1280, %cst_1283, %cst_1282 : tensor<1x256x120x120xf32>, tensor<256xf32>, tensor<256xf32>, tensor<256xf32>, tensor<256xf32>) outs(%46 : tensor<1x256x120x120xf32>) {
    ^bb0(%in: f32, %in_1475: f32, %in_1476: f32, %in_1477: f32, %in_1478: f32, %out: f32):
      %1469 = arith.truncf %cst_1332 : f64 to f32
      %1470 = arith.addf %in_1478, %1469 : f32
      %1471 = math.rsqrt %1470 : f32
      %1472 = arith.subf %in, %in_1477 : f32
      %1473 = arith.mulf %1472, %1471 : f32
      %1474 = arith.mulf %1473, %in_1475 : f32
      %1475 = arith.addf %1474, %in_1476 : f32
      linalg.yield %1475 : f32
    } -> tensor<1x256x120x120xf32>
    %48 = linalg.generic {indexing_maps = [#map2, #map], iterator_types = ["parallel", "parallel", "parallel", "parallel"]} ins(%47 : tensor<1x256x120x120xf32>) outs(%37 : tensor<1x256x120x120xf32>) {
    ^bb0(%in: f32, %out: f32):
      %1469 = arith.negf %in : f32
      %1470 = math.exp %1469 : f32
      %1471 = arith.addf %1470, %cst_1331 : f32
      %1472 = arith.divf %cst_1331, %1471 : f32
      linalg.yield %1472 : f32
    } -> tensor<1x256x120x120xf32>
    %49 = linalg.generic {indexing_maps = [#map2, #map2, #map], iterator_types = ["parallel", "parallel", "parallel", "parallel"]} ins(%48, %47 : tensor<1x256x120x120xf32>, tensor<1x256x120x120xf32>) outs(%37 : tensor<1x256x120x120xf32>) {
    ^bb0(%in: f32, %in_1475: f32, %out: f32):
      %1469 = arith.mulf %in, %in_1475 : f32
      linalg.yield %1469 : f32
    } -> tensor<1x256x120x120xf32>
    %50 = linalg.conv_2d_nchw_fchw {dilations = dense<1> : vector<2xi64>, strides = dense<1> : vector<2xi64>} ins(%49, %cst_1279 : tensor<1x256x120x120xf32>, tensor<64x256x1x1xf32>) outs(%34 : tensor<1x64x120x120xf32>) -> tensor<1x64x120x120xf32>
    cf.assert %3, "training is not supported for now"
    %51 = linalg.generic {indexing_maps = [#map, #map1, #map1, #map1, #map1, #map], iterator_types = ["parallel", "parallel", "parallel", "parallel"]} ins(%50, %cst_1276, %cst_1275, %cst_1278, %cst_1277 : tensor<1x64x120x120xf32>, tensor<64xf32>, tensor<64xf32>, tensor<64xf32>, tensor<64xf32>) outs(%50 : tensor<1x64x120x120xf32>) {
    ^bb0(%in: f32, %in_1475: f32, %in_1476: f32, %in_1477: f32, %in_1478: f32, %out: f32):
      %1469 = arith.truncf %cst_1332 : f64 to f32
      %1470 = arith.addf %in_1478, %1469 : f32
      %1471 = math.rsqrt %1470 : f32
      %1472 = arith.subf %in, %in_1477 : f32
      %1473 = arith.mulf %1472, %1471 : f32
      %1474 = arith.mulf %1473, %in_1475 : f32
      %1475 = arith.addf %1474, %in_1476 : f32
      linalg.yield %1475 : f32
    } -> tensor<1x64x120x120xf32>
    %52 = linalg.generic {indexing_maps = [#map2, #map2, #map], iterator_types = ["parallel", "parallel", "parallel", "parallel"]} ins(%51, %45 : tensor<1x64x120x120xf32>, tensor<1x64x120x120xf32>) outs(%33 : tensor<1x64x120x120xf32>) {
    ^bb0(%in: f32, %in_1475: f32, %out: f32):
      %1469 = arith.addf %in, %in_1475 : f32
      linalg.yield %1469 : f32
    } -> tensor<1x64x120x120xf32>
    %padded_1342 = tensor.pad %52 low[0, 0, 1, 1] high[0, 0, 1, 1] {
    ^bb0(%arg1: index, %arg2: index, %arg3: index, %arg4: index):
      tensor.yield %cst_1330 : f32
    } : tensor<1x64x120x120xf32> to tensor<1x64x122x122xf32>
    %53 = linalg.conv_2d_nchw_fchw {dilations = dense<1> : vector<2xi64>, strides = dense<1> : vector<2xi64>} ins(%padded_1342, %cst_1274 : tensor<1x64x122x122xf32>, tensor<256x64x3x3xf32>) outs(%38 : tensor<1x256x120x120xf32>) -> tensor<1x256x120x120xf32>
    cf.assert %3, "training is not supported for now"
    %54 = linalg.generic {indexing_maps = [#map, #map1, #map1, #map1, #map1, #map], iterator_types = ["parallel", "parallel", "parallel", "parallel"]} ins(%53, %cst_1271, %cst_1270, %cst_1273, %cst_1272 : tensor<1x256x120x120xf32>, tensor<256xf32>, tensor<256xf32>, tensor<256xf32>, tensor<256xf32>) outs(%53 : tensor<1x256x120x120xf32>) {
    ^bb0(%in: f32, %in_1475: f32, %in_1476: f32, %in_1477: f32, %in_1478: f32, %out: f32):
      %1469 = arith.truncf %cst_1332 : f64 to f32
      %1470 = arith.addf %in_1478, %1469 : f32
      %1471 = math.rsqrt %1470 : f32
      %1472 = arith.subf %in, %in_1477 : f32
      %1473 = arith.mulf %1472, %1471 : f32
      %1474 = arith.mulf %1473, %in_1475 : f32
      %1475 = arith.addf %1474, %in_1476 : f32
      linalg.yield %1475 : f32
    } -> tensor<1x256x120x120xf32>
    %55 = linalg.generic {indexing_maps = [#map2, #map], iterator_types = ["parallel", "parallel", "parallel", "parallel"]} ins(%54 : tensor<1x256x120x120xf32>) outs(%37 : tensor<1x256x120x120xf32>) {
    ^bb0(%in: f32, %out: f32):
      %1469 = arith.negf %in : f32
      %1470 = math.exp %1469 : f32
      %1471 = arith.addf %1470, %cst_1331 : f32
      %1472 = arith.divf %cst_1331, %1471 : f32
      linalg.yield %1472 : f32
    } -> tensor<1x256x120x120xf32>
    %56 = linalg.generic {indexing_maps = [#map2, #map2, #map], iterator_types = ["parallel", "parallel", "parallel", "parallel"]} ins(%55, %54 : tensor<1x256x120x120xf32>, tensor<1x256x120x120xf32>) outs(%37 : tensor<1x256x120x120xf32>) {
    ^bb0(%in: f32, %in_1475: f32, %out: f32):
      %1469 = arith.mulf %in, %in_1475 : f32
      linalg.yield %1469 : f32
    } -> tensor<1x256x120x120xf32>
    %57 = linalg.conv_2d_nchw_fchw {dilations = dense<1> : vector<2xi64>, strides = dense<1> : vector<2xi64>} ins(%56, %cst_1269 : tensor<1x256x120x120xf32>, tensor<64x256x1x1xf32>) outs(%34 : tensor<1x64x120x120xf32>) -> tensor<1x64x120x120xf32>
    cf.assert %3, "training is not supported for now"
    %58 = linalg.generic {indexing_maps = [#map, #map1, #map1, #map1, #map1, #map], iterator_types = ["parallel", "parallel", "parallel", "parallel"]} ins(%57, %cst_1266, %cst_1265, %cst_1268, %cst_1267 : tensor<1x64x120x120xf32>, tensor<64xf32>, tensor<64xf32>, tensor<64xf32>, tensor<64xf32>) outs(%57 : tensor<1x64x120x120xf32>) {
    ^bb0(%in: f32, %in_1475: f32, %in_1476: f32, %in_1477: f32, %in_1478: f32, %out: f32):
      %1469 = arith.truncf %cst_1332 : f64 to f32
      %1470 = arith.addf %in_1478, %1469 : f32
      %1471 = math.rsqrt %1470 : f32
      %1472 = arith.subf %in, %in_1477 : f32
      %1473 = arith.mulf %1472, %1471 : f32
      %1474 = arith.mulf %1473, %in_1475 : f32
      %1475 = arith.addf %1474, %in_1476 : f32
      linalg.yield %1475 : f32
    } -> tensor<1x64x120x120xf32>
    %59 = linalg.generic {indexing_maps = [#map2, #map2, #map], iterator_types = ["parallel", "parallel", "parallel", "parallel"]} ins(%58, %52 : tensor<1x64x120x120xf32>, tensor<1x64x120x120xf32>) outs(%33 : tensor<1x64x120x120xf32>) {
    ^bb0(%in: f32, %in_1475: f32, %out: f32):
      %1469 = arith.addf %in, %in_1475 : f32
      linalg.yield %1469 : f32
    } -> tensor<1x64x120x120xf32>
    %padded_1343 = tensor.pad %59 low[0, 0, 1, 1] high[0, 0, 1, 1] {
    ^bb0(%arg1: index, %arg2: index, %arg3: index, %arg4: index):
      tensor.yield %cst_1330 : f32
    } : tensor<1x64x120x120xf32> to tensor<1x64x122x122xf32>
    %60 = linalg.conv_2d_nchw_fchw {dilations = dense<1> : vector<2xi64>, strides = dense<1> : vector<2xi64>} ins(%padded_1343, %cst_1264 : tensor<1x64x122x122xf32>, tensor<256x64x3x3xf32>) outs(%38 : tensor<1x256x120x120xf32>) -> tensor<1x256x120x120xf32>
    cf.assert %3, "training is not supported for now"
    %61 = linalg.generic {indexing_maps = [#map, #map1, #map1, #map1, #map1, #map], iterator_types = ["parallel", "parallel", "parallel", "parallel"]} ins(%60, %cst_1261, %cst_1260, %cst_1263, %cst_1262 : tensor<1x256x120x120xf32>, tensor<256xf32>, tensor<256xf32>, tensor<256xf32>, tensor<256xf32>) outs(%60 : tensor<1x256x120x120xf32>) {
    ^bb0(%in: f32, %in_1475: f32, %in_1476: f32, %in_1477: f32, %in_1478: f32, %out: f32):
      %1469 = arith.truncf %cst_1332 : f64 to f32
      %1470 = arith.addf %in_1478, %1469 : f32
      %1471 = math.rsqrt %1470 : f32
      %1472 = arith.subf %in, %in_1477 : f32
      %1473 = arith.mulf %1472, %1471 : f32
      %1474 = arith.mulf %1473, %in_1475 : f32
      %1475 = arith.addf %1474, %in_1476 : f32
      linalg.yield %1475 : f32
    } -> tensor<1x256x120x120xf32>
    %62 = linalg.generic {indexing_maps = [#map2, #map], iterator_types = ["parallel", "parallel", "parallel", "parallel"]} ins(%61 : tensor<1x256x120x120xf32>) outs(%37 : tensor<1x256x120x120xf32>) {
    ^bb0(%in: f32, %out: f32):
      %1469 = arith.negf %in : f32
      %1470 = math.exp %1469 : f32
      %1471 = arith.addf %1470, %cst_1331 : f32
      %1472 = arith.divf %cst_1331, %1471 : f32
      linalg.yield %1472 : f32
    } -> tensor<1x256x120x120xf32>
    %63 = linalg.generic {indexing_maps = [#map2, #map2, #map], iterator_types = ["parallel", "parallel", "parallel", "parallel"]} ins(%62, %61 : tensor<1x256x120x120xf32>, tensor<1x256x120x120xf32>) outs(%37 : tensor<1x256x120x120xf32>) {
    ^bb0(%in: f32, %in_1475: f32, %out: f32):
      %1469 = arith.mulf %in, %in_1475 : f32
      linalg.yield %1469 : f32
    } -> tensor<1x256x120x120xf32>
    %64 = linalg.conv_2d_nchw_fchw {dilations = dense<1> : vector<2xi64>, strides = dense<1> : vector<2xi64>} ins(%63, %cst_1259 : tensor<1x256x120x120xf32>, tensor<64x256x1x1xf32>) outs(%34 : tensor<1x64x120x120xf32>) -> tensor<1x64x120x120xf32>
    cf.assert %3, "training is not supported for now"
    %65 = linalg.generic {indexing_maps = [#map, #map1, #map1, #map1, #map1, #map], iterator_types = ["parallel", "parallel", "parallel", "parallel"]} ins(%64, %cst_1256, %cst_1255, %cst_1258, %cst_1257 : tensor<1x64x120x120xf32>, tensor<64xf32>, tensor<64xf32>, tensor<64xf32>, tensor<64xf32>) outs(%64 : tensor<1x64x120x120xf32>) {
    ^bb0(%in: f32, %in_1475: f32, %in_1476: f32, %in_1477: f32, %in_1478: f32, %out: f32):
      %1469 = arith.truncf %cst_1332 : f64 to f32
      %1470 = arith.addf %in_1478, %1469 : f32
      %1471 = math.rsqrt %1470 : f32
      %1472 = arith.subf %in, %in_1477 : f32
      %1473 = arith.mulf %1472, %1471 : f32
      %1474 = arith.mulf %1473, %in_1475 : f32
      %1475 = arith.addf %1474, %in_1476 : f32
      linalg.yield %1475 : f32
    } -> tensor<1x64x120x120xf32>
    %66 = linalg.generic {indexing_maps = [#map2, #map2, #map], iterator_types = ["parallel", "parallel", "parallel", "parallel"]} ins(%65, %59 : tensor<1x64x120x120xf32>, tensor<1x64x120x120xf32>) outs(%33 : tensor<1x64x120x120xf32>) {
    ^bb0(%in: f32, %in_1475: f32, %out: f32):
      %1469 = arith.addf %in, %in_1475 : f32
      linalg.yield %1469 : f32
    } -> tensor<1x64x120x120xf32>
    %padded_1344 = tensor.pad %66 low[0, 0, 1, 1] high[0, 0, 1, 1] {
    ^bb0(%arg1: index, %arg2: index, %arg3: index, %arg4: index):
      tensor.yield %cst_1330 : f32
    } : tensor<1x64x120x120xf32> to tensor<1x64x122x122xf32>
    %67 = linalg.conv_2d_nchw_fchw {dilations = dense<1> : vector<2xi64>, strides = dense<1> : vector<2xi64>} ins(%padded_1344, %cst_1254 : tensor<1x64x122x122xf32>, tensor<256x64x3x3xf32>) outs(%38 : tensor<1x256x120x120xf32>) -> tensor<1x256x120x120xf32>
    cf.assert %3, "training is not supported for now"
    %68 = linalg.generic {indexing_maps = [#map, #map1, #map1, #map1, #map1, #map], iterator_types = ["parallel", "parallel", "parallel", "parallel"]} ins(%67, %cst_1251, %cst_1250, %cst_1253, %cst_1252 : tensor<1x256x120x120xf32>, tensor<256xf32>, tensor<256xf32>, tensor<256xf32>, tensor<256xf32>) outs(%67 : tensor<1x256x120x120xf32>) {
    ^bb0(%in: f32, %in_1475: f32, %in_1476: f32, %in_1477: f32, %in_1478: f32, %out: f32):
      %1469 = arith.truncf %cst_1332 : f64 to f32
      %1470 = arith.addf %in_1478, %1469 : f32
      %1471 = math.rsqrt %1470 : f32
      %1472 = arith.subf %in, %in_1477 : f32
      %1473 = arith.mulf %1472, %1471 : f32
      %1474 = arith.mulf %1473, %in_1475 : f32
      %1475 = arith.addf %1474, %in_1476 : f32
      linalg.yield %1475 : f32
    } -> tensor<1x256x120x120xf32>
    %69 = linalg.generic {indexing_maps = [#map2, #map], iterator_types = ["parallel", "parallel", "parallel", "parallel"]} ins(%68 : tensor<1x256x120x120xf32>) outs(%37 : tensor<1x256x120x120xf32>) {
    ^bb0(%in: f32, %out: f32):
      %1469 = arith.negf %in : f32
      %1470 = math.exp %1469 : f32
      %1471 = arith.addf %1470, %cst_1331 : f32
      %1472 = arith.divf %cst_1331, %1471 : f32
      linalg.yield %1472 : f32
    } -> tensor<1x256x120x120xf32>
    %70 = linalg.generic {indexing_maps = [#map2, #map2, #map], iterator_types = ["parallel", "parallel", "parallel", "parallel"]} ins(%69, %68 : tensor<1x256x120x120xf32>, tensor<1x256x120x120xf32>) outs(%37 : tensor<1x256x120x120xf32>) {
    ^bb0(%in: f32, %in_1475: f32, %out: f32):
      %1469 = arith.mulf %in, %in_1475 : f32
      linalg.yield %1469 : f32
    } -> tensor<1x256x120x120xf32>
    %71 = linalg.conv_2d_nchw_fchw {dilations = dense<1> : vector<2xi64>, strides = dense<1> : vector<2xi64>} ins(%70, %cst_1249 : tensor<1x256x120x120xf32>, tensor<64x256x1x1xf32>) outs(%34 : tensor<1x64x120x120xf32>) -> tensor<1x64x120x120xf32>
    cf.assert %3, "training is not supported for now"
    %72 = linalg.generic {indexing_maps = [#map, #map1, #map1, #map1, #map1, #map], iterator_types = ["parallel", "parallel", "parallel", "parallel"]} ins(%71, %cst_1246, %cst_1245, %cst_1248, %cst_1247 : tensor<1x64x120x120xf32>, tensor<64xf32>, tensor<64xf32>, tensor<64xf32>, tensor<64xf32>) outs(%71 : tensor<1x64x120x120xf32>) {
    ^bb0(%in: f32, %in_1475: f32, %in_1476: f32, %in_1477: f32, %in_1478: f32, %out: f32):
      %1469 = arith.truncf %cst_1332 : f64 to f32
      %1470 = arith.addf %in_1478, %1469 : f32
      %1471 = math.rsqrt %1470 : f32
      %1472 = arith.subf %in, %in_1477 : f32
      %1473 = arith.mulf %1472, %1471 : f32
      %1474 = arith.mulf %1473, %in_1475 : f32
      %1475 = arith.addf %1474, %in_1476 : f32
      linalg.yield %1475 : f32
    } -> tensor<1x64x120x120xf32>
    %73 = linalg.generic {indexing_maps = [#map2, #map2, #map], iterator_types = ["parallel", "parallel", "parallel", "parallel"]} ins(%72, %66 : tensor<1x64x120x120xf32>, tensor<1x64x120x120xf32>) outs(%33 : tensor<1x64x120x120xf32>) {
    ^bb0(%in: f32, %in_1475: f32, %out: f32):
      %1469 = arith.addf %in, %in_1475 : f32
      linalg.yield %1469 : f32
    } -> tensor<1x64x120x120xf32>
    %padded_1345 = tensor.pad %73 low[0, 0, 1, 1] high[0, 0, 1, 1] {
    ^bb0(%arg1: index, %arg2: index, %arg3: index, %arg4: index):
      tensor.yield %cst_1330 : f32
    } : tensor<1x64x120x120xf32> to tensor<1x64x122x122xf32>
    %74 = linalg.conv_2d_nchw_fchw {dilations = dense<1> : vector<2xi64>, strides = dense<1> : vector<2xi64>} ins(%padded_1345, %cst_1244 : tensor<1x64x122x122xf32>, tensor<256x64x3x3xf32>) outs(%38 : tensor<1x256x120x120xf32>) -> tensor<1x256x120x120xf32>
    cf.assert %3, "training is not supported for now"
    %75 = linalg.generic {indexing_maps = [#map, #map1, #map1, #map1, #map1, #map], iterator_types = ["parallel", "parallel", "parallel", "parallel"]} ins(%74, %cst_1241, %cst_1240, %cst_1243, %cst_1242 : tensor<1x256x120x120xf32>, tensor<256xf32>, tensor<256xf32>, tensor<256xf32>, tensor<256xf32>) outs(%74 : tensor<1x256x120x120xf32>) {
    ^bb0(%in: f32, %in_1475: f32, %in_1476: f32, %in_1477: f32, %in_1478: f32, %out: f32):
      %1469 = arith.truncf %cst_1332 : f64 to f32
      %1470 = arith.addf %in_1478, %1469 : f32
      %1471 = math.rsqrt %1470 : f32
      %1472 = arith.subf %in, %in_1477 : f32
      %1473 = arith.mulf %1472, %1471 : f32
      %1474 = arith.mulf %1473, %in_1475 : f32
      %1475 = arith.addf %1474, %in_1476 : f32
      linalg.yield %1475 : f32
    } -> tensor<1x256x120x120xf32>
    %76 = linalg.generic {indexing_maps = [#map2, #map], iterator_types = ["parallel", "parallel", "parallel", "parallel"]} ins(%75 : tensor<1x256x120x120xf32>) outs(%37 : tensor<1x256x120x120xf32>) {
    ^bb0(%in: f32, %out: f32):
      %1469 = arith.negf %in : f32
      %1470 = math.exp %1469 : f32
      %1471 = arith.addf %1470, %cst_1331 : f32
      %1472 = arith.divf %cst_1331, %1471 : f32
      linalg.yield %1472 : f32
    } -> tensor<1x256x120x120xf32>
    %77 = linalg.generic {indexing_maps = [#map2, #map2, #map], iterator_types = ["parallel", "parallel", "parallel", "parallel"]} ins(%76, %75 : tensor<1x256x120x120xf32>, tensor<1x256x120x120xf32>) outs(%37 : tensor<1x256x120x120xf32>) {
    ^bb0(%in: f32, %in_1475: f32, %out: f32):
      %1469 = arith.mulf %in, %in_1475 : f32
      linalg.yield %1469 : f32
    } -> tensor<1x256x120x120xf32>
    %78 = linalg.conv_2d_nchw_fchw {dilations = dense<1> : vector<2xi64>, strides = dense<1> : vector<2xi64>} ins(%77, %cst_1239 : tensor<1x256x120x120xf32>, tensor<64x256x1x1xf32>) outs(%34 : tensor<1x64x120x120xf32>) -> tensor<1x64x120x120xf32>
    cf.assert %3, "training is not supported for now"
    %79 = linalg.generic {indexing_maps = [#map, #map1, #map1, #map1, #map1, #map], iterator_types = ["parallel", "parallel", "parallel", "parallel"]} ins(%78, %cst_1236, %cst_1235, %cst_1238, %cst_1237 : tensor<1x64x120x120xf32>, tensor<64xf32>, tensor<64xf32>, tensor<64xf32>, tensor<64xf32>) outs(%78 : tensor<1x64x120x120xf32>) {
    ^bb0(%in: f32, %in_1475: f32, %in_1476: f32, %in_1477: f32, %in_1478: f32, %out: f32):
      %1469 = arith.truncf %cst_1332 : f64 to f32
      %1470 = arith.addf %in_1478, %1469 : f32
      %1471 = math.rsqrt %1470 : f32
      %1472 = arith.subf %in, %in_1477 : f32
      %1473 = arith.mulf %1472, %1471 : f32
      %1474 = arith.mulf %1473, %in_1475 : f32
      %1475 = arith.addf %1474, %in_1476 : f32
      linalg.yield %1475 : f32
    } -> tensor<1x64x120x120xf32>
    %80 = linalg.generic {indexing_maps = [#map2, #map2, #map], iterator_types = ["parallel", "parallel", "parallel", "parallel"]} ins(%79, %73 : tensor<1x64x120x120xf32>, tensor<1x64x120x120xf32>) outs(%33 : tensor<1x64x120x120xf32>) {
    ^bb0(%in: f32, %in_1475: f32, %out: f32):
      %1469 = arith.addf %in, %in_1475 : f32
      linalg.yield %1469 : f32
    } -> tensor<1x64x120x120xf32>
    %padded_1346 = tensor.pad %80 low[0, 0, 1, 1] high[0, 0, 1, 1] {
    ^bb0(%arg1: index, %arg2: index, %arg3: index, %arg4: index):
      tensor.yield %cst_1330 : f32
    } : tensor<1x64x120x120xf32> to tensor<1x64x122x122xf32>
    %81 = tensor.empty() : tensor<1x256x60x60xf32>
    %82 = linalg.fill ins(%cst_1330 : f32) outs(%81 : tensor<1x256x60x60xf32>) -> tensor<1x256x60x60xf32>
    %83 = linalg.conv_2d_nchw_fchw {dilations = dense<1> : vector<2xi64>, strides = dense<2> : vector<2xi64>} ins(%padded_1346, %cst_1234 : tensor<1x64x122x122xf32>, tensor<256x64x3x3xf32>) outs(%82 : tensor<1x256x60x60xf32>) -> tensor<1x256x60x60xf32>
    cf.assert %3, "training is not supported for now"
    %84 = linalg.generic {indexing_maps = [#map, #map1, #map1, #map1, #map1, #map], iterator_types = ["parallel", "parallel", "parallel", "parallel"]} ins(%83, %cst_1231, %cst_1230, %cst_1233, %cst_1232 : tensor<1x256x60x60xf32>, tensor<256xf32>, tensor<256xf32>, tensor<256xf32>, tensor<256xf32>) outs(%83 : tensor<1x256x60x60xf32>) {
    ^bb0(%in: f32, %in_1475: f32, %in_1476: f32, %in_1477: f32, %in_1478: f32, %out: f32):
      %1469 = arith.truncf %cst_1332 : f64 to f32
      %1470 = arith.addf %in_1478, %1469 : f32
      %1471 = math.rsqrt %1470 : f32
      %1472 = arith.subf %in, %in_1477 : f32
      %1473 = arith.mulf %1472, %1471 : f32
      %1474 = arith.mulf %1473, %in_1475 : f32
      %1475 = arith.addf %1474, %in_1476 : f32
      linalg.yield %1475 : f32
    } -> tensor<1x256x60x60xf32>
    %85 = linalg.generic {indexing_maps = [#map2, #map], iterator_types = ["parallel", "parallel", "parallel", "parallel"]} ins(%84 : tensor<1x256x60x60xf32>) outs(%81 : tensor<1x256x60x60xf32>) {
    ^bb0(%in: f32, %out: f32):
      %1469 = arith.negf %in : f32
      %1470 = math.exp %1469 : f32
      %1471 = arith.addf %1470, %cst_1331 : f32
      %1472 = arith.divf %cst_1331, %1471 : f32
      linalg.yield %1472 : f32
    } -> tensor<1x256x60x60xf32>
    %86 = linalg.generic {indexing_maps = [#map2, #map2, #map], iterator_types = ["parallel", "parallel", "parallel", "parallel"]} ins(%85, %84 : tensor<1x256x60x60xf32>, tensor<1x256x60x60xf32>) outs(%81 : tensor<1x256x60x60xf32>) {
    ^bb0(%in: f32, %in_1475: f32, %out: f32):
      %1469 = arith.mulf %in, %in_1475 : f32
      linalg.yield %1469 : f32
    } -> tensor<1x256x60x60xf32>
    %87 = tensor.empty() : tensor<1x96x60x60xf32>
    %88 = linalg.fill ins(%cst_1330 : f32) outs(%87 : tensor<1x96x60x60xf32>) -> tensor<1x96x60x60xf32>
    %89 = linalg.conv_2d_nchw_fchw {dilations = dense<1> : vector<2xi64>, strides = dense<1> : vector<2xi64>} ins(%86, %cst_1229 : tensor<1x256x60x60xf32>, tensor<96x256x1x1xf32>) outs(%88 : tensor<1x96x60x60xf32>) -> tensor<1x96x60x60xf32>
    cf.assert %3, "training is not supported for now"
    %90 = linalg.generic {indexing_maps = [#map, #map1, #map1, #map1, #map1, #map], iterator_types = ["parallel", "parallel", "parallel", "parallel"]} ins(%89, %cst_1226, %cst_1225, %cst_1228, %cst_1227 : tensor<1x96x60x60xf32>, tensor<96xf32>, tensor<96xf32>, tensor<96xf32>, tensor<96xf32>) outs(%89 : tensor<1x96x60x60xf32>) {
    ^bb0(%in: f32, %in_1475: f32, %in_1476: f32, %in_1477: f32, %in_1478: f32, %out: f32):
      %1469 = arith.truncf %cst_1332 : f64 to f32
      %1470 = arith.addf %in_1478, %1469 : f32
      %1471 = math.rsqrt %1470 : f32
      %1472 = arith.subf %in, %in_1477 : f32
      %1473 = arith.mulf %1472, %1471 : f32
      %1474 = arith.mulf %1473, %in_1475 : f32
      %1475 = arith.addf %1474, %in_1476 : f32
      linalg.yield %1475 : f32
    } -> tensor<1x96x60x60xf32>
    %padded_1347 = tensor.pad %90 low[0, 0, 1, 1] high[0, 0, 1, 1] {
    ^bb0(%arg1: index, %arg2: index, %arg3: index, %arg4: index):
      tensor.yield %cst_1330 : f32
    } : tensor<1x96x60x60xf32> to tensor<1x96x62x62xf32>
    %91 = tensor.empty() : tensor<1x384x60x60xf32>
    %92 = linalg.fill ins(%cst_1330 : f32) outs(%91 : tensor<1x384x60x60xf32>) -> tensor<1x384x60x60xf32>
    %93 = linalg.conv_2d_nchw_fchw {dilations = dense<1> : vector<2xi64>, strides = dense<1> : vector<2xi64>} ins(%padded_1347, %cst_1224 : tensor<1x96x62x62xf32>, tensor<384x96x3x3xf32>) outs(%92 : tensor<1x384x60x60xf32>) -> tensor<1x384x60x60xf32>
    cf.assert %3, "training is not supported for now"
    %94 = linalg.generic {indexing_maps = [#map, #map1, #map1, #map1, #map1, #map], iterator_types = ["parallel", "parallel", "parallel", "parallel"]} ins(%93, %cst_1221, %cst_1220, %cst_1223, %cst_1222 : tensor<1x384x60x60xf32>, tensor<384xf32>, tensor<384xf32>, tensor<384xf32>, tensor<384xf32>) outs(%93 : tensor<1x384x60x60xf32>) {
    ^bb0(%in: f32, %in_1475: f32, %in_1476: f32, %in_1477: f32, %in_1478: f32, %out: f32):
      %1469 = arith.truncf %cst_1332 : f64 to f32
      %1470 = arith.addf %in_1478, %1469 : f32
      %1471 = math.rsqrt %1470 : f32
      %1472 = arith.subf %in, %in_1477 : f32
      %1473 = arith.mulf %1472, %1471 : f32
      %1474 = arith.mulf %1473, %in_1475 : f32
      %1475 = arith.addf %1474, %in_1476 : f32
      linalg.yield %1475 : f32
    } -> tensor<1x384x60x60xf32>
    %95 = linalg.generic {indexing_maps = [#map2, #map], iterator_types = ["parallel", "parallel", "parallel", "parallel"]} ins(%94 : tensor<1x384x60x60xf32>) outs(%91 : tensor<1x384x60x60xf32>) {
    ^bb0(%in: f32, %out: f32):
      %1469 = arith.negf %in : f32
      %1470 = math.exp %1469 : f32
      %1471 = arith.addf %1470, %cst_1331 : f32
      %1472 = arith.divf %cst_1331, %1471 : f32
      linalg.yield %1472 : f32
    } -> tensor<1x384x60x60xf32>
    %96 = linalg.generic {indexing_maps = [#map2, #map2, #map], iterator_types = ["parallel", "parallel", "parallel", "parallel"]} ins(%95, %94 : tensor<1x384x60x60xf32>, tensor<1x384x60x60xf32>) outs(%91 : tensor<1x384x60x60xf32>) {
    ^bb0(%in: f32, %in_1475: f32, %out: f32):
      %1469 = arith.mulf %in, %in_1475 : f32
      linalg.yield %1469 : f32
    } -> tensor<1x384x60x60xf32>
    %97 = linalg.conv_2d_nchw_fchw {dilations = dense<1> : vector<2xi64>, strides = dense<1> : vector<2xi64>} ins(%96, %cst_1219 : tensor<1x384x60x60xf32>, tensor<96x384x1x1xf32>) outs(%88 : tensor<1x96x60x60xf32>) -> tensor<1x96x60x60xf32>
    cf.assert %3, "training is not supported for now"
    %98 = linalg.generic {indexing_maps = [#map, #map1, #map1, #map1, #map1, #map], iterator_types = ["parallel", "parallel", "parallel", "parallel"]} ins(%97, %cst_1216, %cst_1215, %cst_1218, %cst_1217 : tensor<1x96x60x60xf32>, tensor<96xf32>, tensor<96xf32>, tensor<96xf32>, tensor<96xf32>) outs(%97 : tensor<1x96x60x60xf32>) {
    ^bb0(%in: f32, %in_1475: f32, %in_1476: f32, %in_1477: f32, %in_1478: f32, %out: f32):
      %1469 = arith.truncf %cst_1332 : f64 to f32
      %1470 = arith.addf %in_1478, %1469 : f32
      %1471 = math.rsqrt %1470 : f32
      %1472 = arith.subf %in, %in_1477 : f32
      %1473 = arith.mulf %1472, %1471 : f32
      %1474 = arith.mulf %1473, %in_1475 : f32
      %1475 = arith.addf %1474, %in_1476 : f32
      linalg.yield %1475 : f32
    } -> tensor<1x96x60x60xf32>
…
    %1348 = linalg.conv_2d_nchw_fchw {dilations = dense<1> : vector<2xi64>, strides = dense<1> : vector<2xi64>} ins(%1347, %cst_100 : tensor<1x640x15x15xf32>, tensor<3840x640x1x1xf32>) outs(%1323 : tensor<1x3840x15x15xf32>) -> tensor<1x3840x15x15xf32>
    cf.assert %3, "training is not supported for now"
    %1349 = linalg.generic {indexing_maps = [#map, #map1, #map1, #map1, #map1, #map], iterator_types = ["parallel", "parallel", "parallel", "parallel"]} ins(%1348, %cst_97, %cst_96, %cst_99, %cst_98 : tensor<1x3840x15x15xf32>, tensor<3840xf32>, tensor<3840xf32>, tensor<3840xf32>, tensor<3840xf32>) outs(%1348 : tensor<1x3840x15x15xf32>) {
    ^bb0(%in: f32, %in_1475: f32, %in_1476: f32, %in_1477: f32, %in_1478: f32, %out: f32):
      %1469 = arith.truncf %cst_1332 : f64 to f32
      %1470 = arith.addf %in_1478, %1469 : f32
      %1471 = math.rsqrt %1470 : f32
      %1472 = arith.subf %in, %in_1477 : f32
      %1473 = arith.mulf %1472, %1471 : f32
      %1474 = arith.mulf %1473, %in_1475 : f32
      %1475 = arith.addf %1474, %in_1476 : f32
      linalg.yield %1475 : f32
    } -> tensor<1x3840x15x15xf32>
    %1350 = linalg.generic {indexing_maps = [#map2, #map], iterator_types = ["parallel", "parallel", "parallel", "parallel"]} ins(%1349 : tensor<1x3840x15x15xf32>) outs(%1322 : tensor<1x3840x15x15xf32>) {
    ^bb0(%in: f32, %out: f32):
      %1469 = arith.negf %in : f32
      %1470 = math.exp %1469 : f32
      %1471 = arith.addf %1470, %cst_1331 : f32
      %1472 = arith.divf %cst_1331, %1471 : f32
      linalg.yield %1472 : f32
    } -> tensor<1x3840x15x15xf32>
    %1351 = linalg.generic {indexing_maps = [#map2, #map2, #map], iterator_types = ["parallel", "parallel", "parallel", "parallel"]} ins(%1350, %1349 : tensor<1x3840x15x15xf32>, tensor<1x3840x15x15xf32>) outs(%1322 : tensor<1x3840x15x15xf32>) {
    ^bb0(%in: f32, %in_1475: f32, %out: f32):
      %1469 = arith.mulf %in, %in_1475 : f32
      linalg.yield %1469 : f32
    } -> tensor<1x3840x15x15xf32>
    %padded_1464 = tensor.pad %1351 low[0, 0, 1, 1] high[0, 0, 1, 1] {
    ^bb0(%arg1: index, %arg2: index, %arg3: index, %arg4: index):
      tensor.yield %cst_1330 : f32
    } : tensor<1x3840x15x15xf32> to tensor<1x3840x17x17xf32>
    %collapsed_1465 = tensor.collapse_shape %cst_95 [[0, 1], [2], [3]] : tensor<3840x1x3x3xf32> into tensor<3840x3x3xf32>
    %1352 = linalg.depthwise_conv_2d_nchw_chw {dilations = dense<1> : vector<2xi64>, strides = dense<1> : vector<2xi64>} ins(%padded_1464, %collapsed_1465 : tensor<1x3840x17x17xf32>, tensor<3840x3x3xf32>) outs(%1323 : tensor<1x3840x15x15xf32>) -> tensor<1x3840x15x15xf32>
    cf.assert %3, "training is not supported for now"
    %1353 = linalg.generic {indexing_maps = [#map, #map1, #map1, #map1, #map1, #map], iterator_types = ["parallel", "parallel", "parallel", "parallel"]} ins(%1352, %cst_92, %cst_91, %cst_94, %cst_93 : tensor<1x3840x15x15xf32>, tensor<3840xf32>, tensor<3840xf32>, tensor<3840xf32>, tensor<3840xf32>) outs(%1352 : tensor<1x3840x15x15xf32>) {
    ^bb0(%in: f32, %in_1475: f32, %in_1476: f32, %in_1477: f32, %in_1478: f32, %out: f32):
      %1469 = arith.truncf %cst_1332 : f64 to f32
      %1470 = arith.addf %in_1478, %1469 : f32
      %1471 = math.rsqrt %1470 : f32
      %1472 = arith.subf %in, %in_1477 : f32
      %1473 = arith.mulf %1472, %1471 : f32
      %1474 = arith.mulf %1473, %in_1475 : f32
      %1475 = arith.addf %1474, %in_1476 : f32
      linalg.yield %1475 : f32
    } -> tensor<1x3840x15x15xf32>
    %1354 = linalg.generic {indexing_maps = [#map2, #map], iterator_types = ["parallel", "parallel", "parallel", "parallel"]} ins(%1353 : tensor<1x3840x15x15xf32>) outs(%1322 : tensor<1x3840x15x15xf32>) {
    ^bb0(%in: f32, %out: f32):
      %1469 = arith.negf %in : f32
      %1470 = math.exp %1469 : f32
      %1471 = arith.addf %1470, %cst_1331 : f32
      %1472 = arith.divf %cst_1331, %1471 : f32
      linalg.yield %1472 : f32
    } -> tensor<1x3840x15x15xf32>
    %1355 = linalg.generic {indexing_maps = [#map2, #map2, #map], iterator_types = ["parallel", "parallel", "parallel", "parallel"]} ins(%1354, %1353 : tensor<1x3840x15x15xf32>, tensor<1x3840x15x15xf32>) outs(%1322 : tensor<1x3840x15x15xf32>) {
    ^bb0(%in: f32, %in_1475: f32, %out: f32):
      %1469 = arith.mulf %in, %in_1475 : f32
      linalg.yield %1469 : f32
    } -> tensor<1x3840x15x15xf32>
    %1356 = linalg.pooling_nchw_sum {dilations = dense<1> : vector<2xi64>, strides = dense<1> : vector<2xi64>} ins(%1355, %776 : tensor<1x3840x15x15xf32>, tensor<15x15xf32>) outs(%1333 : tensor<1x3840x1x1xf32>) -> tensor<1x3840x1x1xf32>
    %1357 = linalg.generic {indexing_maps = [#map, #map], iterator_types = ["parallel", "parallel", "parallel", "parallel"]} ins(%1356 : tensor<1x3840x1x1xf32>) outs(%1332 : tensor<1x3840x1x1xf32>) {
    ^bb0(%in: f32, %out: f32):
      %1469 = arith.divf %in, %cst_1334 : f32
      linalg.yield %1469 : f32
    } -> tensor<1x3840x1x1xf32>
    %1358 = linalg.generic {indexing_maps = [#map1, #map], iterator_types = ["parallel", "parallel", "parallel", "parallel"]} ins(%cst_89 : tensor<160xf32>) outs(%1336 : tensor<1x160x1x1xf32>) {
    ^bb0(%in: f32, %out: f32):
      linalg.yield %in : f32
    } -> tensor<1x160x1x1xf32>
    %1359 = linalg.conv_2d_nchw_fchw {dilations = dense<1> : vector<2xi64>, strides = dense<1> : vector<2xi64>} ins(%1357, %cst_90 : tensor<1x3840x1x1xf32>, tensor<160x3840x1x1xf32>) outs(%1358 : tensor<1x160x1x1xf32>) -> tensor<1x160x1x1xf32>
    %1360 = linalg.generic {indexing_maps = [#map3, #map], iterator_types = ["parallel", "parallel", "parallel", "parallel"]} ins(%1359 : tensor<1x160x1x1xf32>) outs(%1336 : tensor<1x160x1x1xf32>) {
    ^bb0(%in: f32, %out: f32):
      %1469 = arith.negf %in : f32
      %1470 = math.exp %1469 : f32
      %1471 = arith.addf %1470, %cst_1331 : f32
      %1472 = arith.divf %cst_1331, %1471 : f32
      linalg.yield %1472 : f32
    } -> tensor<1x160x1x1xf32>
    %1361 = linalg.generic {indexing_maps = [#map3, #map3, #map], iterator_types = ["parallel", "parallel", "parallel", "parallel"]} ins(%1360, %1359 : tensor<1x160x1x1xf32>, tensor<1x160x1x1xf32>) outs(%1336 : tensor<1x160x1x1xf32>) {
    ^bb0(%in: f32, %in_1475: f32, %out: f32):
      %1469 = arith.mulf %in, %in_1475 : f32
      linalg.yield %1469 : f32
    } -> tensor<1x160x1x1xf32>
    %1362 = linalg.generic {indexing_maps = [#map1, #map], iterator_types = ["parallel", "parallel", "parallel", "parallel"]} ins(%cst_87 : tensor<3840xf32>) outs(%1332 : tensor<1x3840x1x1xf32>) {
    ^bb0(%in: f32, %out: f32):
      linalg.yield %in : f32
    } -> tensor<1x3840x1x1xf32>
    %1363 = linalg.conv_2d_nchw_fchw {dilations = dense<1> : vector<2xi64>, strides = dense<1> : vector<2xi64>} ins(%1361, %cst_88 : tensor<1x160x1x1xf32>, tensor<3840x160x1x1xf32>) outs(%1362 : tensor<1x3840x1x1xf32>) -> tensor<1x3840x1x1xf32>
    %1364 = linalg.generic {indexing_maps = [#map3, #map], iterator_types = ["parallel", "parallel", "parallel", "parallel"]} ins(%1363 : tensor<1x3840x1x1xf32>) outs(%1332 : tensor<1x3840x1x1xf32>) {
    ^bb0(%in: f32, %out: f32):
      %1469 = arith.negf %in : f32
      %1470 = math.exp %1469 : f32
      %1471 = arith.addf %1470, %cst_1331 : f32
      %1472 = arith.divf %cst_1331, %1471 : f32
      linalg.yield %1472 : f32
    } -> tensor<1x3840x1x1xf32>
    %1365 = linalg.generic {indexing_maps = [#map3, #map2, #map], iterator_types = ["parallel", "parallel", "parallel", "parallel"]} ins(%1364, %1355 : tensor<1x3840x1x1xf32>, tensor<1x3840x15x15xf32>) outs(%1322 : tensor<1x3840x15x15xf32>) {
    ^bb0(%in: f32, %in_1475: f32, %out: f32):
      %1469 = arith.mulf %in, %in_1475 : f32
      linalg.yield %1469 : f32
    } -> tensor<1x3840x15x15xf32>
    %1366 = linalg.conv_2d_nchw_fchw {dilations = dense<1> : vector<2xi64>, strides = dense<1> : vector<2xi64>} ins(%1365, %cst_86 : tensor<1x3840x15x15xf32>, tensor<640x3840x1x1xf32>) outs(%1319 : tensor<1x640x15x15xf32>) -> tensor<1x640x15x15xf32>
    cf.assert %3, "training is not supported for now"
    %1367 = linalg.generic {indexing_maps = [#map, #map1, #map1, #map1, #map1, #map], iterator_types = ["parallel", "parallel", "parallel", "parallel"]} ins(%1366, %cst_83, %cst_82, %cst_85, %cst_84 : tensor<1x640x15x15xf32>, tensor<640xf32>, tensor<640xf32>, tensor<640xf32>, tensor<640xf32>) outs(%1366 : tensor<1x640x15x15xf32>) {
    ^bb0(%in: f32, %in_1475: f32, %in_1476: f32, %in_1477: f32, %in_1478: f32, %out: f32):
      %1469 = arith.truncf %cst_1332 : f64 to f32
      %1470 = arith.addf %in_1478, %1469 : f32
      %1471 = math.rsqrt %1470 : f32
      %1472 = arith.subf %in, %in_1477 : f32
      %1473 = arith.mulf %1472, %1471 : f32
      %1474 = arith.mulf %1473, %in_1475 : f32
      %1475 = arith.addf %1474, %in_1476 : f32
      linalg.yield %1475 : f32
    } -> tensor<1x640x15x15xf32>
    %1368 = linalg.generic {indexing_maps = [#map2, #map2, #map], iterator_types = ["parallel", "parallel", "parallel", "parallel"]} ins(%1367, %1347 : tensor<1x640x15x15xf32>, tensor<1x640x15x15xf32>) outs(%1318 : tensor<1x640x15x15xf32>) {
    ^bb0(%in: f32, %in_1475: f32, %out: f32):
      %1469 = arith.addf %in, %in_1475 : f32
      linalg.yield %1469 : f32
    } -> tensor<1x640x15x15xf32>
    %1369 = linalg.conv_2d_nchw_fchw {dilations = dense<1> : vector<2xi64>, strides = dense<1> : vector<2xi64>} ins(%1368, %cst_81 : tensor<1x640x15x15xf32>, tensor<3840x640x1x1xf32>) outs(%1323 : tensor<1x3840x15x15xf32>) -> tensor<1x3840x15x15xf32>
    cf.assert %3, "training is not supported for now"
    %1370 = linalg.generic {indexing_maps = [#map, #map1, #map1, #map1, #map1, #map], iterator_types = ["parallel", "parallel", "parallel", "parallel"]} ins(%1369, %cst_78, %cst_77, %cst_80, %cst_79 : tensor<1x3840x15x15xf32>, tensor<3840xf32>, tensor<3840xf32>, tensor<3840xf32>, tensor<3840xf32>) outs(%1369 : tensor<1x3840x15x15xf32>) {
    ^bb0(%in: f32, %in_1475: f32, %in_1476: f32, %in_1477: f32, %in_1478: f32, %out: f32):
      %1469 = arith.truncf %cst_1332 : f64 to f32
      %1470 = arith.addf %in_1478, %1469 : f32
      %1471 = math.rsqrt %1470 : f32
      %1472 = arith.subf %in, %in_1477 : f32
      %1473 = arith.mulf %1472, %1471 : f32
      %1474 = arith.mulf %1473, %in_1475 : f32
      %1475 = arith.addf %1474, %in_1476 : f32
      linalg.yield %1475 : f32
    } -> tensor<1x3840x15x15xf32>
    %1371 = linalg.generic {indexing_maps = [#map2, #map], iterator_types = ["parallel", "parallel", "parallel", "parallel"]} ins(%1370 : tensor<1x3840x15x15xf32>) outs(%1322 : tensor<1x3840x15x15xf32>) {
    ^bb0(%in: f32, %out: f32):
      %1469 = arith.negf %in : f32
      %1470 = math.exp %1469 : f32
      %1471 = arith.addf %1470, %cst_1331 : f32
      %1472 = arith.divf %cst_1331, %1471 : f32
      linalg.yield %1472 : f32
    } -> tensor<1x3840x15x15xf32>
    %1372 = linalg.generic {indexing_maps = [#map2, #map2, #map], iterator_types = ["parallel", "parallel", "parallel", "parallel"]} ins(%1371, %1370 : tensor<1x3840x15x15xf32>, tensor<1x3840x15x15xf32>) outs(%1322 : tensor<1x3840x15x15xf32>) {
    ^bb0(%in: f32, %in_1475: f32, %out: f32):
      %1469 = arith.mulf %in, %in_1475 : f32
      linalg.yield %1469 : f32
    } -> tensor<1x3840x15x15xf32>
    %padded_1466 = tensor.pad %1372 low[0, 0, 1, 1] high[0, 0, 1, 1] {
    ^bb0(%arg1: index, %arg2: index, %arg3: index, %arg4: index):
      tensor.yield %cst_1330 : f32
    } : tensor<1x3840x15x15xf32> to tensor<1x3840x17x17xf32>
    %collapsed_1467 = tensor.collapse_shape %cst_76 [[0, 1], [2], [3]] : tensor<3840x1x3x3xf32> into tensor<3840x3x3xf32>
    %1373 = linalg.depthwise_conv_2d_nchw_chw {dilations = dense<1> : vector<2xi64>, strides = dense<1> : vector<2xi64>} ins(%padded_1466, %collapsed_1467 : tensor<1x3840x17x17xf32>, tensor<3840x3x3xf32>) outs(%1323 : tensor<1x3840x15x15xf32>) -> tensor<1x3840x15x15xf32>
    cf.assert %3, "training is not supported for now"
    %1374 = linalg.generic {indexing_maps = [#map, #map1, #map1, #map1, #map1, #map], iterator_types = ["parallel", "parallel", "parallel", "parallel"]} ins(%1373, %cst_73, %cst_72, %cst_75, %cst_74 : tensor<1x3840x15x15xf32>, tensor<3840xf32>, tensor<3840xf32>, tensor<3840xf32>, tensor<3840xf32>) outs(%1373 : tensor<1x3840x15x15xf32>) {
    ^bb0(%in: f32, %in_1475: f32, %in_1476: f32, %in_1477: f32, %in_1478: f32, %out: f32):
      %1469 = arith.truncf %cst_1332 : f64 to f32
      %1470 = arith.addf %in_1478, %1469 : f32
      %1471 = math.rsqrt %1470 : f32
      %1472 = arith.subf %in, %in_1477 : f32
      %1473 = arith.mulf %1472, %1471 : f32
      %1474 = arith.mulf %1473, %in_1475 : f32
      %1475 = arith.addf %1474, %in_1476 : f32
      linalg.yield %1475 : f32
    } -> tensor<1x3840x15x15xf32>
    %1375 = linalg.generic {indexing_maps = [#map2, #map], iterator_types = ["parallel", "parallel", "parallel", "parallel"]} ins(%1374 : tensor<1x3840x15x15xf32>) outs(%1322 : tensor<1x3840x15x15xf32>) {
    ^bb0(%in: f32, %out: f32):
      %1469 = arith.negf %in : f32
      %1470 = math.exp %1469 : f32
      %1471 = arith.addf %1470, %cst_1331 : f32
      %1472 = arith.divf %cst_1331, %1471 : f32
      linalg.yield %1472 : f32
    } -> tensor<1x3840x15x15xf32>
    %1376 = linalg.generic {indexing_maps = [#map2, #map2, #map], iterator_types = ["parallel", "parallel", "parallel", "parallel"]} ins(%1375, %1374 : tensor<1x3840x15x15xf32>, tensor<1x3840x15x15xf32>) outs(%1322 : tensor<1x3840x15x15xf32>) {
    ^bb0(%in: f32, %in_1475: f32, %out: f32):
      %1469 = arith.mulf %in, %in_1475 : f32
      linalg.yield %1469 : f32
    } -> tensor<1x3840x15x15xf32>
    %1377 = linalg.pooling_nchw_sum {dilations = dense<1> : vector<2xi64>, strides = dense<1> : vector<2xi64>} ins(%1376, %776 : tensor<1x3840x15x15xf32>, tensor<15x15xf32>) outs(%1333 : tensor<1x3840x1x1xf32>) -> tensor<1x3840x1x1xf32>
    %1378 = linalg.generic {indexing_maps = [#map, #map], iterator_types = ["parallel", "parallel", "parallel", "parallel"]} ins(%1377 : tensor<1x3840x1x1xf32>) outs(%1332 : tensor<1x3840x1x1xf32>) {
    ^bb0(%in: f32, %out: f32):
      %1469 = arith.divf %in, %cst_1334 : f32
      linalg.yield %1469 : f32
    } -> tensor<1x3840x1x1xf32>
    %1379 = linalg.generic {indexing_maps = [#map1, #map], iterator_types = ["parallel", "parallel", "parallel", "parallel"]} ins(%cst_70 : tensor<160xf32>) outs(%1336 : tensor<1x160x1x1xf32>) {
    ^bb0(%in: f32, %out: f32):
      linalg.yield %in : f32
    } -> tensor<1x160x1x1xf32>
    %1380 = linalg.conv_2d_nchw_fchw {dilations = dense<1> : vector<2xi64>, strides = dense<1> : vector<2xi64>} ins(%1378, %cst_71 : tensor<1x3840x1x1xf32>, tensor<160x3840x1x1xf32>) outs(%1379 : tensor<1x160x1x1xf32>) -> tensor<1x160x1x1xf32>
    %1381 = linalg.generic {indexing_maps = [#map3, #map], iterator_types = ["parallel", "parallel", "parallel", "parallel"]} ins(%1380 : tensor<1x160x1x1xf32>) outs(%1336 : tensor<1x160x1x1xf32>) {
    ^bb0(%in: f32, %out: f32):
      %1469 = arith.negf %in : f32
      %1470 = math.exp %1469 : f32
      %1471 = arith.addf %1470, %cst_1331 : f32
      %1472 = arith.divf %cst_1331, %1471 : f32
      linalg.yield %1472 : f32
    } -> tensor<1x160x1x1xf32>
    %1382 = linalg.generic {indexing_maps = [#map3, #map3, #map], iterator_types = ["parallel", "parallel", "parallel", "parallel"]} ins(%1381, %1380 : tensor<1x160x1x1xf32>, tensor<1x160x1x1xf32>) outs(%1336 : tensor<1x160x1x1xf32>) {
    ^bb0(%in: f32, %in_1475: f32, %out: f32):
      %1469 = arith.mulf %in, %in_1475 : f32
      linalg.yield %1469 : f32
    } -> tensor<1x160x1x1xf32>
    %1383 = linalg.generic {indexing_maps = [#map1, #map], iterator_types = ["parallel", "parallel", "parallel", "parallel"]} ins(%cst_68 : tensor<3840xf32>) outs(%1332 : tensor<1x3840x1x1xf32>) {
    ^bb0(%in: f32, %out: f32):
      linalg.yield %in : f32
    } -> tensor<1x3840x1x1xf32>
    %1384 = linalg.conv_2d_nchw_fchw {dilations = dense<1> : vector<2xi64>, strides = dense<1> : vector<2xi64>} ins(%1382, %cst_69 : tensor<1x160x1x1xf32>, tensor<3840x160x1x1xf32>) outs(%1383 : tensor<1x3840x1x1xf32>) -> tensor<1x3840x1x1xf32>
    %1385 = linalg.generic {indexing_maps = [#map3, #map], iterator_types = ["parallel", "parallel", "parallel", "parallel"]} ins(%1384 : tensor<1x3840x1x1xf32>) outs(%1332 : tensor<1x3840x1x1xf32>) {
    ^bb0(%in: f32, %out: f32):
      %1469 = arith.negf %in : f32
      %1470 = math.exp %1469 : f32
      %1471 = arith.addf %1470, %cst_1331 : f32
      %1472 = arith.divf %cst_1331, %1471 : f32
      linalg.yield %1472 : f32
    } -> tensor<1x3840x1x1xf32>
    %1386 = linalg.generic {indexing_maps = [#map3, #map2, #map], iterator_types = ["parallel", "parallel", "parallel", "parallel"]} ins(%1385, %1376 : tensor<1x3840x1x1xf32>, tensor<1x3840x15x15xf32>) outs(%1322 : tensor<1x3840x15x15xf32>) {
    ^bb0(%in: f32, %in_1475: f32, %out: f32):
      %1469 = arith.mulf %in, %in_1475 : f32
      linalg.yield %1469 : f32
    } -> tensor<1x3840x15x15xf32>
    %1387 = linalg.conv_2d_nchw_fchw {dilations = dense<1> : vector<2xi64>, strides = dense<1> : vector<2xi64>} ins(%1386, %cst_67 : tensor<1x3840x15x15xf32>, tensor<640x3840x1x1xf32>) outs(%1319 : tensor<1x640x15x15xf32>) -> tensor<1x640x15x15xf32>
    cf.assert %3, "training is not supported for now"
    %1388 = linalg.generic {indexing_maps = [#map, #map1, #map1, #map1, #map1, #map], iterator_types = ["parallel", "parallel", "parallel", "parallel"]} ins(%1387, %cst_64, %cst_63, %cst_66, %cst_65 : tensor<1x640x15x15xf32>, tensor<640xf32>, tensor<640xf32>, tensor<640xf32>, tensor<640xf32>) outs(%1387 : tensor<1x640x15x15xf32>) {
    ^bb0(%in: f32, %in_1475: f32, %in_1476: f32, %in_1477: f32, %in_1478: f32, %out: f32):
      %1469 = arith.truncf %cst_1332 : f64 to f32
      %1470 = arith.addf %in_1478, %1469 : f32
      %1471 = math.rsqrt %1470 : f32
      %1472 = arith.subf %in, %in_1477 : f32
      %1473 = arith.mulf %1472, %1471 : f32
      %1474 = arith.mulf %1473, %in_1475 : f32
      %1475 = arith.addf %1474, %in_1476 : f32
      linalg.yield %1475 : f32
    } -> tensor<1x640x15x15xf32>
    %1389 = linalg.generic {indexing_maps = [#map2, #map2, #map], iterator_types = ["parallel", "parallel", "parallel", "parallel"]} ins(%1388, %1368 : tensor<1x640x15x15xf32>, tensor<1x640x15x15xf32>) outs(%1318 : tensor<1x640x15x15xf32>) {
    ^bb0(%in: f32, %in_1475: f32, %out: f32):
      %1469 = arith.addf %in, %in_1475 : f32
      linalg.yield %1469 : f32
    } -> tensor<1x640x15x15xf32>
    %1390 = linalg.conv_2d_nchw_fchw {dilations = dense<1> : vector<2xi64>, strides = dense<1> : vector<2xi64>} ins(%1389, %cst_62 : tensor<1x640x15x15xf32>, tensor<3840x640x1x1xf32>) outs(%1323 : tensor<1x3840x15x15xf32>) -> tensor<1x3840x15x15xf32>
    cf.assert %3, "training is not supported for now"
    %1391 = linalg.generic {indexing_maps = [#map, #map1, #map1, #map1, #map1, #map], iterator_types = ["parallel", "parallel", "parallel", "parallel"]} ins(%1390, %cst_59, %cst_58, %cst_61, %cst_60 : tensor<1x3840x15x15xf32>, tensor<3840xf32>, tensor<3840xf32>, tensor<3840xf32>, tensor<3840xf32>) outs(%1390 : tensor<1x3840x15x15xf32>) {
    ^bb0(%in: f32, %in_1475: f32, %in_1476: f32, %in_1477: f32, %in_1478: f32, %out: f32):
      %1469 = arith.truncf %cst_1332 : f64 to f32
      %1470 = arith.addf %in_1478, %1469 : f32
      %1471 = math.rsqrt %1470 : f32
      %1472 = arith.subf %in, %in_1477 : f32
      %1473 = arith.mulf %1472, %1471 : f32
      %1474 = arith.mulf %1473, %in_1475 : f32
      %1475 = arith.addf %1474, %in_1476 : f32
      linalg.yield %1475 : f32
    } -> tensor<1x3840x15x15xf32>
    %1392 = linalg.generic {indexing_maps = [#map2, #map], iterator_types = ["parallel", "parallel", "parallel", "parallel"]} ins(%1391 : tensor<1x3840x15x15xf32>) outs(%1322 : tensor<1x3840x15x15xf32>) {
    ^bb0(%in: f32, %out: f32):
      %1469 = arith.negf %in : f32
      %1470 = math.exp %1469 : f32
      %1471 = arith.addf %1470, %cst_1331 : f32
      %1472 = arith.divf %cst_1331, %1471 : f32
      linalg.yield %1472 : f32
    } -> tensor<1x3840x15x15xf32>
    %1393 = linalg.generic {indexing_maps = [#map2, #map2, #map], iterator_types = ["parallel", "parallel", "parallel", "parallel"]} ins(%1392, %1391 : tensor<1x3840x15x15xf32>, tensor<1x3840x15x15xf32>) outs(%1322 : tensor<1x3840x15x15xf32>) {
    ^bb0(%in: f32, %in_1475: f32, %out: f32):
      %1469 = arith.mulf %in, %in_1475 : f32
      linalg.yield %1469 : f32
    } -> tensor<1x3840x15x15xf32>
    %padded_1468 = tensor.pad %1393 low[0, 0, 1, 1] high[0, 0, 1, 1] {
    ^bb0(%arg1: index, %arg2: index, %arg3: index, %arg4: index):
      tensor.yield %cst_1330 : f32
    } : tensor<1x3840x15x15xf32> to tensor<1x3840x17x17xf32>
    %collapsed_1469 = tensor.collapse_shape %cst_57 [[0, 1], [2], [3]] : tensor<3840x1x3x3xf32> into tensor<3840x3x3xf32>
    %1394 = linalg.depthwise_conv_2d_nchw_chw {dilations = dense<1> : vector<2xi64>, strides = dense<1> : vector<2xi64>} ins(%padded_1468, %collapsed_1469 : tensor<1x3840x17x17xf32>, tensor<3840x3x3xf32>) outs(%1323 : tensor<1x3840x15x15xf32>) -> tensor<1x3840x15x15xf32>
    cf.assert %3, "training is not supported for now"
    %1395 = linalg.generic {indexing_maps = [#map, #map1, #map1, #map1, #map1, #map], iterator_types = ["parallel", "parallel", "parallel", "parallel"]} ins(%1394, %cst_54, %cst_53, %cst_56, %cst_55 : tensor<1x3840x15x15xf32>, tensor<3840xf32>, tensor<3840xf32>, tensor<3840xf32>, tensor<3840xf32>) outs(%1394 : tensor<1x3840x15x15xf32>) {
    ^bb0(%in: f32, %in_1475: f32, %in_1476: f32, %in_1477: f32, %in_1478: f32, %out: f32):
      %1469 = arith.truncf %cst_1332 : f64 to f32
      %1470 = arith.addf %in_1478, %1469 : f32
      %1471 = math.rsqrt %1470 : f32
      %1472 = arith.subf %in, %in_1477 : f32
      %1473 = arith.mulf %1472, %1471 : f32
      %1474 = arith.mulf %1473, %in_1475 : f32
      %1475 = arith.addf %1474, %in_1476 : f32
      linalg.yield %1475 : f32
    } -> tensor<1x3840x15x15xf32>
    %1396 = linalg.generic {indexing_maps = [#map2, #map], iterator_types = ["parallel", "parallel", "parallel", "parallel"]} ins(%1395 : tensor<1x3840x15x15xf32>) outs(%1322 : tensor<1x3840x15x15xf32>) {
    ^bb0(%in: f32, %out: f32):
      %1469 = arith.negf %in : f32
      %1470 = math.exp %1469 : f32
      %1471 = arith.addf %1470, %cst_1331 : f32
      %1472 = arith.divf %cst_1331, %1471 : f32
      linalg.yield %1472 : f32
    } -> tensor<1x3840x15x15xf32>
    %1397 = linalg.generic {indexing_maps = [#map2, #map2, #map], iterator_types = ["parallel", "parallel", "parallel", "parallel"]} ins(%1396, %1395 : tensor<1x3840x15x15xf32>, tensor<1x3840x15x15xf32>) outs(%1322 : tensor<1x3840x15x15xf32>) {
    ^bb0(%in: f32, %in_1475: f32, %out: f32):
      %1469 = arith.mulf %in, %in_1475 : f32
      linalg.yield %1469 : f32
    } -> tensor<1x3840x15x15xf32>
    %1398 = linalg.pooling_nchw_sum {dilations = dense<1> : vector<2xi64>, strides = dense<1> : vector<2xi64>} ins(%1397, %776 : tensor<1x3840x15x15xf32>, tensor<15x15xf32>) outs(%1333 : tensor<1x3840x1x1xf32>) -> tensor<1x3840x1x1xf32>
    %1399 = linalg.generic {indexing_maps = [#map, #map], iterator_types = ["parallel", "parallel", "parallel", "parallel"]} ins(%1398 : tensor<1x3840x1x1xf32>) outs(%1332 : tensor<1x3840x1x1xf32>) {
    ^bb0(%in: f32, %out: f32):
      %1469 = arith.divf %in, %cst_1334 : f32
      linalg.yield %1469 : f32
    } -> tensor<1x3840x1x1xf32>
    %1400 = linalg.generic {indexing_maps = [#map1, #map], iterator_types = ["parallel", "parallel", "parallel", "parallel"]} ins(%cst_51 : tensor<160xf32>) outs(%1336 : tensor<1x160x1x1xf32>) {
    ^bb0(%in: f32, %out: f32):
      linalg.yield %in : f32
    } -> tensor<1x160x1x1xf32>
    %1401 = linalg.conv_2d_nchw_fchw {dilations = dense<1> : vector<2xi64>, strides = dense<1> : vector<2xi64>} ins(%1399, %cst_52 : tensor<1x3840x1x1xf32>, tensor<160x3840x1x1xf32>) outs(%1400 : tensor<1x160x1x1xf32>) -> tensor<1x160x1x1xf32>
    %1402 = linalg.generic {indexing_maps = [#map3, #map], iterator_types = ["parallel", "parallel", "parallel", "parallel"]} ins(%1401 : tensor<1x160x1x1xf32>) outs(%1336 : tensor<1x160x1x1xf32>) {
    ^bb0(%in: f32, %out: f32):
      %1469 = arith.negf %in : f32
      %1470 = math.exp %1469 : f32
      %1471 = arith.addf %1470, %cst_1331 : f32
      %1472 = arith.divf %cst_1331, %1471 : f32
      linalg.yield %1472 : f32
    } -> tensor<1x160x1x1xf32>
    %1403 = linalg.generic {indexing_maps = [#map3, #map3, #map], iterator_types = ["parallel", "parallel", "parallel", "parallel"]} ins(%1402, %1401 : tensor<1x160x1x1xf32>, tensor<1x160x1x1xf32>) outs(%1336 : tensor<1x160x1x1xf32>) {
    ^bb0(%in: f32, %in_1475: f32, %out: f32):
      %1469 = arith.mulf %in, %in_1475 : f32
      linalg.yield %1469 : f32
    } -> tensor<1x160x1x1xf32>
    %1404 = linalg.generic {indexing_maps = [#map1, #map], iterator_types = ["parallel", "parallel", "parallel", "parallel"]} ins(%cst_49 : tensor<3840xf32>) outs(%1332 : tensor<1x3840x1x1xf32>) {
    ^bb0(%in: f32, %out: f32):
      linalg.yield %in : f32
    } -> tensor<1x3840x1x1xf32>
    %1405 = linalg.conv_2d_nchw_fchw {dilations = dense<1> : vector<2xi64>, strides = dense<1> : vector<2xi64>} ins(%1403, %cst_50 : tensor<1x160x1x1xf32>, tensor<3840x160x1x1xf32>) outs(%1404 : tensor<1x3840x1x1xf32>) -> tensor<1x3840x1x1xf32>
    %1406 = linalg.generic {indexing_maps = [#map3, #map], iterator_types = ["parallel", "parallel", "parallel", "parallel"]} ins(%1405 : tensor<1x3840x1x1xf32>) outs(%1332 : tensor<1x3840x1x1xf32>) {
    ^bb0(%in: f32, %out: f32):
      %1469 = arith.negf %in : f32
      %1470 = math.exp %1469 : f32
      %1471 = arith.addf %1470, %cst_1331 : f32
      %1472 = arith.divf %cst_1331, %1471 : f32
      linalg.yield %1472 : f32
    } -> tensor<1x3840x1x1xf32>
    %1407 = linalg.generic {indexing_maps = [#map3, #map2, #map], iterator_types = ["parallel", "parallel", "parallel", "parallel"]} ins(%1406, %1397 : tensor<1x3840x1x1xf32>, tensor<1x3840x15x15xf32>) outs(%1322 : tensor<1x3840x15x15xf32>) {
    ^bb0(%in: f32, %in_1475: f32, %out: f32):
      %1469 = arith.mulf %in, %in_1475 : f32
      linalg.yield %1469 : f32
    } -> tensor<1x3840x15x15xf32>
    %1408 = linalg.conv_2d_nchw_fchw {dilations = dense<1> : vector<2xi64>, strides = dense<1> : vector<2xi64>} ins(%1407, %cst_48 : tensor<1x3840x15x15xf32>, tensor<640x3840x1x1xf32>) outs(%1319 : tensor<1x640x15x15xf32>) -> tensor<1x640x15x15xf32>
    cf.assert %3, "training is not supported for now"
    %1409 = linalg.generic {indexing_maps = [#map, #map1, #map1, #map1, #map1, #map], iterator_types = ["parallel", "parallel", "parallel", "parallel"]} ins(%1408, %cst_45, %cst_44, %cst_47, %cst_46 : tensor<1x640x15x15xf32>, tensor<640xf32>, tensor<640xf32>, tensor<640xf32>, tensor<640xf32>) outs(%1408 : tensor<1x640x15x15xf32>) {
    ^bb0(%in: f32, %in_1475: f32, %in_1476: f32, %in_1477: f32, %in_1478: f32, %out: f32):
      %1469 = arith.truncf %cst_1332 : f64 to f32
      %1470 = arith.addf %in_1478, %1469 : f32
      %1471 = math.rsqrt %1470 : f32
      %1472 = arith.subf %in, %in_1477 : f32
      %1473 = arith.mulf %1472, %1471 : f32
      %1474 = arith.mulf %1473, %in_1475 : f32
      %1475 = arith.addf %1474, %in_1476 : f32
      linalg.yield %1475 : f32
    } -> tensor<1x640x15x15xf32>
    %1410 = linalg.generic {indexing_maps = [#map2, #map2, #map], iterator_types = ["parallel", "parallel", "parallel", "parallel"]} ins(%1409, %1389 : tensor<1x640x15x15xf32>, tensor<1x640x15x15xf32>) outs(%1318 : tensor<1x640x15x15xf32>) {
    ^bb0(%in: f32, %in_1475: f32, %out: f32):
      %1469 = arith.addf %in, %in_1475 : f32
      linalg.yield %1469 : f32
    } -> tensor<1x640x15x15xf32>
    %1411 = linalg.conv_2d_nchw_fchw {dilations = dense<1> : vector<2xi64>, strides = dense<1> : vector<2xi64>} ins(%1410, %cst_43 : tensor<1x640x15x15xf32>, tensor<3840x640x1x1xf32>) outs(%1323 : tensor<1x3840x15x15xf32>) -> tensor<1x3840x15x15xf32>
    cf.assert %3, "training is not supported for now"
    %1412 = linalg.generic {indexing_maps = [#map, #map1, #map1, #map1, #map1, #map], iterator_types = ["parallel", "parallel", "parallel", "parallel"]} ins(%1411, %cst_40, %cst_39, %cst_42, %cst_41 : tensor<1x3840x15x15xf32>, tensor<3840xf32>, tensor<3840xf32>, tensor<3840xf32>, tensor<3840xf32>) outs(%1411 : tensor<1x3840x15x15xf32>) {
    ^bb0(%in: f32, %in_1475: f32, %in_1476: f32, %in_1477: f32, %in_1478: f32, %out: f32):
      %1469 = arith.truncf %cst_1332 : f64 to f32
      %1470 = arith.addf %in_1478, %1469 : f32
      %1471 = math.rsqrt %1470 : f32
      %1472 = arith.subf %in, %in_1477 : f32
      %1473 = arith.mulf %1472, %1471 : f32
      %1474 = arith.mulf %1473, %in_1475 : f32
      %1475 = arith.addf %1474, %in_1476 : f32
      linalg.yield %1475 : f32
    } -> tensor<1x3840x15x15xf32>
    %1413 = linalg.generic {indexing_maps = [#map2, #map], iterator_types = ["parallel", "parallel", "parallel", "parallel"]} ins(%1412 : tensor<1x3840x15x15xf32>) outs(%1322 : tensor<1x3840x15x15xf32>) {
    ^bb0(%in: f32, %out: f32):
      %1469 = arith.negf %in : f32
      %1470 = math.exp %1469 : f32
      %1471 = arith.addf %1470, %cst_1331 : f32
      %1472 = arith.divf %cst_1331, %1471 : f32
      linalg.yield %1472 : f32
    } -> tensor<1x3840x15x15xf32>
    %1414 = linalg.generic {indexing_maps = [#map2, #map2, #map], iterator_types = ["parallel", "parallel", "parallel", "parallel"]} ins(%1413, %1412 : tensor<1x3840x15x15xf32>, tensor<1x3840x15x15xf32>) outs(%1322 : tensor<1x3840x15x15xf32>) {
    ^bb0(%in: f32, %in_1475: f32, %out: f32):
      %1469 = arith.mulf %in, %in_1475 : f32
      linalg.yield %1469 : f32
    } -> tensor<1x3840x15x15xf32>
    %padded_1470 = tensor.pad %1414 low[0, 0, 1, 1] high[0, 0, 1, 1] {
    ^bb0(%arg1: index, %arg2: index, %arg3: index, %arg4: index):
      tensor.yield %cst_1330 : f32
    } : tensor<1x3840x15x15xf32> to tensor<1x3840x17x17xf32>
    %collapsed_1471 = tensor.collapse_shape %cst_38 [[0, 1], [2], [3]] : tensor<3840x1x3x3xf32> into tensor<3840x3x3xf32>
    %1415 = linalg.depthwise_conv_2d_nchw_chw {dilations = dense<1> : vector<2xi64>, strides = dense<1> : vector<2xi64>} ins(%padded_1470, %collapsed_1471 : tensor<1x3840x17x17xf32>, tensor<3840x3x3xf32>) outs(%1323 : tensor<1x3840x15x15xf32>) -> tensor<1x3840x15x15xf32>
    cf.assert %3, "training is not supported for now"
    %1416 = linalg.generic {indexing_maps = [#map, #map1, #map1, #map1, #map1, #map], iterator_types = ["parallel", "parallel", "parallel", "parallel"]} ins(%1415, %cst_35, %cst_34, %cst_37, %cst_36 : tensor<1x3840x15x15xf32>, tensor<3840xf32>, tensor<3840xf32>, tensor<3840xf32>, tensor<3840xf32>) outs(%1415 : tensor<1x3840x15x15xf32>) {
    ^bb0(%in: f32, %in_1475: f32, %in_1476: f32, %in_1477: f32, %in_1478: f32, %out: f32):
      %1469 = arith.truncf %cst_1332 : f64 to f32
      %1470 = arith.addf %in_1478, %1469 : f32
      %1471 = math.rsqrt %1470 : f32
      %1472 = arith.subf %in, %in_1477 : f32
      %1473 = arith.mulf %1472, %1471 : f32
      %1474 = arith.mulf %1473, %in_1475 : f32
      %1475 = arith.addf %1474, %in_1476 : f32
      linalg.yield %1475 : f32
    } -> tensor<1x3840x15x15xf32>
    %1417 = linalg.generic {indexing_maps = [#map2, #map], iterator_types = ["parallel", "parallel", "parallel", "parallel"]} ins(%1416 : tensor<1x3840x15x15xf32>) outs(%1322 : tensor<1x3840x15x15xf32>) {
    ^bb0(%in: f32, %out: f32):
      %1469 = arith.negf %in : f32
      %1470 = math.exp %1469 : f32
      %1471 = arith.addf %1470, %cst_1331 : f32
      %1472 = arith.divf %cst_1331, %1471 : f32
      linalg.yield %1472 : f32
    } -> tensor<1x3840x15x15xf32>
    %1418 = linalg.generic {indexing_maps = [#map2, #map2, #map], iterator_types = ["parallel", "parallel", "parallel", "parallel"]} ins(%1417, %1416 : tensor<1x3840x15x15xf32>, tensor<1x3840x15x15xf32>) outs(%1322 : tensor<1x3840x15x15xf32>) {
    ^bb0(%in: f32, %in_1475: f32, %out: f32):
      %1469 = arith.mulf %in, %in_1475 : f32
      linalg.yield %1469 : f32
    } -> tensor<1x3840x15x15xf32>
    %1419 = linalg.pooling_nchw_sum {dilations = dense<1> : vector<2xi64>, strides = dense<1> : vector<2xi64>} ins(%1418, %776 : tensor<1x3840x15x15xf32>, tensor<15x15xf32>) outs(%1333 : tensor<1x3840x1x1xf32>) -> tensor<1x3840x1x1xf32>
    %1420 = linalg.generic {indexing_maps = [#map, #map], iterator_types = ["parallel", "parallel", "parallel", "parallel"]} ins(%1419 : tensor<1x3840x1x1xf32>) outs(%1332 : tensor<1x3840x1x1xf32>) {
    ^bb0(%in: f32, %out: f32):
      %1469 = arith.divf %in, %cst_1334 : f32
      linalg.yield %1469 : f32
    } -> tensor<1x3840x1x1xf32>
    %1421 = linalg.generic {indexing_maps = [#map1, #map], iterator_types = ["parallel", "parallel", "parallel", "parallel"]} ins(%cst_32 : tensor<160xf32>) outs(%1336 : tensor<1x160x1x1xf32>) {
    ^bb0(%in: f32, %out: f32):
      linalg.yield %in : f32
    } -> tensor<1x160x1x1xf32>
    %1422 = linalg.conv_2d_nchw_fchw {dilations = dense<1> : vector<2xi64>, strides = dense<1> : vector<2xi64>} ins(%1420, %cst_33 : tensor<1x3840x1x1xf32>, tensor<160x3840x1x1xf32>) outs(%1421 : tensor<1x160x1x1xf32>) -> tensor<1x160x1x1xf32>
    %1423 = linalg.generic {indexing_maps = [#map3, #map], iterator_types = ["parallel", "parallel", "parallel", "parallel"]} ins(%1422 : tensor<1x160x1x1xf32>) outs(%1336 : tensor<1x160x1x1xf32>) {
    ^bb0(%in: f32, %out: f32):
      %1469 = arith.negf %in : f32
      %1470 = math.exp %1469 : f32
      %1471 = arith.addf %1470, %cst_1331 : f32
      %1472 = arith.divf %cst_1331, %1471 : f32
      linalg.yield %1472 : f32
    } -> tensor<1x160x1x1xf32>
    %1424 = linalg.generic {indexing_maps = [#map3, #map3, #map], iterator_types = ["parallel", "parallel", "parallel", "parallel"]} ins(%1423, %1422 : tensor<1x160x1x1xf32>, tensor<1x160x1x1xf32>) outs(%1336 : tensor<1x160x1x1xf32>) {
    ^bb0(%in: f32, %in_1475: f32, %out: f32):
      %1469 = arith.mulf %in, %in_1475 : f32
      linalg.yield %1469 : f32
    } -> tensor<1x160x1x1xf32>
    %1425 = linalg.generic {indexing_maps = [#map1, #map], iterator_types = ["parallel", "parallel", "parallel", "parallel"]} ins(%cst_30 : tensor<3840xf32>) outs(%1332 : tensor<1x3840x1x1xf32>) {
    ^bb0(%in: f32, %out: f32):
      linalg.yield %in : f32
    } -> tensor<1x3840x1x1xf32>
    %1426 = linalg.conv_2d_nchw_fchw {dilations = dense<1> : vector<2xi64>, strides = dense<1> : vector<2xi64>} ins(%1424, %cst_31 : tensor<1x160x1x1xf32>, tensor<3840x160x1x1xf32>) outs(%1425 : tensor<1x3840x1x1xf32>) -> tensor<1x3840x1x1xf32>
    %1427 = linalg.generic {indexing_maps = [#map3, #map], iterator_types = ["parallel", "parallel", "parallel", "parallel"]} ins(%1426 : tensor<1x3840x1x1xf32>) outs(%1332 : tensor<1x3840x1x1xf32>) {
    ^bb0(%in: f32, %out: f32):
      %1469 = arith.negf %in : f32
      %1470 = math.exp %1469 : f32
      %1471 = arith.addf %1470, %cst_1331 : f32
      %1472 = arith.divf %cst_1331, %1471 : f32
      linalg.yield %1472 : f32
    } -> tensor<1x3840x1x1xf32>
    %1428 = linalg.generic {indexing_maps = [#map3, #map2, #map], iterator_types = ["parallel", "parallel", "parallel", "parallel"]} ins(%1427, %1418 : tensor<1x3840x1x1xf32>, tensor<1x3840x15x15xf32>) outs(%1322 : tensor<1x3840x15x15xf32>) {
    ^bb0(%in: f32, %in_1475: f32, %out: f32):
      %1469 = arith.mulf %in, %in_1475 : f32
      linalg.yield %1469 : f32
    } -> tensor<1x3840x15x15xf32>
    %1429 = linalg.conv_2d_nchw_fchw {dilations = dense<1> : vector<2xi64>, strides = dense<1> : vector<2xi64>} ins(%1428, %cst_29 : tensor<1x3840x15x15xf32>, tensor<640x3840x1x1xf32>) outs(%1319 : tensor<1x640x15x15xf32>) -> tensor<1x640x15x15xf32>
    cf.assert %3, "training is not supported for now"
    %1430 = linalg.generic {indexing_maps = [#map, #map1, #map1, #map1, #map1, #map], iterator_types = ["parallel", "parallel", "parallel", "parallel"]} ins(%1429, %cst_26, %cst_25, %cst_28, %cst_27 : tensor<1x640x15x15xf32>, tensor<640xf32>, tensor<640xf32>, tensor<640xf32>, tensor<640xf32>) outs(%1429 : tensor<1x640x15x15xf32>) {
    ^bb0(%in: f32, %in_1475: f32, %in_1476: f32, %in_1477: f32, %in_1478: f32, %out: f32):
      %1469 = arith.truncf %cst_1332 : f64 to f32
      %1470 = arith.addf %in_1478, %1469 : f32
      %1471 = math.rsqrt %1470 : f32
      %1472 = arith.subf %in, %in_1477 : f32
      %1473 = arith.mulf %1472, %1471 : f32
      %1474 = arith.mulf %1473, %in_1475 : f32
      %1475 = arith.addf %1474, %in_1476 : f32
      linalg.yield %1475 : f32
    } -> tensor<1x640x15x15xf32>
    %1431 = linalg.generic {indexing_maps = [#map2, #map2, #map], iterator_types = ["parallel", "parallel", "parallel", "parallel"]} ins(%1430, %1410 : tensor<1x640x15x15xf32>, tensor<1x640x15x15xf32>) outs(%1318 : tensor<1x640x15x15xf32>) {
    ^bb0(%in: f32, %in_1475: f32, %out: f32):
      %1469 = arith.addf %in, %in_1475 : f32
      linalg.yield %1469 : f32
    } -> tensor<1x640x15x15xf32>
    %1432 = linalg.conv_2d_nchw_fchw {dilations = dense<1> : vector<2xi64>, strides = dense<1> : vector<2xi64>} ins(%1431, %cst_24 : tensor<1x640x15x15xf32>, tensor<3840x640x1x1xf32>) outs(%1323 : tensor<1x3840x15x15xf32>) -> tensor<1x3840x15x15xf32>
    cf.assert %3, "training is not supported for now"
    %1433 = linalg.generic {indexing_maps = [#map, #map1, #map1, #map1, #map1, #map], iterator_types = ["parallel", "parallel", "parallel", "parallel"]} ins(%1432, %cst_21, %cst_20, %cst_23, %cst_22 : tensor<1x3840x15x15xf32>, tensor<3840xf32>, tensor<3840xf32>, tensor<3840xf32>, tensor<3840xf32>) outs(%1432 : tensor<1x3840x15x15xf32>) {
    ^bb0(%in: f32, %in_1475: f32, %in_1476: f32, %in_1477: f32, %in_1478: f32, %out: f32):
      %1469 = arith.truncf %cst_1332 : f64 to f32
      %1470 = arith.addf %in_1478, %1469 : f32
      %1471 = math.rsqrt %1470 : f32
      %1472 = arith.subf %in, %in_1477 : f32
      %1473 = arith.mulf %1472, %1471 : f32
      %1474 = arith.mulf %1473, %in_1475 : f32
      %1475 = arith.addf %1474, %in_1476 : f32
      linalg.yield %1475 : f32
    } -> tensor<1x3840x15x15xf32>
    %1434 = linalg.generic {indexing_maps = [#map2, #map], iterator_types = ["parallel", "parallel", "parallel", "parallel"]} ins(%1433 : tensor<1x3840x15x15xf32>) outs(%1322 : tensor<1x3840x15x15xf32>) {
    ^bb0(%in: f32, %out: f32):
      %1469 = arith.negf %in : f32
      %1470 = math.exp %1469 : f32
      %1471 = arith.addf %1470, %cst_1331 : f32
      %1472 = arith.divf %cst_1331, %1471 : f32
      linalg.yield %1472 : f32
    } -> tensor<1x3840x15x15xf32>
    %1435 = linalg.generic {indexing_maps = [#map2, #map2, #map], iterator_types = ["parallel", "parallel", "parallel", "parallel"]} ins(%1434, %1433 : tensor<1x3840x15x15xf32>, tensor<1x3840x15x15xf32>) outs(%1322 : tensor<1x3840x15x15xf32>) {
    ^bb0(%in: f32, %in_1475: f32, %out: f32):
      %1469 = arith.mulf %in, %in_1475 : f32
      linalg.yield %1469 : f32
    } -> tensor<1x3840x15x15xf32>
    %padded_1472 = tensor.pad %1435 low[0, 0, 1, 1] high[0, 0, 1, 1] {
    ^bb0(%arg1: index, %arg2: index, %arg3: index, %arg4: index):
      tensor.yield %cst_1330 : f32
    } : tensor<1x3840x15x15xf32> to tensor<1x3840x17x17xf32>
    %collapsed_1473 = tensor.collapse_shape %cst_19 [[0, 1], [2], [3]] : tensor<3840x1x3x3xf32> into tensor<3840x3x3xf32>
    %1436 = linalg.depthwise_conv_2d_nchw_chw {dilations = dense<1> : vector<2xi64>, strides = dense<1> : vector<2xi64>} ins(%padded_1472, %collapsed_1473 : tensor<1x3840x17x17xf32>, tensor<3840x3x3xf32>) outs(%1323 : tensor<1x3840x15x15xf32>) -> tensor<1x3840x15x15xf32>
    cf.assert %3, "training is not supported for now"
    %1437 = linalg.generic {indexing_maps = [#map, #map1, #map1, #map1, #map1, #map], iterator_types = ["parallel", "parallel", "parallel", "parallel"]} ins(%1436, %cst_16, %cst_15, %cst_18, %cst_17 : tensor<1x3840x15x15xf32>, tensor<3840xf32>, tensor<3840xf32>, tensor<3840xf32>, tensor<3840xf32>) outs(%1436 : tensor<1x3840x15x15xf32>) {
    ^bb0(%in: f32, %in_1475: f32, %in_1476: f32, %in_1477: f32, %in_1478: f32, %out: f32):
      %1469 = arith.truncf %cst_1332 : f64 to f32
      %1470 = arith.addf %in_1478, %1469 : f32
      %1471 = math.rsqrt %1470 : f32
      %1472 = arith.subf %in, %in_1477 : f32
      %1473 = arith.mulf %1472, %1471 : f32
      %1474 = arith.mulf %1473, %in_1475 : f32
      %1475 = arith.addf %1474, %in_1476 : f32
      linalg.yield %1475 : f32
    } -> tensor<1x3840x15x15xf32>
    %1438 = linalg.generic {indexing_maps = [#map2, #map], iterator_types = ["parallel", "parallel", "parallel", "parallel"]} ins(%1437 : tensor<1x3840x15x15xf32>) outs(%1322 : tensor<1x3840x15x15xf32>) {
    ^bb0(%in: f32, %out: f32):
      %1469 = arith.negf %in : f32
      %1470 = math.exp %1469 : f32
      %1471 = arith.addf %1470, %cst_1331 : f32
      %1472 = arith.divf %cst_1331, %1471 : f32
      linalg.yield %1472 : f32
    } -> tensor<1x3840x15x15xf32>
    %1439 = linalg.generic {indexing_maps = [#map2, #map2, #map], iterator_types = ["parallel", "parallel", "parallel", "parallel"]} ins(%1438, %1437 : tensor<1x3840x15x15xf32>, tensor<1x3840x15x15xf32>) outs(%1322 : tensor<1x3840x15x15xf32>) {
    ^bb0(%in: f32, %in_1475: f32, %out: f32):
      %1469 = arith.mulf %in, %in_1475 : f32
      linalg.yield %1469 : f32
    } -> tensor<1x3840x15x15xf32>
    %1440 = linalg.pooling_nchw_sum {dilations = dense<1> : vector<2xi64>, strides = dense<1> : vector<2xi64>} ins(%1439, %776 : tensor<1x3840x15x15xf32>, tensor<15x15xf32>) outs(%1333 : tensor<1x3840x1x1xf32>) -> tensor<1x3840x1x1xf32>
    %1441 = linalg.generic {indexing_maps = [#map, #map], iterator_types = ["parallel", "parallel", "parallel", "parallel"]} ins(%1440 : tensor<1x3840x1x1xf32>) outs(%1332 : tensor<1x3840x1x1xf32>) {
    ^bb0(%in: f32, %out: f32):
      %1469 = arith.divf %in, %cst_1334 : f32
      linalg.yield %1469 : f32
    } -> tensor<1x3840x1x1xf32>
    %1442 = linalg.generic {indexing_maps = [#map1, #map], iterator_types = ["parallel", "parallel", "parallel", "parallel"]} ins(%cst_13 : tensor<160xf32>) outs(%1336 : tensor<1x160x1x1xf32>) {
    ^bb0(%in: f32, %out: f32):
      linalg.yield %in : f32
    } -> tensor<1x160x1x1xf32>
    %1443 = linalg.conv_2d_nchw_fchw {dilations = dense<1> : vector<2xi64>, strides = dense<1> : vector<2xi64>} ins(%1441, %cst_14 : tensor<1x3840x1x1xf32>, tensor<160x3840x1x1xf32>) outs(%1442 : tensor<1x160x1x1xf32>) -> tensor<1x160x1x1xf32>
    %1444 = linalg.generic {indexing_maps = [#map3, #map], iterator_types = ["parallel", "parallel", "parallel", "parallel"]} ins(%1443 : tensor<1x160x1x1xf32>) outs(%1336 : tensor<1x160x1x1xf32>) {
    ^bb0(%in: f32, %out: f32):
      %1469 = arith.negf %in : f32
      %1470 = math.exp %1469 : f32
      %1471 = arith.addf %1470, %cst_1331 : f32
      %1472 = arith.divf %cst_1331, %1471 : f32
      linalg.yield %1472 : f32
    } -> tensor<1x160x1x1xf32>
    %1445 = linalg.generic {indexing_maps = [#map3, #map3, #map], iterator_types = ["parallel", "parallel", "parallel", "parallel"]} ins(%1444, %1443 : tensor<1x160x1x1xf32>, tensor<1x160x1x1xf32>) outs(%1336 : tensor<1x160x1x1xf32>) {
    ^bb0(%in: f32, %in_1475: f32, %out: f32):
      %1469 = arith.mulf %in, %in_1475 : f32
      linalg.yield %1469 : f32
    } -> tensor<1x160x1x1xf32>
    %1446 = linalg.generic {indexing_maps = [#map1, #map], iterator_types = ["parallel", "parallel", "parallel", "parallel"]} ins(%cst_11 : tensor<3840xf32>) outs(%1332 : tensor<1x3840x1x1xf32>) {
    ^bb0(%in: f32, %out: f32):
      linalg.yield %in : f32
    } -> tensor<1x3840x1x1xf32>
    %1447 = linalg.conv_2d_nchw_fchw {dilations = dense<1> : vector<2xi64>, strides = dense<1> : vector<2xi64>} ins(%1445, %cst_12 : tensor<1x160x1x1xf32>, tensor<3840x160x1x1xf32>) outs(%1446 : tensor<1x3840x1x1xf32>) -> tensor<1x3840x1x1xf32>
    %1448 = linalg.generic {indexing_maps = [#map3, #map], iterator_types = ["parallel", "parallel", "parallel", "parallel"]} ins(%1447 : tensor<1x3840x1x1xf32>) outs(%1332 : tensor<1x3840x1x1xf32>) {
    ^bb0(%in: f32, %out: f32):
      %1469 = arith.negf %in : f32
      %1470 = math.exp %1469 : f32
      %1471 = arith.addf %1470, %cst_1331 : f32
      %1472 = arith.divf %cst_1331, %1471 : f32
      linalg.yield %1472 : f32
    } -> tensor<1x3840x1x1xf32>
    %1449 = linalg.generic {indexing_maps = [#map3, #map2, #map], iterator_types = ["parallel", "parallel", "parallel", "parallel"]} ins(%1448, %1439 : tensor<1x3840x1x1xf32>, tensor<1x3840x15x15xf32>) outs(%1322 : tensor<1x3840x15x15xf32>) {
    ^bb0(%in: f32, %in_1475: f32, %out: f32):
      %1469 = arith.mulf %in, %in_1475 : f32
      linalg.yield %1469 : f32
    } -> tensor<1x3840x15x15xf32>
    %1450 = linalg.conv_2d_nchw_fchw {dilations = dense<1> : vector<2xi64>, strides = dense<1> : vector<2xi64>} ins(%1449, %cst_10 : tensor<1x3840x15x15xf32>, tensor<640x3840x1x1xf32>) outs(%1319 : tensor<1x640x15x15xf32>) -> tensor<1x640x15x15xf32>
    cf.assert %3, "training is not supported for now"
    %1451 = linalg.generic {indexing_maps = [#map, #map1, #map1, #map1, #map1, #map], iterator_types = ["parallel", "parallel", "parallel", "parallel"]} ins(%1450, %cst_7, %cst_6, %cst_9, %cst_8 : tensor<1x640x15x15xf32>, tensor<640xf32>, tensor<640xf32>, tensor<640xf32>, tensor<640xf32>) outs(%1450 : tensor<1x640x15x15xf32>) {
    ^bb0(%in: f32, %in_1475: f32, %in_1476: f32, %in_1477: f32, %in_1478: f32, %out: f32):
      %1469 = arith.truncf %cst_1332 : f64 to f32
      %1470 = arith.addf %in_1478, %1469 : f32
      %1471 = math.rsqrt %1470 : f32
      %1472 = arith.subf %in, %in_1477 : f32
      %1473 = arith.mulf %1472, %1471 : f32
      %1474 = arith.mulf %1473, %in_1475 : f32
      %1475 = arith.addf %1474, %in_1476 : f32
      linalg.yield %1475 : f32
    } -> tensor<1x640x15x15xf32>
    %1452 = linalg.generic {indexing_maps = [#map2, #map2, #map], iterator_types = ["parallel", "parallel", "parallel", "parallel"]} ins(%1451, %1431 : tensor<1x640x15x15xf32>, tensor<1x640x15x15xf32>) outs(%1318 : tensor<1x640x15x15xf32>) {
    ^bb0(%in: f32, %in_1475: f32, %out: f32):
      %1469 = arith.addf %in, %in_1475 : f32
      linalg.yield %1469 : f32
    } -> tensor<1x640x15x15xf32>
    %1453 = tensor.empty() : tensor<1x1280x15x15xf32>
    %1454 = linalg.fill ins(%cst_1330 : f32) outs(%1453 : tensor<1x1280x15x15xf32>) -> tensor<1x1280x15x15xf32>
    %1455 = linalg.conv_2d_nchw_fchw {dilations = dense<1> : vector<2xi64>, strides = dense<1> : vector<2xi64>} ins(%1452, %cst_5 : tensor<1x640x15x15xf32>, tensor<1280x640x1x1xf32>) outs(%1454 : tensor<1x1280x15x15xf32>) -> tensor<1x1280x15x15xf32>
    cf.assert %3, "training is not supported for now"
    %1456 = linalg.generic {indexing_maps = [#map, #map1, #map1, #map1, #map1, #map], iterator_types = ["parallel", "parallel", "parallel", "parallel"]} ins(%1455, %cst_2, %cst_1, %cst_4, %cst_3 : tensor<1x1280x15x15xf32>, tensor<1280xf32>, tensor<1280xf32>, tensor<1280xf32>, tensor<1280xf32>) outs(%1455 : tensor<1x1280x15x15xf32>) {
    ^bb0(%in: f32, %in_1475: f32, %in_1476: f32, %in_1477: f32, %in_1478: f32, %out: f32):
      %1469 = arith.truncf %cst_1332 : f64 to f32
      %1470 = arith.addf %in_1478, %1469 : f32
      %1471 = math.rsqrt %1470 : f32
      %1472 = arith.subf %in, %in_1477 : f32
      %1473 = arith.mulf %1472, %1471 : f32
      %1474 = arith.mulf %1473, %in_1475 : f32
      %1475 = arith.addf %1474, %in_1476 : f32
      linalg.yield %1475 : f32
    } -> tensor<1x1280x15x15xf32>
    %1457 = linalg.generic {indexing_maps = [#map2, #map], iterator_types = ["parallel", "parallel", "parallel", "parallel"]} ins(%1456 : tensor<1x1280x15x15xf32>) outs(%1453 : tensor<1x1280x15x15xf32>) {
    ^bb0(%in: f32, %out: f32):
      %1469 = arith.negf %in : f32
      %1470 = math.exp %1469 : f32
      %1471 = arith.addf %1470, %cst_1331 : f32
      %1472 = arith.divf %cst_1331, %1471 : f32
      linalg.yield %1472 : f32
    } -> tensor<1x1280x15x15xf32>
    %1458 = linalg.generic {indexing_maps = [#map2, #map2, #map], iterator_types = ["parallel", "parallel", "parallel", "parallel"]} ins(%1457, %1456 : tensor<1x1280x15x15xf32>, tensor<1x1280x15x15xf32>) outs(%1453 : tensor<1x1280x15x15xf32>) {
    ^bb0(%in: f32, %in_1475: f32, %out: f32):
      %1469 = arith.mulf %in, %in_1475 : f32
      linalg.yield %1469 : f32
    } -> tensor<1x1280x15x15xf32>
    %1459 = tensor.empty() : tensor<1x1280x1x1xf32>
    %1460 = linalg.fill ins(%cst_1330 : f32) outs(%1459 : tensor<1x1280x1x1xf32>) -> tensor<1x1280x1x1xf32>
    %1461 = linalg.pooling_nchw_sum {dilations = dense<1> : vector<2xi64>, strides = dense<1> : vector<2xi64>} ins(%1458, %776 : tensor<1x1280x15x15xf32>, tensor<15x15xf32>) outs(%1460 : tensor<1x1280x1x1xf32>) -> tensor<1x1280x1x1xf32>
    %1462 = linalg.generic {indexing_maps = [#map, #map], iterator_types = ["parallel", "parallel", "parallel", "parallel"]} ins(%1461 : tensor<1x1280x1x1xf32>) outs(%1459 : tensor<1x1280x1x1xf32>) {
    ^bb0(%in: f32, %out: f32):
      %1469 = arith.divf %in, %cst_1334 : f32
      linalg.yield %1469 : f32
    } -> tensor<1x1280x1x1xf32>
    %collapsed_1474 = tensor.collapse_shape %1462 [[0], [1, 2, 3]] : tensor<1x1280x1x1xf32> into tensor<1x1280xf32>
    %1463 = tensor.empty() : tensor<1280x1000xf32>
    %1464 = linalg.generic {indexing_maps = [#map4, #map5], iterator_types = ["parallel", "parallel"]} ins(%cst_0 : tensor<1000x1280xf32>) outs(%1463 : tensor<1280x1000xf32>) {
    ^bb0(%in: f32, %out: f32):
      linalg.yield %in : f32
    } -> tensor<1280x1000xf32>
    %1465 = tensor.empty() : tensor<1x1000xf32>
    %1466 = linalg.fill ins(%cst_1330 : f32) outs(%1465 : tensor<1x1000xf32>) -> tensor<1x1000xf32>
    %1467 = linalg.matmul ins(%collapsed_1474, %1464 : tensor<1x1280xf32>, tensor<1280x1000xf32>) outs(%1466 : tensor<1x1000xf32>) -> tensor<1x1000xf32>
    %1468 = linalg.generic {indexing_maps = [#map6, #map7, #map4], iterator_types = ["parallel", "parallel"]} ins(%1467, %cst : tensor<1x1000xf32>, tensor<1000xf32>) outs(%1465 : tensor<1x1000xf32>) {
    ^bb0(%in: f32, %in_1475: f32, %out: f32):
      %1469 = arith.addf %in, %in_1475 : f32
      linalg.yield %1469 : f32
    } -> tensor<1x1000xf32>
    return %1468 : tensor<1x1000xf32>
  }
}
