#map = affine_map<(d0, d1, d2, d3) -> (d0, d1, d2, d3)>
#map1 = affine_map<(d0, d1, d2, d3) -> (d1)>
#map2 = affine_map<(d0, d1, d2, d3) -> (0, d1, d2, d3)>
#map3 = affine_map<(d0, d1, d2, d3) -> (0, d1, 0, 0)>
#map4 = affine_map<(d0, d1) -> (d0, d1)>
#map5 = affine_map<(d0, d1) -> (d1, d0)>
#map6 = affine_map<(d0, d1) -> (0, d1)>
#map7 = affine_map<(d0, d1) -> (d1)>
module attributes {torch.debug_module_name = "EfficientNet"} {
  ml_program.global private mutable @global_seed(dense<0> : tensor<i64>) : tensor<i64>
  func.func @forward(%arg0: tensor<1x3x600x600xf32>) -> tensor<1x1000xf32> {
    %cst = arith.constant dense_resource<__elided__> : tensor<1000xf32>
    %cst_0 = arith.constant dense_resource<__elided__> : tensor<1000x2560xf32>
    %cst_1 = arith.constant dense_resource<__elided__> : tensor<2560xf32>
    %cst_2 = arith.constant dense_resource<__elided__> : tensor<2560xf32>
    %cst_3 = arith.constant dense_resource<__elided__> : tensor<2560xf32>
    %cst_4 = arith.constant dense_resource<__elided__> : tensor<2560xf32>
    %cst_5 = arith.constant dense_resource<__elided__> : tensor<2560x640x1x1xf32>
    %cst_6 = arith.constant dense_resource<__elided__> : tensor<640xf32>
    %cst_7 = arith.constant dense_resource<__elided__> : tensor<640xf32>
    %cst_8 = arith.constant dense_resource<__elided__> : tensor<640xf32>
    %cst_9 = arith.constant dense_resource<__elided__> : tensor<640xf32>
    %cst_10 = arith.constant dense_resource<__elided__> : tensor<640x3840x1x1xf32>
    %cst_11 = arith.constant dense_resource<__elided__> : tensor<3840xf32>
    %cst_12 = arith.constant dense_resource<__elided__> : tensor<3840x160x1x1xf32>
    %cst_13 = arith.constant dense_resource<__elided__> : tensor<160xf32>
    %cst_14 = arith.constant dense_resource<__elided__> : tensor<160x3840x1x1xf32>
    %cst_15 = arith.constant dense_resource<__elided__> : tensor<3840xf32>
    %cst_16 = arith.constant dense_resource<__elided__> : tensor<3840xf32>
    %cst_17 = arith.constant dense_resource<__elided__> : tensor<3840xf32>
    %cst_18 = arith.constant dense_resource<__elided__> : tensor<3840xf32>
    %cst_19 = arith.constant dense_resource<__elided__> : tensor<3840x1x3x3xf32>
    %cst_20 = arith.constant dense_resource<__elided__> : tensor<3840xf32>
    %cst_21 = arith.constant dense_resource<__elided__> : tensor<3840xf32>
    %cst_22 = arith.constant dense_resource<__elided__> : tensor<3840xf32>
    %cst_23 = arith.constant dense_resource<__elided__> : tensor<3840xf32>
    %cst_24 = arith.constant dense_resource<__elided__> : tensor<3840x640x1x1xf32>
    %cst_25 = arith.constant dense_resource<__elided__> : tensor<640xf32>
    %cst_26 = arith.constant dense_resource<__elided__> : tensor<640xf32>
    %cst_27 = arith.constant dense_resource<__elided__> : tensor<640xf32>
    %cst_28 = arith.constant dense_resource<__elided__> : tensor<640xf32>
    %cst_29 = arith.constant dense_resource<__elided__> : tensor<640x3840x1x1xf32>
    %cst_30 = arith.constant dense_resource<__elided__> : tensor<3840xf32>
    %cst_31 = arith.constant dense_resource<__elided__> : tensor<3840x160x1x1xf32>
    %cst_32 = arith.constant dense_resource<__elided__> : tensor<160xf32>
    %cst_33 = arith.constant dense_resource<__elided__> : tensor<160x3840x1x1xf32>
    %cst_34 = arith.constant dense_resource<__elided__> : tensor<3840xf32>
    %cst_35 = arith.constant dense_resource<__elided__> : tensor<3840xf32>
    %cst_36 = arith.constant dense_resource<__elided__> : tensor<3840xf32>
    %cst_37 = arith.constant dense_resource<__elided__> : tensor<3840xf32>
    %cst_38 = arith.constant dense_resource<__elided__> : tensor<3840x1x3x3xf32>
    %cst_39 = arith.constant dense_resource<__elided__> : tensor<3840xf32>
    %cst_40 = arith.constant dense_resource<__elided__> : tensor<3840xf32>
    %cst_41 = arith.constant dense_resource<__elided__> : tensor<3840xf32>
    %cst_42 = arith.constant dense_resource<__elided__> : tensor<3840xf32>
    %cst_43 = arith.constant dense_resource<__elided__> : tensor<3840x640x1x1xf32>
    %cst_44 = arith.constant dense_resource<__elided__> : tensor<640xf32>
    %cst_45 = arith.constant dense_resource<__elided__> : tensor<640xf32>
    %cst_46 = arith.constant dense_resource<__elided__> : tensor<640xf32>
    %cst_47 = arith.constant dense_resource<__elided__> : tensor<640xf32>
    %cst_48 = arith.constant dense_resource<__elided__> : tensor<640x3840x1x1xf32>
    %cst_49 = arith.constant dense_resource<__elided__> : tensor<3840xf32>
    %cst_50 = arith.constant dense_resource<__elided__> : tensor<3840x160x1x1xf32>
    %cst_51 = arith.constant dense_resource<__elided__> : tensor<160xf32>
    %cst_52 = arith.constant dense_resource<__elided__> : tensor<160x3840x1x1xf32>
    %cst_53 = arith.constant dense_resource<__elided__> : tensor<3840xf32>
    %cst_54 = arith.constant dense_resource<__elided__> : tensor<3840xf32>
    %cst_55 = arith.constant dense_resource<__elided__> : tensor<3840xf32>
    %cst_56 = arith.constant dense_resource<__elided__> : tensor<3840xf32>
    %cst_57 = arith.constant dense_resource<__elided__> : tensor<3840x1x3x3xf32>
    %cst_58 = arith.constant dense_resource<__elided__> : tensor<3840xf32>
    %cst_59 = arith.constant dense_resource<__elided__> : tensor<3840xf32>
    %cst_60 = arith.constant dense_resource<__elided__> : tensor<3840xf32>
    %cst_61 = arith.constant dense_resource<__elided__> : tensor<3840xf32>
    %cst_62 = arith.constant dense_resource<__elided__> : tensor<3840x640x1x1xf32>
    %cst_63 = arith.constant dense_resource<__elided__> : tensor<640xf32>
    %cst_64 = arith.constant dense_resource<__elided__> : tensor<640xf32>
    %cst_65 = arith.constant dense_resource<__elided__> : tensor<640xf32>
    %cst_66 = arith.constant dense_resource<__elided__> : tensor<640xf32>
    %cst_67 = arith.constant dense_resource<__elided__> : tensor<640x2304x1x1xf32>
    %cst_68 = arith.constant dense_resource<__elided__> : tensor<2304xf32>
    %cst_69 = arith.constant dense_resource<__elided__> : tensor<2304x96x1x1xf32>
    %cst_70 = arith.constant dense_resource<__elided__> : tensor<96xf32>
    %cst_71 = arith.constant dense_resource<__elided__> : tensor<96x2304x1x1xf32>
    %cst_72 = arith.constant dense_resource<__elided__> : tensor<2304xf32>
    %cst_73 = arith.constant dense_resource<__elided__> : tensor<2304xf32>
    %cst_74 = arith.constant dense_resource<__elided__> : tensor<2304xf32>
    %cst_75 = arith.constant dense_resource<__elided__> : tensor<2304xf32>
    %cst_76 = arith.constant dense_resource<__elided__> : tensor<2304x1x3x3xf32>
    %cst_77 = arith.constant dense_resource<__elided__> : tensor<2304xf32>
    %cst_78 = arith.constant dense_resource<__elided__> : tensor<2304xf32>
    %cst_79 = arith.constant dense_resource<__elided__> : tensor<2304xf32>
    %cst_80 = arith.constant dense_resource<__elided__> : tensor<2304xf32>
    %cst_81 = arith.constant dense_resource<__elided__> : tensor<2304x384x1x1xf32>
    %cst_82 = arith.constant dense_resource<__elided__> : tensor<384xf32>
    %cst_83 = arith.constant dense_resource<__elided__> : tensor<384xf32>
    %cst_84 = arith.constant dense_resource<__elided__> : tensor<384xf32>
    %cst_85 = arith.constant dense_resource<__elided__> : tensor<384xf32>
    %cst_86 = arith.constant dense_resource<__elided__> : tensor<384x2304x1x1xf32>
    %cst_87 = arith.constant dense_resource<__elided__> : tensor<2304xf32>
    %cst_88 = arith.constant dense_resource<__elided__> : tensor<2304x96x1x1xf32>
    %cst_89 = arith.constant dense_resource<__elided__> : tensor<96xf32>
    %cst_90 = arith.constant dense_resource<__elided__> : tensor<96x2304x1x1xf32>
    %cst_91 = arith.constant dense_resource<__elided__> : tensor<2304xf32>
    %cst_92 = arith.constant dense_resource<__elided__> : tensor<2304xf32>
    %cst_93 = arith.constant dense_resource<__elided__> : tensor<2304xf32>
    %cst_94 = arith.constant dense_resource<__elided__> : tensor<2304xf32>
    %cst_95 = arith.constant dense_resource<__elided__> : tensor<2304x1x5x5xf32>
    %cst_96 = arith.constant dense_resource<__elided__> : tensor<2304xf32>
    %cst_97 = arith.constant dense_resource<__elided__> : tensor<2304xf32>
    %cst_98 = arith.constant dense_resource<__elided__> : tensor<2304xf32>
    %cst_99 = arith.constant dense_resource<__elided__> : tensor<2304xf32>
    %cst_100 = arith.constant dense_resource<__elided__> : tensor<2304x384x1x1xf32>
    %cst_101 = arith.constant dense_resource<__elided__> : tensor<384xf32>
    %cst_102 = arith.constant dense_resource<__elided__> : tensor<384xf32>
    %cst_103 = arith.constant dense_resource<__elided__> : tensor<384xf32>
    %cst_104 = arith.constant dense_resource<__elided__> : tensor<384xf32>
    %cst_105 = arith.constant dense_resource<__elided__> : tensor<384x2304x1x1xf32>
    %cst_106 = arith.constant dense_resource<__elided__> : tensor<2304xf32>
    %cst_107 = arith.constant dense_resource<__elided__> : tensor<2304x96x1x1xf32>
    %cst_108 = arith.constant dense_resource<__elided__> : tensor<96xf32>
    %cst_109 = arith.constant dense_resource<__elided__> : tensor<96x2304x1x1xf32>
    %cst_110 = arith.constant dense_resource<__elided__> : tensor<2304xf32>
    %cst_111 = arith.constant dense_resource<__elided__> : tensor<2304xf32>
    %cst_112 = arith.constant dense_resource<__elided__> : tensor<2304xf32>
    %cst_113 = arith.constant dense_resource<__elided__> : tensor<2304xf32>
    %cst_114 = arith.constant dense_resource<__elided__> : tensor<2304x1x5x5xf32>
    %cst_115 = arith.constant dense_resource<__elided__> : tensor<2304xf32>
    %cst_116 = arith.constant dense_resource<__elided__> : tensor<2304xf32>
    %cst_117 = arith.constant dense_resource<__elided__> : tensor<2304xf32>
    %cst_118 = arith.constant dense_resource<__elided__> : tensor<2304xf32>
    %cst_119 = arith.constant dense_resource<__elided__> : tensor<2304x384x1x1xf32>
    %cst_120 = arith.constant dense_resource<__elided__> : tensor<384xf32>
    %cst_121 = arith.constant dense_resource<__elided__> : tensor<384xf32>
    %cst_122 = arith.constant dense_resource<__elided__> : tensor<384xf32>
    %cst_123 = arith.constant dense_resource<__elided__> : tensor<384xf32>
    %cst_124 = arith.constant dense_resource<__elided__> : tensor<384x2304x1x1xf32>
    %cst_125 = arith.constant dense_resource<__elided__> : tensor<2304xf32>
    %cst_126 = arith.constant dense_resource<__elided__> : tensor<2304x96x1x1xf32>
    %cst_127 = arith.constant dense_resource<__elided__> : tensor<96xf32>
    %cst_128 = arith.constant dense_resource<__elided__> : tensor<96x2304x1x1xf32>
    %cst_129 = arith.constant dense_resource<__elided__> : tensor<2304xf32>
    %cst_130 = arith.constant dense_resource<__elided__> : tensor<2304xf32>
    %cst_131 = arith.constant dense_resource<__elided__> : tensor<2304xf32>
    %cst_132 = arith.constant dense_resource<__elided__> : tensor<2304xf32>
    %cst_133 = arith.constant dense_resource<__elided__> : tensor<2304x1x5x5xf32>
    %cst_134 = arith.constant dense_resource<__elided__> : tensor<2304xf32>
    %cst_135 = arith.constant dense_resource<__elided__> : tensor<2304xf32>
    %cst_136 = arith.constant dense_resource<__elided__> : tensor<2304xf32>
    %cst_137 = arith.constant dense_resource<__elided__> : tensor<2304xf32>
    %cst_138 = arith.constant dense_resource<__elided__> : tensor<2304x384x1x1xf32>
    %cst_139 = arith.constant dense_resource<__elided__> : tensor<384xf32>
    %cst_140 = arith.constant dense_resource<__elided__> : tensor<384xf32>
    %cst_141 = arith.constant dense_resource<__elided__> : tensor<384xf32>
    %cst_142 = arith.constant dense_resource<__elided__> : tensor<384xf32>
    %cst_143 = arith.constant dense_resource<__elided__> : tensor<384x2304x1x1xf32>
    %cst_144 = arith.constant dense_resource<__elided__> : tensor<2304xf32>
    %cst_145 = arith.constant dense_resource<__elided__> : tensor<2304x96x1x1xf32>
    %cst_146 = arith.constant dense_resource<__elided__> : tensor<96xf32>
    %cst_147 = arith.constant dense_resource<__elided__> : tensor<96x2304x1x1xf32>
    %cst_148 = arith.constant dense_resource<__elided__> : tensor<2304xf32>
    %cst_149 = arith.constant dense_resource<__elided__> : tensor<2304xf32>
    %cst_150 = arith.constant dense_resource<__elided__> : tensor<2304xf32>
    %cst_151 = arith.constant dense_resource<__elided__> : tensor<2304xf32>
    %cst_152 = arith.constant dense_resource<__elided__> : tensor<2304x1x5x5xf32>
    %cst_153 = arith.constant dense_resource<__elided__> : tensor<2304xf32>
    %cst_154 = arith.constant dense_resource<__elided__> : tensor<2304xf32>
    %cst_155 = arith.constant dense_resource<__elided__> : tensor<2304xf32>
    %cst_156 = arith.constant dense_resource<__elided__> : tensor<2304xf32>
    %cst_157 = arith.constant dense_resource<__elided__> : tensor<2304x384x1x1xf32>
    %cst_158 = arith.constant dense_resource<__elided__> : tensor<384xf32>
    %cst_159 = arith.constant dense_resource<__elided__> : tensor<384xf32>
    %cst_160 = arith.constant dense_resource<__elided__> : tensor<384xf32>
    %cst_161 = arith.constant dense_resource<__elided__> : tensor<384xf32>
    %cst_162 = arith.constant dense_resource<__elided__> : tensor<384x2304x1x1xf32>
    %cst_163 = arith.constant dense_resource<__elided__> : tensor<2304xf32>
    %cst_164 = arith.constant dense_resource<__elided__> : tensor<2304x96x1x1xf32>
    %cst_165 = arith.constant dense_resource<__elided__> : tensor<96xf32>
    %cst_166 = arith.constant dense_resource<__elided__> : tensor<96x2304x1x1xf32>
    %cst_167 = arith.constant dense_resource<__elided__> : tensor<2304xf32>
    %cst_168 = arith.constant dense_resource<__elided__> : tensor<2304xf32>
    %cst_169 = arith.constant dense_resource<__elided__> : tensor<2304xf32>
    %cst_170 = arith.constant dense_resource<__elided__> : tensor<2304xf32>
    %cst_171 = arith.constant dense_resource<__elided__> : tensor<2304x1x5x5xf32>
    %cst_172 = arith.constant dense_resource<__elided__> : tensor<2304xf32>
    %cst_173 = arith.constant dense_resource<__elided__> : tensor<2304xf32>
    %cst_174 = arith.constant dense_resource<__elided__> : tensor<2304xf32>
    %cst_175 = arith.constant dense_resource<__elided__> : tensor<2304xf32>
    %cst_176 = arith.constant dense_resource<__elided__> : tensor<2304x384x1x1xf32>
    %cst_177 = arith.constant dense_resource<__elided__> : tensor<384xf32>
    %cst_178 = arith.constant dense_resource<__elided__> : tensor<384xf32>
    %cst_179 = arith.constant dense_resource<__elided__> : tensor<384xf32>
    %cst_180 = arith.constant dense_resource<__elided__> : tensor<384xf32>
    %cst_181 = arith.constant dense_resource<__elided__> : tensor<384x2304x1x1xf32>
    %cst_182 = arith.constant dense_resource<__elided__> : tensor<2304xf32>
    %cst_183 = arith.constant dense_resource<__elided__> : tensor<2304x96x1x1xf32>
    %cst_184 = arith.constant dense_resource<__elided__> : tensor<96xf32>
    %cst_185 = arith.constant dense_resource<__elided__> : tensor<96x2304x1x1xf32>
    %cst_186 = arith.constant dense_resource<__elided__> : tensor<2304xf32>
    %cst_187 = arith.constant dense_resource<__elided__> : tensor<2304xf32>
    %cst_188 = arith.constant dense_resource<__elided__> : tensor<2304xf32>
    %cst_189 = arith.constant dense_resource<__elided__> : tensor<2304xf32>
    %cst_190 = arith.constant dense_resource<__elided__> : tensor<2304x1x5x5xf32>
    %cst_191 = arith.constant dense_resource<__elided__> : tensor<2304xf32>
    %cst_192 = arith.constant dense_resource<__elided__> : tensor<2304xf32>
    %cst_193 = arith.constant dense_resource<__elided__> : tensor<2304xf32>
    %cst_194 = arith.constant dense_resource<__elided__> : tensor<2304xf32>
    %cst_195 = arith.constant dense_resource<__elided__> : tensor<2304x384x1x1xf32>
    %cst_196 = arith.constant dense_resource<__elided__> : tensor<384xf32>
    %cst_197 = arith.constant dense_resource<__elided__> : tensor<384xf32>
    %cst_198 = arith.constant dense_resource<__elided__> : tensor<384xf32>
    %cst_199 = arith.constant dense_resource<__elided__> : tensor<384xf32>
    %cst_200 = arith.constant dense_resource<__elided__> : tensor<384x2304x1x1xf32>
    %cst_201 = arith.constant dense_resource<__elided__> : tensor<2304xf32>
    %cst_202 = arith.constant dense_resource<__elided__> : tensor<2304x96x1x1xf32>
    %cst_203 = arith.constant dense_resource<__elided__> : tensor<96xf32>
    %cst_204 = arith.constant dense_resource<__elided__> : tensor<96x2304x1x1xf32>
    %cst_205 = arith.constant dense_resource<__elided__> : tensor<2304xf32>
    %cst_206 = arith.constant dense_resource<__elided__> : tensor<2304xf32>
    %cst_207 = arith.constant dense_resource<__elided__> : tensor<2304xf32>
    %cst_208 = arith.constant dense_resource<__elided__> : tensor<2304xf32>
    %cst_209 = arith.constant dense_resource<__elided__> : tensor<2304x1x5x5xf32>
    %cst_210 = arith.constant dense_resource<__elided__> : tensor<2304xf32>
    %cst_211 = arith.constant dense_resource<__elided__> : tensor<2304xf32>
    %cst_212 = arith.constant dense_resource<__elided__> : tensor<2304xf32>
    %cst_213 = arith.constant dense_resource<__elided__> : tensor<2304xf32>
    %cst_214 = arith.constant dense_resource<__elided__> : tensor<2304x384x1x1xf32>
    %cst_215 = arith.constant dense_resource<__elided__> : tensor<384xf32>
    %cst_216 = arith.constant dense_resource<__elided__> : tensor<384xf32>
    %cst_217 = arith.constant dense_resource<__elided__> : tensor<384xf32>
    %cst_218 = arith.constant dense_resource<__elided__> : tensor<384xf32>
    %cst_219 = arith.constant dense_resource<__elided__> : tensor<384x2304x1x1xf32>
    %cst_220 = arith.constant dense_resource<__elided__> : tensor<2304xf32>
    %cst_221 = arith.constant dense_resource<__elided__> : tensor<2304x96x1x1xf32>
    %cst_222 = arith.constant dense_resource<__elided__> : tensor<96xf32>
    %cst_223 = arith.constant dense_resource<__elided__> : tensor<96x2304x1x1xf32>
    %cst_224 = arith.constant dense_resource<__elided__> : tensor<2304xf32>
    %cst_225 = arith.constant dense_resource<__elided__> : tensor<2304xf32>
    %cst_226 = arith.constant dense_resource<__elided__> : tensor<2304xf32>
    %cst_227 = arith.constant dense_resource<__elided__> : tensor<2304xf32>
    %cst_228 = arith.constant dense_resource<__elided__> : tensor<2304x1x5x5xf32>
    %cst_229 = arith.constant dense_resource<__elided__> : tensor<2304xf32>
    %cst_230 = arith.constant dense_resource<__elided__> : tensor<2304xf32>
    %cst_231 = arith.constant dense_resource<__elided__> : tensor<2304xf32>
    %cst_232 = arith.constant dense_resource<__elided__> : tensor<2304xf32>
    %cst_233 = arith.constant dense_resource<__elided__> : tensor<2304x384x1x1xf32>
    %cst_234 = arith.constant dense_resource<__elided__> : tensor<384xf32>
    %cst_235 = arith.constant dense_resource<__elided__> : tensor<384xf32>
    %cst_236 = arith.constant dense_resource<__elided__> : tensor<384xf32>
    %cst_237 = arith.constant dense_resource<__elided__> : tensor<384xf32>
    %cst_238 = arith.constant dense_resource<__elided__> : tensor<384x2304x1x1xf32>
    %cst_239 = arith.constant dense_resource<__elided__> : tensor<2304xf32>
    %cst_240 = arith.constant dense_resource<__elided__> : tensor<2304x96x1x1xf32>
    %cst_241 = arith.constant dense_resource<__elided__> : tensor<96xf32>
    %cst_242 = arith.constant dense_resource<__elided__> : tensor<96x2304x1x1xf32>
    %cst_243 = arith.constant dense_resource<__elided__> : tensor<2304xf32>
    %cst_244 = arith.constant dense_resource<__elided__> : tensor<2304xf32>
    %cst_245 = arith.constant dense_resource<__elided__> : tensor<2304xf32>
    %cst_246 = arith.constant dense_resource<__elided__> : tensor<2304xf32>
    %cst_247 = arith.constant dense_resource<__elided__> : tensor<2304x1x5x5xf32>
    %cst_248 = arith.constant dense_resource<__elided__> : tensor<2304xf32>
    %cst_249 = arith.constant dense_resource<__elided__> : tensor<2304xf32>
    %cst_250 = arith.constant dense_resource<__elided__> : tensor<2304xf32>
    %cst_251 = arith.constant dense_resource<__elided__> : tensor<2304xf32>
    %cst_252 = arith.constant dense_resource<__elided__> : tensor<2304x384x1x1xf32>
    %cst_253 = arith.constant dense_resource<__elided__> : tensor<384xf32>
    %cst_254 = arith.constant dense_resource<__elided__> : tensor<384xf32>
    %cst_255 = arith.constant dense_resource<__elided__> : tensor<384xf32>
    %cst_256 = arith.constant dense_resource<__elided__> : tensor<384xf32>
    %cst_257 = arith.constant dense_resource<__elided__> : tensor<384x2304x1x1xf32>
    %cst_258 = arith.constant dense_resource<__elided__> : tensor<2304xf32>
    %cst_259 = arith.constant dense_resource<__elided__> : tensor<2304x96x1x1xf32>
    %cst_260 = arith.constant dense_resource<__elided__> : tensor<96xf32>
    %cst_261 = arith.constant dense_resource<__elided__> : tensor<96x2304x1x1xf32>
    %cst_262 = arith.constant dense_resource<__elided__> : tensor<2304xf32>
    %cst_263 = arith.constant dense_resource<__elided__> : tensor<2304xf32>
    %cst_264 = arith.constant dense_resource<__elided__> : tensor<2304xf32>
    %cst_265 = arith.constant dense_resource<__elided__> : tensor<2304xf32>
    %cst_266 = arith.constant dense_resource<__elided__> : tensor<2304x1x5x5xf32>
    %cst_267 = arith.constant dense_resource<__elided__> : tensor<2304xf32>
    %cst_268 = arith.constant dense_resource<__elided__> : tensor<2304xf32>
    %cst_269 = arith.constant dense_resource<__elided__> : tensor<2304xf32>
    %cst_270 = arith.constant dense_resource<__elided__> : tensor<2304xf32>
    %cst_271 = arith.constant dense_resource<__elided__> : tensor<2304x384x1x1xf32>
    %cst_272 = arith.constant dense_resource<__elided__> : tensor<384xf32>
    %cst_273 = arith.constant dense_resource<__elided__> : tensor<384xf32>
    %cst_274 = arith.constant dense_resource<__elided__> : tensor<384xf32>
    %cst_275 = arith.constant dense_resource<__elided__> : tensor<384xf32>
    %cst_276 = arith.constant dense_resource<__elided__> : tensor<384x2304x1x1xf32>
    %cst_277 = arith.constant dense_resource<__elided__> : tensor<2304xf32>
    %cst_278 = arith.constant dense_resource<__elided__> : tensor<2304x96x1x1xf32>
    %cst_279 = arith.constant dense_resource<__elided__> : tensor<96xf32>
    %cst_280 = arith.constant dense_resource<__elided__> : tensor<96x2304x1x1xf32>
    %cst_281 = arith.constant dense_resource<__elided__> : tensor<2304xf32>
    %cst_282 = arith.constant dense_resource<__elided__> : tensor<2304xf32>
    %cst_283 = arith.constant dense_resource<__elided__> : tensor<2304xf32>
    %cst_284 = arith.constant dense_resource<__elided__> : tensor<2304xf32>
    %cst_285 = arith.constant dense_resource<__elided__> : tensor<2304x1x5x5xf32>
    %cst_286 = arith.constant dense_resource<__elided__> : tensor<2304xf32>
    %cst_287 = arith.constant dense_resource<__elided__> : tensor<2304xf32>
    %cst_288 = arith.constant dense_resource<__elided__> : tensor<2304xf32>
    %cst_289 = arith.constant dense_resource<__elided__> : tensor<2304xf32>
    %cst_290 = arith.constant dense_resource<__elided__> : tensor<2304x384x1x1xf32>
    %cst_291 = arith.constant dense_resource<__elided__> : tensor<384xf32>
    %cst_292 = arith.constant dense_resource<__elided__> : tensor<384xf32>
    %cst_293 = arith.constant dense_resource<__elided__> : tensor<384xf32>
    %cst_294 = arith.constant dense_resource<__elided__> : tensor<384xf32>
    %cst_295 = arith.constant dense_resource<__elided__> : tensor<384x2304x1x1xf32>
    %cst_296 = arith.constant dense_resource<__elided__> : tensor<2304xf32>
    %cst_297 = arith.constant dense_resource<__elided__> : tensor<2304x96x1x1xf32>
    %cst_298 = arith.constant dense_resource<__elided__> : tensor<96xf32>
    %cst_299 = arith.constant dense_resource<__elided__> : tensor<96x2304x1x1xf32>
    %cst_300 = arith.constant dense_resource<__elided__> : tensor<2304xf32>
    %cst_301 = arith.constant dense_resource<__elided__> : tensor<2304xf32>
    %cst_302 = arith.constant dense_resource<__elided__> : tensor<2304xf32>
    %cst_303 = arith.constant dense_resource<__elided__> : tensor<2304xf32>
    %cst_304 = arith.constant dense_resource<__elided__> : tensor<2304x1x5x5xf32>
    %cst_305 = arith.constant dense_resource<__elided__> : tensor<2304xf32>
    %cst_306 = arith.constant dense_resource<__elided__> : tensor<2304xf32>
    %cst_307 = arith.constant dense_resource<__elided__> : tensor<2304xf32>
    %cst_308 = arith.constant dense_resource<__elided__> : tensor<2304xf32>
    %cst_309 = arith.constant dense_resource<__elided__> : tensor<2304x384x1x1xf32>
    %cst_310 = arith.constant dense_resource<__elided__> : tensor<384xf32>
    %cst_311 = arith.constant dense_resource<__elided__> : tensor<384xf32>
    %cst_312 = arith.constant dense_resource<__elided__> : tensor<384xf32>
    %cst_313 = arith.constant dense_resource<__elided__> : tensor<384xf32>
    %cst_314 = arith.constant dense_resource<__elided__> : tensor<384x1344x1x1xf32>
    %cst_315 = arith.constant dense_resource<__elided__> : tensor<1344xf32>
    %cst_316 = arith.constant dense_resource<__elided__> : tensor<1344x56x1x1xf32>
    %cst_317 = arith.constant dense_resource<__elided__> : tensor<56xf32>
    %cst_318 = arith.constant dense_resource<__elided__> : tensor<56x1344x1x1xf32>
    %cst_319 = arith.constant dense_resource<__elided__> : tensor<1344xf32>
    %cst_320 = arith.constant dense_resource<__elided__> : tensor<1344xf32>
    %cst_321 = arith.constant dense_resource<__elided__> : tensor<1344xf32>
    %cst_322 = arith.constant dense_resource<__elided__> : tensor<1344xf32>
    %cst_323 = arith.constant dense_resource<__elided__> : tensor<1344x1x5x5xf32>
    %cst_324 = arith.constant dense_resource<__elided__> : tensor<1344xf32>
    %cst_325 = arith.constant dense_resource<__elided__> : tensor<1344xf32>
    %cst_326 = arith.constant dense_resource<__elided__> : tensor<1344xf32>
    %cst_327 = arith.constant dense_resource<__elided__> : tensor<1344xf32>
    %cst_328 = arith.constant dense_resource<__elided__> : tensor<1344x224x1x1xf32>
    %cst_329 = arith.constant dense_resource<__elided__> : tensor<224xf32>
    %cst_330 = arith.constant dense_resource<__elided__> : tensor<224xf32>
    %cst_331 = arith.constant dense_resource<__elided__> : tensor<224xf32>
    %cst_332 = arith.constant dense_resource<__elided__> : tensor<224xf32>
    %cst_333 = arith.constant dense_resource<__elided__> : tensor<224x1344x1x1xf32>
    %cst_334 = arith.constant dense_resource<__elided__> : tensor<1344xf32>
    %cst_335 = arith.constant dense_resource<__elided__> : tensor<1344x56x1x1xf32>
    %cst_336 = arith.constant dense_resource<__elided__> : tensor<56xf32>
    %cst_337 = arith.constant dense_resource<__elided__> : tensor<56x1344x1x1xf32>
    %cst_338 = arith.constant dense_resource<__elided__> : tensor<1344xf32>
    %cst_339 = arith.constant dense_resource<__elided__> : tensor<1344xf32>
    %cst_340 = arith.constant dense_resource<__elided__> : tensor<1344xf32>
    %cst_341 = arith.constant dense_resource<__elided__> : tensor<1344xf32>
    %cst_342 = arith.constant dense_resource<__elided__> : tensor<1344x1x5x5xf32>
    %cst_343 = arith.constant dense_resource<__elided__> : tensor<1344xf32>
    %cst_344 = arith.constant dense_resource<__elided__> : tensor<1344xf32>
    %cst_345 = arith.constant dense_resource<__elided__> : tensor<1344xf32>
    %cst_346 = arith.constant dense_resource<__elided__> : tensor<1344xf32>
    %cst_347 = arith.constant dense_resource<__elided__> : tensor<1344x224x1x1xf32>
    %cst_348 = arith.constant dense_resource<__elided__> : tensor<224xf32>
    %cst_349 = arith.constant dense_resource<__elided__> : tensor<224xf32>
    %cst_350 = arith.constant dense_resource<__elided__> : tensor<224xf32>
    %cst_351 = arith.constant dense_resource<__elided__> : tensor<224xf32>
    %cst_352 = arith.constant dense_resource<__elided__> : tensor<224x1344x1x1xf32>
    %cst_353 = arith.constant dense_resource<__elided__> : tensor<1344xf32>
    %cst_354 = arith.constant dense_resource<__elided__> : tensor<1344x56x1x1xf32>
    %cst_355 = arith.constant dense_resource<__elided__> : tensor<56xf32>
    %cst_356 = arith.constant dense_resource<__elided__> : tensor<56x1344x1x1xf32>
    %cst_357 = arith.constant dense_resource<__elided__> : tensor<1344xf32>
    %cst_358 = arith.constant dense_resource<__elided__> : tensor<1344xf32>
    %cst_359 = arith.constant dense_resource<__elided__> : tensor<1344xf32>
    %cst_360 = arith.constant dense_resource<__elided__> : tensor<1344xf32>
    %cst_361 = arith.constant dense_resource<__elided__> : tensor<1344x1x5x5xf32>
    %cst_362 = arith.constant dense_resource<__elided__> : tensor<1344xf32>
    %cst_363 = arith.constant dense_resource<__elided__> : tensor<1344xf32>
    %cst_364 = arith.constant dense_resource<__elided__> : tensor<1344xf32>
    %cst_365 = arith.constant dense_resource<__elided__> : tensor<1344xf32>
    %cst_366 = arith.constant dense_resource<__elided__> : tensor<1344x224x1x1xf32>
    %cst_367 = arith.constant dense_resource<__elided__> : tensor<224xf32>
    %cst_368 = arith.constant dense_resource<__elided__> : tensor<224xf32>
    %cst_369 = arith.constant dense_resource<__elided__> : tensor<224xf32>
    %cst_370 = arith.constant dense_resource<__elided__> : tensor<224xf32>
    %cst_371 = arith.constant dense_resource<__elided__> : tensor<224x1344x1x1xf32>
    %cst_372 = arith.constant dense_resource<__elided__> : tensor<1344xf32>
    %cst_373 = arith.constant dense_resource<__elided__> : tensor<1344x56x1x1xf32>
    %cst_374 = arith.constant dense_resource<__elided__> : tensor<56xf32>
    %cst_375 = arith.constant dense_resource<__elided__> : tensor<56x1344x1x1xf32>
    %cst_376 = arith.constant dense_resource<__elided__> : tensor<1344xf32>
    %cst_377 = arith.constant dense_resource<__elided__> : tensor<1344xf32>
    %cst_378 = arith.constant dense_resource<__elided__> : tensor<1344xf32>
    %cst_379 = arith.constant dense_resource<__elided__> : tensor<1344xf32>
    %cst_380 = arith.constant dense_resource<__elided__> : tensor<1344x1x5x5xf32>
    %cst_381 = arith.constant dense_resource<__elided__> : tensor<1344xf32>
    %cst_382 = arith.constant dense_resource<__elided__> : tensor<1344xf32>
    %cst_383 = arith.constant dense_resource<__elided__> : tensor<1344xf32>
    %cst_384 = arith.constant dense_resource<__elided__> : tensor<1344xf32>
    %cst_385 = arith.constant dense_resource<__elided__> : tensor<1344x224x1x1xf32>
    %cst_386 = arith.constant dense_resource<__elided__> : tensor<224xf32>
    %cst_387 = arith.constant dense_resource<__elided__> : tensor<224xf32>
    %cst_388 = arith.constant dense_resource<__elided__> : tensor<224xf32>
    %cst_389 = arith.constant dense_resource<__elided__> : tensor<224xf32>
    %cst_390 = arith.constant dense_resource<__elided__> : tensor<224x1344x1x1xf32>
    %cst_391 = arith.constant dense_resource<__elided__> : tensor<1344xf32>
    %cst_392 = arith.constant dense_resource<__elided__> : tensor<1344x56x1x1xf32>
    %cst_393 = arith.constant dense_resource<__elided__> : tensor<56xf32>
    %cst_394 = arith.constant dense_resource<__elided__> : tensor<56x1344x1x1xf32>
    %cst_395 = arith.constant dense_resource<__elided__> : tensor<1344xf32>
    %cst_396 = arith.constant dense_resource<__elided__> : tensor<1344xf32>
    %cst_397 = arith.constant dense_resource<__elided__> : tensor<1344xf32>
    %cst_398 = arith.constant dense_resource<__elided__> : tensor<1344xf32>
    %cst_399 = arith.constant dense_resource<__elided__> : tensor<1344x1x5x5xf32>
    %cst_400 = arith.constant dense_resource<__elided__> : tensor<1344xf32>
    %cst_401 = arith.constant dense_resource<__elided__> : tensor<1344xf32>
    %cst_402 = arith.constant dense_resource<__elided__> : tensor<1344xf32>
    %cst_403 = arith.constant dense_resource<__elided__> : tensor<1344xf32>
    %cst_404 = arith.constant dense_resource<__elided__> : tensor<1344x224x1x1xf32>
    %cst_405 = arith.constant dense_resource<__elided__> : tensor<224xf32>
    %cst_406 = arith.constant dense_resource<__elided__> : tensor<224xf32>
    %cst_407 = arith.constant dense_resource<__elided__> : tensor<224xf32>
    %cst_408 = arith.constant dense_resource<__elided__> : tensor<224xf32>
    %cst_409 = arith.constant dense_resource<__elided__> : tensor<224x1344x1x1xf32>
    %cst_410 = arith.constant dense_resource<__elided__> : tensor<1344xf32>
    %cst_411 = arith.constant dense_resource<__elided__> : tensor<1344x56x1x1xf32>
    %cst_412 = arith.constant dense_resource<__elided__> : tensor<56xf32>
    %cst_413 = arith.constant dense_resource<__elided__> : tensor<56x1344x1x1xf32>
    %cst_414 = arith.constant dense_resource<__elided__> : tensor<1344xf32>
    %cst_415 = arith.constant dense_resource<__elided__> : tensor<1344xf32>
    %cst_416 = arith.constant dense_resource<__elided__> : tensor<1344xf32>
    %cst_417 = arith.constant dense_resource<__elided__> : tensor<1344xf32>
    %cst_418 = arith.constant dense_resource<__elided__> : tensor<1344x1x5x5xf32>
    %cst_419 = arith.constant dense_resource<__elided__> : tensor<1344xf32>
    %cst_420 = arith.constant dense_resource<__elided__> : tensor<1344xf32>
    %cst_421 = arith.constant dense_resource<__elided__> : tensor<1344xf32>
    %cst_422 = arith.constant dense_resource<__elided__> : tensor<1344xf32>
    %cst_423 = arith.constant dense_resource<__elided__> : tensor<1344x224x1x1xf32>
    %cst_424 = arith.constant dense_resource<__elided__> : tensor<224xf32>
    %cst_425 = arith.constant dense_resource<__elided__> : tensor<224xf32>
    %cst_426 = arith.constant dense_resource<__elided__> : tensor<224xf32>
    %cst_427 = arith.constant dense_resource<__elided__> : tensor<224xf32>
    %cst_428 = arith.constant dense_resource<__elided__> : tensor<224x1344x1x1xf32>
    %cst_429 = arith.constant dense_resource<__elided__> : tensor<1344xf32>
    %cst_430 = arith.constant dense_resource<__elided__> : tensor<1344x56x1x1xf32>
    %cst_431 = arith.constant dense_resource<__elided__> : tensor<56xf32>
    %cst_432 = arith.constant dense_resource<__elided__> : tensor<56x1344x1x1xf32>
    %cst_433 = arith.constant dense_resource<__elided__> : tensor<1344xf32>
    %cst_434 = arith.constant dense_resource<__elided__> : tensor<1344xf32>
    %cst_435 = arith.constant dense_resource<__elided__> : tensor<1344xf32>
    %cst_436 = arith.constant dense_resource<__elided__> : tensor<1344xf32>
    %cst_437 = arith.constant dense_resource<__elided__> : tensor<1344x1x5x5xf32>
    %cst_438 = arith.constant dense_resource<__elided__> : tensor<1344xf32>
    %cst_439 = arith.constant dense_resource<__elided__> : tensor<1344xf32>
    %cst_440 = arith.constant dense_resource<__elided__> : tensor<1344xf32>
    %cst_441 = arith.constant dense_resource<__elided__> : tensor<1344xf32>
    %cst_442 = arith.constant dense_resource<__elided__> : tensor<1344x224x1x1xf32>
    %cst_443 = arith.constant dense_resource<__elided__> : tensor<224xf32>
    %cst_444 = arith.constant dense_resource<__elided__> : tensor<224xf32>
    %cst_445 = arith.constant dense_resource<__elided__> : tensor<224xf32>
    %cst_446 = arith.constant dense_resource<__elided__> : tensor<224xf32>
    %cst_447 = arith.constant dense_resource<__elided__> : tensor<224x1344x1x1xf32>
    %cst_448 = arith.constant dense_resource<__elided__> : tensor<1344xf32>
    %cst_449 = arith.constant dense_resource<__elided__> : tensor<1344x56x1x1xf32>
    %cst_450 = arith.constant dense_resource<__elided__> : tensor<56xf32>
    %cst_451 = arith.constant dense_resource<__elided__> : tensor<56x1344x1x1xf32>
    %cst_452 = arith.constant dense_resource<__elided__> : tensor<1344xf32>
    %cst_453 = arith.constant dense_resource<__elided__> : tensor<1344xf32>
    %cst_454 = arith.constant dense_resource<__elided__> : tensor<1344xf32>
    %cst_455 = arith.constant dense_resource<__elided__> : tensor<1344xf32>
    %cst_456 = arith.constant dense_resource<__elided__> : tensor<1344x1x5x5xf32>
    %cst_457 = arith.constant dense_resource<__elided__> : tensor<1344xf32>
    %cst_458 = arith.constant dense_resource<__elided__> : tensor<1344xf32>
    %cst_459 = arith.constant dense_resource<__elided__> : tensor<1344xf32>
    %cst_460 = arith.constant dense_resource<__elided__> : tensor<1344xf32>
    %cst_461 = arith.constant dense_resource<__elided__> : tensor<1344x224x1x1xf32>
    %cst_462 = arith.constant dense_resource<__elided__> : tensor<224xf32>
    %cst_463 = arith.constant dense_resource<__elided__> : tensor<224xf32>
    %cst_464 = arith.constant dense_resource<__elided__> : tensor<224xf32>
    %cst_465 = arith.constant dense_resource<__elided__> : tensor<224xf32>
    %cst_466 = arith.constant dense_resource<__elided__> : tensor<224x1344x1x1xf32>
    %cst_467 = arith.constant dense_resource<__elided__> : tensor<1344xf32>
    %cst_468 = arith.constant dense_resource<__elided__> : tensor<1344x56x1x1xf32>
    %cst_469 = arith.constant dense_resource<__elided__> : tensor<56xf32>
    %cst_470 = arith.constant dense_resource<__elided__> : tensor<56x1344x1x1xf32>
    %cst_471 = arith.constant dense_resource<__elided__> : tensor<1344xf32>
    %cst_472 = arith.constant dense_resource<__elided__> : tensor<1344xf32>
    %cst_473 = arith.constant dense_resource<__elided__> : tensor<1344xf32>
    %cst_474 = arith.constant dense_resource<__elided__> : tensor<1344xf32>
    %cst_475 = arith.constant dense_resource<__elided__> : tensor<1344x1x5x5xf32>
    %cst_476 = arith.constant dense_resource<__elided__> : tensor<1344xf32>
    %cst_477 = arith.constant dense_resource<__elided__> : tensor<1344xf32>
    %cst_478 = arith.constant dense_resource<__elided__> : tensor<1344xf32>
    %cst_479 = arith.constant dense_resource<__elided__> : tensor<1344xf32>
    %cst_480 = arith.constant dense_resource<__elided__> : tensor<1344x224x1x1xf32>
    %cst_481 = arith.constant dense_resource<__elided__> : tensor<224xf32>
    %cst_482 = arith.constant dense_resource<__elided__> : tensor<224xf32>
    %cst_483 = arith.constant dense_resource<__elided__> : tensor<224xf32>
    %cst_484 = arith.constant dense_resource<__elided__> : tensor<224xf32>
    %cst_485 = arith.constant dense_resource<__elided__> : tensor<224x1344x1x1xf32>
    %cst_486 = arith.constant dense_resource<__elided__> : tensor<1344xf32>
    %cst_487 = arith.constant dense_resource<__elided__> : tensor<1344x56x1x1xf32>
    %cst_488 = arith.constant dense_resource<__elided__> : tensor<56xf32>
    %cst_489 = arith.constant dense_resource<__elided__> : tensor<56x1344x1x1xf32>
    %cst_490 = arith.constant dense_resource<__elided__> : tensor<1344xf32>
    %cst_491 = arith.constant dense_resource<__elided__> : tensor<1344xf32>
    %cst_492 = arith.constant dense_resource<__elided__> : tensor<1344xf32>
    %cst_493 = arith.constant dense_resource<__elided__> : tensor<1344xf32>
    %cst_494 = arith.constant dense_resource<__elided__> : tensor<1344x1x5x5xf32>
    %cst_495 = arith.constant dense_resource<__elided__> : tensor<1344xf32>
    %cst_496 = arith.constant dense_resource<__elided__> : tensor<1344xf32>
    %cst_497 = arith.constant dense_resource<__elided__> : tensor<1344xf32>
    %cst_498 = arith.constant dense_resource<__elided__> : tensor<1344xf32>
    %cst_499 = arith.constant dense_resource<__elided__> : tensor<1344x224x1x1xf32>
    %cst_500 = arith.constant dense_resource<__elided__> : tensor<224xf32>
    %cst_501 = arith.constant dense_resource<__elided__> : tensor<224xf32>
    %cst_502 = arith.constant dense_resource<__elided__> : tensor<224xf32>
    %cst_503 = arith.constant dense_resource<__elided__> : tensor<224xf32>
    %cst_504 = arith.constant dense_resource<__elided__> : tensor<224x960x1x1xf32>
    %cst_505 = arith.constant dense_resource<__elided__> : tensor<960xf32>
    %cst_506 = arith.constant dense_resource<__elided__> : tensor<960x40x1x1xf32>
    %cst_507 = arith.constant dense_resource<__elided__> : tensor<40xf32>
    %cst_508 = arith.constant dense_resource<__elided__> : tensor<40x960x1x1xf32>
    %cst_509 = arith.constant dense_resource<__elided__> : tensor<960xf32>
    %cst_510 = arith.constant dense_resource<__elided__> : tensor<960xf32>
    %cst_511 = arith.constant dense_resource<__elided__> : tensor<960xf32>
    %cst_512 = arith.constant dense_resource<__elided__> : tensor<960xf32>
    %cst_513 = arith.constant dense_resource<__elided__> : tensor<960x1x5x5xf32>
    %cst_514 = arith.constant dense_resource<__elided__> : tensor<960xf32>
    %cst_515 = arith.constant dense_resource<__elided__> : tensor<960xf32>
    %cst_516 = arith.constant dense_resource<__elided__> : tensor<960xf32>
    %cst_517 = arith.constant dense_resource<__elided__> : tensor<960xf32>
    %cst_518 = arith.constant dense_resource<__elided__> : tensor<960x160x1x1xf32>
    %cst_519 = arith.constant dense_resource<__elided__> : tensor<160xf32>
    %cst_520 = arith.constant dense_resource<__elided__> : tensor<160xf32>
    %cst_521 = arith.constant dense_resource<__elided__> : tensor<160xf32>
    %cst_522 = arith.constant dense_resource<__elided__> : tensor<160xf32>
    %cst_523 = arith.constant dense_resource<__elided__> : tensor<160x960x1x1xf32>
    %cst_524 = arith.constant dense_resource<__elided__> : tensor<960xf32>
    %cst_525 = arith.constant dense_resource<__elided__> : tensor<960x40x1x1xf32>
    %cst_526 = arith.constant dense_resource<__elided__> : tensor<40xf32>
    %cst_527 = arith.constant dense_resource<__elided__> : tensor<40x960x1x1xf32>
    %cst_528 = arith.constant dense_resource<__elided__> : tensor<960xf32>
    %cst_529 = arith.constant dense_resource<__elided__> : tensor<960xf32>
    %cst_530 = arith.constant dense_resource<__elided__> : tensor<960xf32>
    %cst_531 = arith.constant dense_resource<__elided__> : tensor<960xf32>
    %cst_532 = arith.constant dense_resource<__elided__> : tensor<960x1x3x3xf32>
    %cst_533 = arith.constant dense_resource<__elided__> : tensor<960xf32>
    %cst_534 = arith.constant dense_resource<__elided__> : tensor<960xf32>
    %cst_535 = arith.constant dense_resource<__elided__> : tensor<960xf32>
    %cst_536 = arith.constant dense_resource<__elided__> : tensor<960xf32>
    %cst_537 = arith.constant dense_resource<__elided__> : tensor<960x160x1x1xf32>
    %cst_538 = arith.constant dense_resource<__elided__> : tensor<160xf32>
    %cst_539 = arith.constant dense_resource<__elided__> : tensor<160xf32>
    %cst_540 = arith.constant dense_resource<__elided__> : tensor<160xf32>
    %cst_541 = arith.constant dense_resource<__elided__> : tensor<160xf32>
    %cst_542 = arith.constant dense_resource<__elided__> : tensor<160x960x1x1xf32>
    %cst_543 = arith.constant dense_resource<__elided__> : tensor<960xf32>
    %cst_544 = arith.constant dense_resource<__elided__> : tensor<960x40x1x1xf32>
    %cst_545 = arith.constant dense_resource<__elided__> : tensor<40xf32>
    %cst_546 = arith.constant dense_resource<__elided__> : tensor<40x960x1x1xf32>
    %cst_547 = arith.constant dense_resource<__elided__> : tensor<960xf32>
    %cst_548 = arith.constant dense_resource<__elided__> : tensor<960xf32>
    %cst_549 = arith.constant dense_resource<__elided__> : tensor<960xf32>
    %cst_550 = arith.constant dense_resource<__elided__> : tensor<960xf32>
    %cst_551 = arith.constant dense_resource<__elided__> : tensor<960x1x3x3xf32>
    %cst_552 = arith.constant dense_resource<__elided__> : tensor<960xf32>
    %cst_553 = arith.constant dense_resource<__elided__> : tensor<960xf32>
    %cst_554 = arith.constant dense_resource<__elided__> : tensor<960xf32>
    %cst_555 = arith.constant dense_resource<__elided__> : tensor<960xf32>
    %cst_556 = arith.constant dense_resource<__elided__> : tensor<960x160x1x1xf32>
    %cst_557 = arith.constant dense_resource<__elided__> : tensor<160xf32>
    %cst_558 = arith.constant dense_resource<__elided__> : tensor<160xf32>
    %cst_559 = arith.constant dense_resource<__elided__> : tensor<160xf32>
    %cst_560 = arith.constant dense_resource<__elided__> : tensor<160xf32>
    %cst_561 = arith.constant dense_resource<__elided__> : tensor<160x960x1x1xf32>
    %cst_562 = arith.constant dense_resource<__elided__> : tensor<960xf32>
    %cst_563 = arith.constant dense_resource<__elided__> : tensor<960x40x1x1xf32>
    %cst_564 = arith.constant dense_resource<__elided__> : tensor<40xf32>
    %cst_565 = arith.constant dense_resource<__elided__> : tensor<40x960x1x1xf32>
    %cst_566 = arith.constant dense_resource<__elided__> : tensor<960xf32>
    %cst_567 = arith.constant dense_resource<__elided__> : tensor<960xf32>
    %cst_568 = arith.constant dense_resource<__elided__> : tensor<960xf32>
    %cst_569 = arith.constant dense_resource<__elided__> : tensor<960xf32>
    %cst_570 = arith.constant dense_resource<__elided__> : tensor<960x1x3x3xf32>
    %cst_571 = arith.constant dense_resource<__elided__> : tensor<960xf32>
    %cst_572 = arith.constant dense_resource<__elided__> : tensor<960xf32>
    %cst_573 = arith.constant dense_resource<__elided__> : tensor<960xf32>
    %cst_574 = arith.constant dense_resource<__elided__> : tensor<960xf32>
    %cst_575 = arith.constant dense_resource<__elided__> : tensor<960x160x1x1xf32>
    %cst_576 = arith.constant dense_resource<__elided__> : tensor<160xf32>
    %cst_577 = arith.constant dense_resource<__elided__> : tensor<160xf32>
    %cst_578 = arith.constant dense_resource<__elided__> : tensor<160xf32>
    %cst_579 = arith.constant dense_resource<__elided__> : tensor<160xf32>
    %cst_580 = arith.constant dense_resource<__elided__> : tensor<160x960x1x1xf32>
    %cst_581 = arith.constant dense_resource<__elided__> : tensor<960xf32>
    %cst_582 = arith.constant dense_resource<__elided__> : tensor<960x40x1x1xf32>
    %cst_583 = arith.constant dense_resource<__elided__> : tensor<40xf32>
    %cst_584 = arith.constant dense_resource<__elided__> : tensor<40x960x1x1xf32>
    %cst_585 = arith.constant dense_resource<__elided__> : tensor<960xf32>
    %cst_586 = arith.constant dense_resource<__elided__> : tensor<960xf32>
    %cst_587 = arith.constant dense_resource<__elided__> : tensor<960xf32>
    %cst_588 = arith.constant dense_resource<__elided__> : tensor<960xf32>
    %cst_589 = arith.constant dense_resource<__elided__> : tensor<960x1x3x3xf32>
    %cst_590 = arith.constant dense_resource<__elided__> : tensor<960xf32>
    %cst_591 = arith.constant dense_resource<__elided__> : tensor<960xf32>
    %cst_592 = arith.constant dense_resource<__elided__> : tensor<960xf32>
    %cst_593 = arith.constant dense_resource<__elided__> : tensor<960xf32>
    %cst_594 = arith.constant dense_resource<__elided__> : tensor<960x160x1x1xf32>
    %cst_595 = arith.constant dense_resource<__elided__> : tensor<160xf32>
    %cst_596 = arith.constant dense_resource<__elided__> : tensor<160xf32>
    %cst_597 = arith.constant dense_resource<__elided__> : tensor<160xf32>
    %cst_598 = arith.constant dense_resource<__elided__> : tensor<160xf32>
    %cst_599 = arith.constant dense_resource<__elided__> : tensor<160x960x1x1xf32>
    %cst_600 = arith.constant dense_resource<__elided__> : tensor<960xf32>
    %cst_601 = arith.constant dense_resource<__elided__> : tensor<960x40x1x1xf32>
    %cst_602 = arith.constant dense_resource<__elided__> : tensor<40xf32>
    %cst_603 = arith.constant dense_resource<__elided__> : tensor<40x960x1x1xf32>
    %cst_604 = arith.constant dense_resource<__elided__> : tensor<960xf32>
    %cst_605 = arith.constant dense_resource<__elided__> : tensor<960xf32>
    %cst_606 = arith.constant dense_resource<__elided__> : tensor<960xf32>
    %cst_607 = arith.constant dense_resource<__elided__> : tensor<960xf32>
    %cst_608 = arith.constant dense_resource<__elided__> : tensor<960x1x3x3xf32>
    %cst_609 = arith.constant dense_resource<__elided__> : tensor<960xf32>
    %cst_610 = arith.constant dense_resource<__elided__> : tensor<960xf32>
    %cst_611 = arith.constant dense_resource<__elided__> : tensor<960xf32>
    %cst_612 = arith.constant dense_resource<__elided__> : tensor<960xf32>
    %cst_613 = arith.constant dense_resource<__elided__> : tensor<960x160x1x1xf32>
    %cst_614 = arith.constant dense_resource<__elided__> : tensor<160xf32>
    %cst_615 = arith.constant dense_resource<__elided__> : tensor<160xf32>
    %cst_616 = arith.constant dense_resource<__elided__> : tensor<160xf32>
    %cst_617 = arith.constant dense_resource<__elided__> : tensor<160xf32>
    %cst_618 = arith.constant dense_resource<__elided__> : tensor<160x960x1x1xf32>
    %cst_619 = arith.constant dense_resource<__elided__> : tensor<960xf32>
    %cst_620 = arith.constant dense_resource<__elided__> : tensor<960x40x1x1xf32>
    %cst_621 = arith.constant dense_resource<__elided__> : tensor<40xf32>
    %cst_622 = arith.constant dense_resource<__elided__> : tensor<40x960x1x1xf32>
    %cst_623 = arith.constant dense_resource<__elided__> : tensor<960xf32>
    %cst_624 = arith.constant dense_resource<__elided__> : tensor<960xf32>
    %cst_625 = arith.constant dense_resource<__elided__> : tensor<960xf32>
    %cst_626 = arith.constant dense_resource<__elided__> : tensor<960xf32>
    %cst_627 = arith.constant dense_resource<__elided__> : tensor<960x1x3x3xf32>
    %cst_628 = arith.constant dense_resource<__elided__> : tensor<960xf32>
    %cst_629 = arith.constant dense_resource<__elided__> : tensor<960xf32>
    %cst_630 = arith.constant dense_resource<__elided__> : tensor<960xf32>
    %cst_631 = arith.constant dense_resource<__elided__> : tensor<960xf32>
    %cst_632 = arith.constant dense_resource<__elided__> : tensor<960x160x1x1xf32>
    %cst_633 = arith.constant dense_resource<__elided__> : tensor<160xf32>
    %cst_634 = arith.constant dense_resource<__elided__> : tensor<160xf32>
    %cst_635 = arith.constant dense_resource<__elided__> : tensor<160xf32>
    %cst_636 = arith.constant dense_resource<__elided__> : tensor<160xf32>
    %cst_637 = arith.constant dense_resource<__elided__> : tensor<160x960x1x1xf32>
    %cst_638 = arith.constant dense_resource<__elided__> : tensor<960xf32>
    %cst_639 = arith.constant dense_resource<__elided__> : tensor<960x40x1x1xf32>
    %cst_640 = arith.constant dense_resource<__elided__> : tensor<40xf32>
    %cst_641 = arith.constant dense_resource<__elided__> : tensor<40x960x1x1xf32>
    %cst_642 = arith.constant dense_resource<__elided__> : tensor<960xf32>
    %cst_643 = arith.constant dense_resource<__elided__> : tensor<960xf32>
    %cst_644 = arith.constant dense_resource<__elided__> : tensor<960xf32>
    %cst_645 = arith.constant dense_resource<__elided__> : tensor<960xf32>
    %cst_646 = arith.constant dense_resource<__elided__> : tensor<960x1x3x3xf32>
    %cst_647 = arith.constant dense_resource<__elided__> : tensor<960xf32>
    %cst_648 = arith.constant dense_resource<__elided__> : tensor<960xf32>
    %cst_649 = arith.constant dense_resource<__elided__> : tensor<960xf32>
    %cst_650 = arith.constant dense_resource<__elided__> : tensor<960xf32>
    %cst_651 = arith.constant dense_resource<__elided__> : tensor<960x160x1x1xf32>
    %cst_652 = arith.constant dense_resource<__elided__> : tensor<160xf32>
    %cst_653 = arith.constant dense_resource<__elided__> : tensor<160xf32>
    %cst_654 = arith.constant dense_resource<__elided__> : tensor<160xf32>
    %cst_655 = arith.constant dense_resource<__elided__> : tensor<160xf32>
    %cst_656 = arith.constant dense_resource<__elided__> : tensor<160x960x1x1xf32>
    %cst_657 = arith.constant dense_resource<__elided__> : tensor<960xf32>
    %cst_658 = arith.constant dense_resource<__elided__> : tensor<960x40x1x1xf32>
    %cst_659 = arith.constant dense_resource<__elided__> : tensor<40xf32>
    %cst_660 = arith.constant dense_resource<__elided__> : tensor<40x960x1x1xf32>
    %cst_661 = arith.constant dense_resource<__elided__> : tensor<960xf32>
    %cst_662 = arith.constant dense_resource<__elided__> : tensor<960xf32>
    %cst_663 = arith.constant dense_resource<__elided__> : tensor<960xf32>
    %cst_664 = arith.constant dense_resource<__elided__> : tensor<960xf32>
    %cst_665 = arith.constant dense_resource<__elided__> : tensor<960x1x3x3xf32>
    %cst_666 = arith.constant dense_resource<__elided__> : tensor<960xf32>
    %cst_667 = arith.constant dense_resource<__elided__> : tensor<960xf32>
    %cst_668 = arith.constant dense_resource<__elided__> : tensor<960xf32>
    %cst_669 = arith.constant dense_resource<__elided__> : tensor<960xf32>
    %cst_670 = arith.constant dense_resource<__elided__> : tensor<960x160x1x1xf32>
    %cst_671 = arith.constant dense_resource<__elided__> : tensor<160xf32>
    %cst_672 = arith.constant dense_resource<__elided__> : tensor<160xf32>
    %cst_673 = arith.constant dense_resource<__elided__> : tensor<160xf32>
    %cst_674 = arith.constant dense_resource<__elided__> : tensor<160xf32>
    %cst_675 = arith.constant dense_resource<__elided__> : tensor<160x960x1x1xf32>
    %cst_676 = arith.constant dense_resource<__elided__> : tensor<960xf32>
    %cst_677 = arith.constant dense_resource<__elided__> : tensor<960x40x1x1xf32>
    %cst_678 = arith.constant dense_resource<__elided__> : tensor<40xf32>
    %cst_679 = arith.constant dense_resource<__elided__> : tensor<40x960x1x1xf32>
    %cst_680 = arith.constant dense_resource<__elided__> : tensor<960xf32>
    %cst_681 = arith.constant dense_resource<__elided__> : tensor<960xf32>
    %cst_682 = arith.constant dense_resource<__elided__> : tensor<960xf32>
    %cst_683 = arith.constant dense_resource<__elided__> : tensor<960xf32>
    %cst_684 = arith.constant dense_resource<__elided__> : tensor<960x1x3x3xf32>
    %cst_685 = arith.constant dense_resource<__elided__> : tensor<960xf32>
    %cst_686 = arith.constant dense_resource<__elided__> : tensor<960xf32>
    %cst_687 = arith.constant dense_resource<__elided__> : tensor<960xf32>
    %cst_688 = arith.constant dense_resource<__elided__> : tensor<960xf32>
    %cst_689 = arith.constant dense_resource<__elided__> : tensor<960x160x1x1xf32>
    %cst_690 = arith.constant dense_resource<__elided__> : tensor<160xf32>
    %cst_691 = arith.constant dense_resource<__elided__> : tensor<160xf32>
    %cst_692 = arith.constant dense_resource<__elided__> : tensor<160xf32>
    %cst_693 = arith.constant dense_resource<__elided__> : tensor<160xf32>
    %cst_694 = arith.constant dense_resource<__elided__> : tensor<160x480x1x1xf32>
    %cst_695 = arith.constant dense_resource<__elided__> : tensor<480xf32>
    %cst_696 = arith.constant dense_resource<__elided__> : tensor<480x20x1x1xf32>
    %cst_697 = arith.constant dense_resource<__elided__> : tensor<20xf32>
    %cst_698 = arith.constant dense_resource<__elided__> : tensor<20x480x1x1xf32>
    %cst_699 = arith.constant dense_resource<__elided__> : tensor<480xf32>
    %cst_700 = arith.constant dense_resource<__elided__> : tensor<480xf32>
    %cst_701 = arith.constant dense_resource<__elided__> : tensor<480xf32>
    %cst_702 = arith.constant dense_resource<__elided__> : tensor<480xf32>
    %cst_703 = arith.constant dense_resource<__elided__> : tensor<480x1x3x3xf32>
    %cst_704 = arith.constant dense_resource<__elided__> : tensor<480xf32>
    %cst_705 = arith.constant dense_resource<__elided__> : tensor<480xf32>
    %cst_706 = arith.constant dense_resource<__elided__> : tensor<480xf32>
    %cst_707 = arith.constant dense_resource<__elided__> : tensor<480xf32>
    %cst_708 = arith.constant dense_resource<__elided__> : tensor<480x80x1x1xf32>
    %cst_709 = arith.constant dense_resource<__elided__> : tensor<80xf32>
    %cst_710 = arith.constant dense_resource<__elided__> : tensor<80xf32>
    %cst_711 = arith.constant dense_resource<__elided__> : tensor<80xf32>
    %cst_712 = arith.constant dense_resource<__elided__> : tensor<80xf32>
    %cst_713 = arith.constant dense_resource<__elided__> : tensor<80x480x1x1xf32>
    %cst_714 = arith.constant dense_resource<__elided__> : tensor<480xf32>
    %cst_715 = arith.constant dense_resource<__elided__> : tensor<480x20x1x1xf32>
    %cst_716 = arith.constant dense_resource<__elided__> : tensor<20xf32>
    %cst_717 = arith.constant dense_resource<__elided__> : tensor<20x480x1x1xf32>
    %cst_718 = arith.constant dense_resource<__elided__> : tensor<480xf32>
    %cst_719 = arith.constant dense_resource<__elided__> : tensor<480xf32>
    %cst_720 = arith.constant dense_resource<__elided__> : tensor<480xf32>
    %cst_721 = arith.constant dense_resource<__elided__> : tensor<480xf32>
    %cst_722 = arith.constant dense_resource<__elided__> : tensor<480x1x5x5xf32>
    %cst_723 = arith.constant dense_resource<__elided__> : tensor<480xf32>
    %cst_724 = arith.constant dense_resource<__elided__> : tensor<480xf32>
    %cst_725 = arith.constant dense_resource<__elided__> : tensor<480xf32>
    %cst_726 = arith.constant dense_resource<__elided__> : tensor<480xf32>
    %cst_727 = arith.constant dense_resource<__elided__> : tensor<480x80x1x1xf32>
    %cst_728 = arith.constant dense_resource<__elided__> : tensor<80xf32>
    %cst_729 = arith.constant dense_resource<__elided__> : tensor<80xf32>
    %cst_730 = arith.constant dense_resource<__elided__> : tensor<80xf32>
    %cst_731 = arith.constant dense_resource<__elided__> : tensor<80xf32>
    %cst_732 = arith.constant dense_resource<__elided__> : tensor<80x480x1x1xf32>
    %cst_733 = arith.constant dense_resource<__elided__> : tensor<480xf32>
    %cst_734 = arith.constant dense_resource<__elided__> : tensor<480x20x1x1xf32>
    %cst_735 = arith.constant dense_resource<__elided__> : tensor<20xf32>
    %cst_736 = arith.constant dense_resource<__elided__> : tensor<20x480x1x1xf32>
    %cst_737 = arith.constant dense_resource<__elided__> : tensor<480xf32>
    %cst_738 = arith.constant dense_resource<__elided__> : tensor<480xf32>
    %cst_739 = arith.constant dense_resource<__elided__> : tensor<480xf32>
    %cst_740 = arith.constant dense_resource<__elided__> : tensor<480xf32>
    %cst_741 = arith.constant dense_resource<__elided__> : tensor<480x1x5x5xf32>
    %cst_742 = arith.constant dense_resource<__elided__> : tensor<480xf32>
    %cst_743 = arith.constant dense_resource<__elided__> : tensor<480xf32>
    %cst_744 = arith.constant dense_resource<__elided__> : tensor<480xf32>
    %cst_745 = arith.constant dense_resource<__elided__> : tensor<480xf32>
    %cst_746 = arith.constant dense_resource<__elided__> : tensor<480x80x1x1xf32>
    %cst_747 = arith.constant dense_resource<__elided__> : tensor<80xf32>
    %cst_748 = arith.constant dense_resource<__elided__> : tensor<80xf32>
    %cst_749 = arith.constant dense_resource<__elided__> : tensor<80xf32>
    %cst_750 = arith.constant dense_resource<__elided__> : tensor<80xf32>
    %cst_751 = arith.constant dense_resource<__elided__> : tensor<80x480x1x1xf32>
    %cst_752 = arith.constant dense_resource<__elided__> : tensor<480xf32>
    %cst_753 = arith.constant dense_resource<__elided__> : tensor<480x20x1x1xf32>
    %cst_754 = arith.constant dense_resource<__elided__> : tensor<20xf32>
    %cst_755 = arith.constant dense_resource<__elided__> : tensor<20x480x1x1xf32>
    %cst_756 = arith.constant dense_resource<__elided__> : tensor<480xf32>
    %cst_757 = arith.constant dense_resource<__elided__> : tensor<480xf32>
    %cst_758 = arith.constant dense_resource<__elided__> : tensor<480xf32>
    %cst_759 = arith.constant dense_resource<__elided__> : tensor<480xf32>
    %cst_760 = arith.constant dense_resource<__elided__> : tensor<480x1x5x5xf32>
    %cst_761 = arith.constant dense_resource<__elided__> : tensor<480xf32>
    %cst_762 = arith.constant dense_resource<__elided__> : tensor<480xf32>
    %cst_763 = arith.constant dense_resource<__elided__> : tensor<480xf32>
    %cst_764 = arith.constant dense_resource<__elided__> : tensor<480xf32>
    %cst_765 = arith.constant dense_resource<__elided__> : tensor<480x80x1x1xf32>
    %cst_766 = arith.constant dense_resource<__elided__> : tensor<80xf32>
    %cst_767 = arith.constant dense_resource<__elided__> : tensor<80xf32>
    %cst_768 = arith.constant dense_resource<__elided__> : tensor<80xf32>
    %cst_769 = arith.constant dense_resource<__elided__> : tensor<80xf32>
    %cst_770 = arith.constant dense_resource<__elided__> : tensor<80x480x1x1xf32>
    %cst_771 = arith.constant dense_resource<__elided__> : tensor<480xf32>
    %cst_772 = arith.constant dense_resource<__elided__> : tensor<480x20x1x1xf32>
    %cst_773 = arith.constant dense_resource<__elided__> : tensor<20xf32>
    %cst_774 = arith.constant dense_resource<__elided__> : tensor<20x480x1x1xf32>
    %cst_775 = arith.constant dense_resource<__elided__> : tensor<480xf32>
    %cst_776 = arith.constant dense_resource<__elided__> : tensor<480xf32>
    %cst_777 = arith.constant dense_resource<__elided__> : tensor<480xf32>
    %cst_778 = arith.constant dense_resource<__elided__> : tensor<480xf32>
    %cst_779 = arith.constant dense_resource<__elided__> : tensor<480x1x5x5xf32>
    %cst_780 = arith.constant dense_resource<__elided__> : tensor<480xf32>
    %cst_781 = arith.constant dense_resource<__elided__> : tensor<480xf32>
    %cst_782 = arith.constant dense_resource<__elided__> : tensor<480xf32>
    %cst_783 = arith.constant dense_resource<__elided__> : tensor<480xf32>
    %cst_784 = arith.constant dense_resource<__elided__> : tensor<480x80x1x1xf32>
    %cst_785 = arith.constant dense_resource<__elided__> : tensor<80xf32>
    %cst_786 = arith.constant dense_resource<__elided__> : tensor<80xf32>
    %cst_787 = arith.constant dense_resource<__elided__> : tensor<80xf32>
    %cst_788 = arith.constant dense_resource<__elided__> : tensor<80xf32>
    %cst_789 = arith.constant dense_resource<__elided__> : tensor<80x480x1x1xf32>
    %cst_790 = arith.constant dense_resource<__elided__> : tensor<480xf32>
    %cst_791 = arith.constant dense_resource<__elided__> : tensor<480x20x1x1xf32>
    %cst_792 = arith.constant dense_resource<__elided__> : tensor<20xf32>
    %cst_793 = arith.constant dense_resource<__elided__> : tensor<20x480x1x1xf32>
    %cst_794 = arith.constant dense_resource<__elided__> : tensor<480xf32>
    %cst_795 = arith.constant dense_resource<__elided__> : tensor<480xf32>
    %cst_796 = arith.constant dense_resource<__elided__> : tensor<480xf32>
    %cst_797 = arith.constant dense_resource<__elided__> : tensor<480xf32>
    %cst_798 = arith.constant dense_resource<__elided__> : tensor<480x1x5x5xf32>
    %cst_799 = arith.constant dense_resource<__elided__> : tensor<480xf32>
    %cst_800 = arith.constant dense_resource<__elided__> : tensor<480xf32>
    %cst_801 = arith.constant dense_resource<__elided__> : tensor<480xf32>
    %cst_802 = arith.constant dense_resource<__elided__> : tensor<480xf32>
    %cst_803 = arith.constant dense_resource<__elided__> : tensor<480x80x1x1xf32>
    %cst_804 = arith.constant dense_resource<__elided__> : tensor<80xf32>
    %cst_805 = arith.constant dense_resource<__elided__> : tensor<80xf32>
    %cst_806 = arith.constant dense_resource<__elided__> : tensor<80xf32>
    %cst_807 = arith.constant dense_resource<__elided__> : tensor<80xf32>
    %cst_808 = arith.constant dense_resource<__elided__> : tensor<80x480x1x1xf32>
    %cst_809 = arith.constant dense_resource<__elided__> : tensor<480xf32>
    %cst_810 = arith.constant dense_resource<__elided__> : tensor<480x20x1x1xf32>
    %cst_811 = arith.constant dense_resource<__elided__> : tensor<20xf32>
    %cst_812 = arith.constant dense_resource<__elided__> : tensor<20x480x1x1xf32>
    %cst_813 = arith.constant dense_resource<__elided__> : tensor<480xf32>
    %cst_814 = arith.constant dense_resource<__elided__> : tensor<480xf32>
    %cst_815 = arith.constant dense_resource<__elided__> : tensor<480xf32>
    %cst_816 = arith.constant dense_resource<__elided__> : tensor<480xf32>
    %cst_817 = arith.constant dense_resource<__elided__> : tensor<480x1x5x5xf32>
    %cst_818 = arith.constant dense_resource<__elided__> : tensor<480xf32>
    %cst_819 = arith.constant dense_resource<__elided__> : tensor<480xf32>
    %cst_820 = arith.constant dense_resource<__elided__> : tensor<480xf32>
    %cst_821 = arith.constant dense_resource<__elided__> : tensor<480xf32>
    %cst_822 = arith.constant dense_resource<__elided__> : tensor<480x80x1x1xf32>
    %cst_823 = arith.constant dense_resource<__elided__> : tensor<80xf32>
    %cst_824 = arith.constant dense_resource<__elided__> : tensor<80xf32>
    %cst_825 = arith.constant dense_resource<__elided__> : tensor<80xf32>
    %cst_826 = arith.constant dense_resource<__elided__> : tensor<80xf32>
    %cst_827 = arith.constant dense_resource<__elided__> : tensor<80x288x1x1xf32>
    %cst_828 = arith.constant dense_resource<__elided__> : tensor<288xf32>
    %cst_829 = arith.constant dense_resource<__elided__> : tensor<288x12x1x1xf32>
    %cst_830 = arith.constant dense_resource<__elided__> : tensor<12xf32>
    %cst_831 = arith.constant dense_resource<__elided__> : tensor<12x288x1x1xf32>
    %cst_832 = arith.constant dense_resource<__elided__> : tensor<288xf32>
    %cst_833 = arith.constant dense_resource<__elided__> : tensor<288xf32>
    %cst_834 = arith.constant dense_resource<__elided__> : tensor<288xf32>
    %cst_835 = arith.constant dense_resource<__elided__> : tensor<288xf32>
    %cst_836 = arith.constant dense_resource<__elided__> : tensor<288x1x5x5xf32>
    %cst_837 = arith.constant dense_resource<__elided__> : tensor<288xf32>
    %cst_838 = arith.constant dense_resource<__elided__> : tensor<288xf32>
    %cst_839 = arith.constant dense_resource<__elided__> : tensor<288xf32>
    %cst_840 = arith.constant dense_resource<__elided__> : tensor<288xf32>
    %cst_841 = arith.constant dense_resource<__elided__> : tensor<288x48x1x1xf32>
    %cst_842 = arith.constant dense_resource<__elided__> : tensor<48xf32>
    %cst_843 = arith.constant dense_resource<__elided__> : tensor<48xf32>
    %cst_844 = arith.constant dense_resource<__elided__> : tensor<48xf32>
    %cst_845 = arith.constant dense_resource<__elided__> : tensor<48xf32>
    %cst_846 = arith.constant dense_resource<__elided__> : tensor<48x288x1x1xf32>
    %cst_847 = arith.constant dense_resource<__elided__> : tensor<288xf32>
    %cst_848 = arith.constant dense_resource<__elided__> : tensor<288x12x1x1xf32>
    %cst_849 = arith.constant dense_resource<__elided__> : tensor<12xf32>
    %cst_850 = arith.constant dense_resource<__elided__> : tensor<12x288x1x1xf32>
    %cst_851 = arith.constant dense_resource<__elided__> : tensor<288xf32>
    %cst_852 = arith.constant dense_resource<__elided__> : tensor<288xf32>
    %cst_853 = arith.constant dense_resource<__elided__> : tensor<288xf32>
    %cst_854 = arith.constant dense_resource<__elided__> : tensor<288xf32>
    %cst_855 = arith.constant dense_resource<__elided__> : tensor<288x1x3x3xf32>
    %cst_856 = arith.constant dense_resource<__elided__> : tensor<288xf32>
    %cst_857 = arith.constant dense_resource<__elided__> : tensor<288xf32>
    %cst_858 = arith.constant dense_resource<__elided__> : tensor<288xf32>
    %cst_859 = arith.constant dense_resource<__elided__> : tensor<288xf32>
    %cst_860 = arith.constant dense_resource<__elided__> : tensor<288x48x1x1xf32>
    %cst_861 = arith.constant dense_resource<__elided__> : tensor<48xf32>
    %cst_862 = arith.constant dense_resource<__elided__> : tensor<48xf32>
    %cst_863 = arith.constant dense_resource<__elided__> : tensor<48xf32>
    %cst_864 = arith.constant dense_resource<__elided__> : tensor<48xf32>
    %cst_865 = arith.constant dense_resource<__elided__> : tensor<48x288x1x1xf32>
    %cst_866 = arith.constant dense_resource<__elided__> : tensor<288xf32>
    %cst_867 = arith.constant dense_resource<__elided__> : tensor<288x12x1x1xf32>
    %cst_868 = arith.constant dense_resource<__elided__> : tensor<12xf32>
    %cst_869 = arith.constant dense_resource<__elided__> : tensor<12x288x1x1xf32>
    %cst_870 = arith.constant dense_resource<__elided__> : tensor<288xf32>
    %cst_871 = arith.constant dense_resource<__elided__> : tensor<288xf32>
    %cst_872 = arith.constant dense_resource<__elided__> : tensor<288xf32>
    %cst_873 = arith.constant dense_resource<__elided__> : tensor<288xf32>
    %cst_874 = arith.constant dense_resource<__elided__> : tensor<288x1x3x3xf32>
    %cst_875 = arith.constant dense_resource<__elided__> : tensor<288xf32>
    %cst_876 = arith.constant dense_resource<__elided__> : tensor<288xf32>
    %cst_877 = arith.constant dense_resource<__elided__> : tensor<288xf32>
    %cst_878 = arith.constant dense_resource<__elided__> : tensor<288xf32>
    %cst_879 = arith.constant dense_resource<__elided__> : tensor<288x48x1x1xf32>
    %cst_880 = arith.constant dense_resource<__elided__> : tensor<48xf32>
    %cst_881 = arith.constant dense_resource<__elided__> : tensor<48xf32>
    %cst_882 = arith.constant dense_resource<__elided__> : tensor<48xf32>
    %cst_883 = arith.constant dense_resource<__elided__> : tensor<48xf32>
    %cst_884 = arith.constant dense_resource<__elided__> : tensor<48x288x1x1xf32>
    %cst_885 = arith.constant dense_resource<__elided__> : tensor<288xf32>
    %cst_886 = arith.constant dense_resource<__elided__> : tensor<288x12x1x1xf32>
    %cst_887 = arith.constant dense_resource<__elided__> : tensor<12xf32>
    %cst_888 = arith.constant dense_resource<__elided__> : tensor<12x288x1x1xf32>
    %cst_889 = arith.constant dense_resource<__elided__> : tensor<288xf32>
    %cst_890 = arith.constant dense_resource<__elided__> : tensor<288xf32>
    %cst_891 = arith.constant dense_resource<__elided__> : tensor<288xf32>
    %cst_892 = arith.constant dense_resource<__elided__> : tensor<288xf32>
    %cst_893 = arith.constant dense_resource<__elided__> : tensor<288x1x3x3xf32>
    %cst_894 = arith.constant dense_resource<__elided__> : tensor<288xf32>
    %cst_895 = arith.constant dense_resource<__elided__> : tensor<288xf32>
    %cst_896 = arith.constant dense_resource<__elided__> : tensor<288xf32>
    %cst_897 = arith.constant dense_resource<__elided__> : tensor<288xf32>
    %cst_898 = arith.constant dense_resource<__elided__> : tensor<288x48x1x1xf32>
    %cst_899 = arith.constant dense_resource<__elided__> : tensor<48xf32>
    %cst_900 = arith.constant dense_resource<__elided__> : tensor<48xf32>
    %cst_901 = arith.constant dense_resource<__elided__> : tensor<48xf32>
    %cst_902 = arith.constant dense_resource<__elided__> : tensor<48xf32>
    %cst_903 = arith.constant dense_resource<__elided__> : tensor<48x288x1x1xf32>
    %cst_904 = arith.constant dense_resource<__elided__> : tensor<288xf32>
    %cst_905 = arith.constant dense_resource<__elided__> : tensor<288x12x1x1xf32>
    %cst_906 = arith.constant dense_resource<__elided__> : tensor<12xf32>
    %cst_907 = arith.constant dense_resource<__elided__> : tensor<12x288x1x1xf32>
    %cst_908 = arith.constant dense_resource<__elided__> : tensor<288xf32>
    %cst_909 = arith.constant dense_resource<__elided__> : tensor<288xf32>
    %cst_910 = arith.constant dense_resource<__elided__> : tensor<288xf32>
    %cst_911 = arith.constant dense_resource<__elided__> : tensor<288xf32>
    %cst_912 = arith.constant dense_resource<__elided__> : tensor<288x1x3x3xf32>
    %cst_913 = arith.constant dense_resource<__elided__> : tensor<288xf32>
    %cst_914 = arith.constant dense_resource<__elided__> : tensor<288xf32>
    %cst_915 = arith.constant dense_resource<__elided__> : tensor<288xf32>
    %cst_916 = arith.constant dense_resource<__elided__> : tensor<288xf32>
    %cst_917 = arith.constant dense_resource<__elided__> : tensor<288x48x1x1xf32>
    %cst_918 = arith.constant dense_resource<__elided__> : tensor<48xf32>
    %cst_919 = arith.constant dense_resource<__elided__> : tensor<48xf32>
    %cst_920 = arith.constant dense_resource<__elided__> : tensor<48xf32>
    %cst_921 = arith.constant dense_resource<__elided__> : tensor<48xf32>
    %cst_922 = arith.constant dense_resource<__elided__> : tensor<48x288x1x1xf32>
    %cst_923 = arith.constant dense_resource<__elided__> : tensor<288xf32>
    %cst_924 = arith.constant dense_resource<__elided__> : tensor<288x12x1x1xf32>
    %cst_925 = arith.constant dense_resource<__elided__> : tensor<12xf32>
    %cst_926 = arith.constant dense_resource<__elided__> : tensor<12x288x1x1xf32>
    %cst_927 = arith.constant dense_resource<__elided__> : tensor<288xf32>
    %cst_928 = arith.constant dense_resource<__elided__> : tensor<288xf32>
    %cst_929 = arith.constant dense_resource<__elided__> : tensor<288xf32>
    %cst_930 = arith.constant dense_resource<__elided__> : tensor<288xf32>
    %cst_931 = arith.constant dense_resource<__elided__> : tensor<288x1x3x3xf32>
    %cst_932 = arith.constant dense_resource<__elided__> : tensor<288xf32>
    %cst_933 = arith.constant dense_resource<__elided__> : tensor<288xf32>
    %cst_934 = arith.constant dense_resource<__elided__> : tensor<288xf32>
    %cst_935 = arith.constant dense_resource<__elided__> : tensor<288xf32>
    %cst_936 = arith.constant dense_resource<__elided__> : tensor<288x48x1x1xf32>
    %cst_937 = arith.constant dense_resource<__elided__> : tensor<48xf32>
    %cst_938 = arith.constant dense_resource<__elided__> : tensor<48xf32>
    %cst_939 = arith.constant dense_resource<__elided__> : tensor<48xf32>
    %cst_940 = arith.constant dense_resource<__elided__> : tensor<48xf32>
    %cst_941 = arith.constant dense_resource<__elided__> : tensor<48x288x1x1xf32>
    %cst_942 = arith.constant dense_resource<__elided__> : tensor<288xf32>
    %cst_943 = arith.constant dense_resource<__elided__> : tensor<288x12x1x1xf32>
    %cst_944 = arith.constant dense_resource<__elided__> : tensor<12xf32>
    %cst_945 = arith.constant dense_resource<__elided__> : tensor<12x288x1x1xf32>
    %cst_946 = arith.constant dense_resource<__elided__> : tensor<288xf32>
    %cst_947 = arith.constant dense_resource<__elided__> : tensor<288xf32>
    %cst_948 = arith.constant dense_resource<__elided__> : tensor<288xf32>
    %cst_949 = arith.constant dense_resource<__elided__> : tensor<288xf32>
    %cst_950 = arith.constant dense_resource<__elided__> : tensor<288x1x3x3xf32>
    %cst_951 = arith.constant dense_resource<__elided__> : tensor<288xf32>
    %cst_952 = arith.constant dense_resource<__elided__> : tensor<288xf32>
    %cst_953 = arith.constant dense_resource<__elided__> : tensor<288xf32>
    %cst_954 = arith.constant dense_resource<__elided__> : tensor<288xf32>
    %cst_955 = arith.constant dense_resource<__elided__> : tensor<288x48x1x1xf32>
    %cst_956 = arith.constant dense_resource<__elided__> : tensor<48xf32>
    %cst_957 = arith.constant dense_resource<__elided__> : tensor<48xf32>
    %cst_958 = arith.constant dense_resource<__elided__> : tensor<48xf32>
    %cst_959 = arith.constant dense_resource<__elided__> : tensor<48xf32>
    %cst_960 = arith.constant dense_resource<__elided__> : tensor<48x192x1x1xf32>
    %cst_961 = arith.constant dense_resource<__elided__> : tensor<192xf32>
    %cst_962 = arith.constant dense_resource<__elided__> : tensor<192x8x1x1xf32>
    %cst_963 = arith.constant dense<[0.0303641018, 0.00453905808, 0.0185847785, 0.0227163658, 0.00591206457, 0.00451850705, 0.0024824976, 0.0164530147]> : tensor<8xf32>
    %cst_964 = arith.constant dense_resource<__elided__> : tensor<8x192x1x1xf32>
    %cst_965 = arith.constant dense_resource<__elided__> : tensor<192xf32>
    %cst_966 = arith.constant dense_resource<__elided__> : tensor<192xf32>
    %cst_967 = arith.constant dense_resource<__elided__> : tensor<192xf32>
    %cst_968 = arith.constant dense_resource<__elided__> : tensor<192xf32>
    %cst_969 = arith.constant dense_resource<__elided__> : tensor<192x1x3x3xf32>
    %cst_970 = arith.constant dense_resource<__elided__> : tensor<192xf32>
    %cst_971 = arith.constant dense_resource<__elided__> : tensor<192xf32>
    %cst_972 = arith.constant dense_resource<__elided__> : tensor<192xf32>
    %cst_973 = arith.constant dense_resource<__elided__> : tensor<192xf32>
    %cst_974 = arith.constant dense_resource<__elided__> : tensor<192x32x1x1xf32>
    %cst_975 = arith.constant dense_resource<__elided__> : tensor<32xf32>
    %cst_976 = arith.constant dense_resource<__elided__> : tensor<32xf32>
    %cst_977 = arith.constant dense_resource<__elided__> : tensor<32xf32>
    %cst_978 = arith.constant dense_resource<__elided__> : tensor<32xf32>
    %cst_979 = arith.constant dense_resource<__elided__> : tensor<32x32x1x1xf32>
    %cst_980 = arith.constant dense_resource<__elided__> : tensor<32xf32>
    %cst_981 = arith.constant dense_resource<__elided__> : tensor<32x8x1x1xf32>
    %cst_982 = arith.constant dense<[-0.00522768777, -0.00525168376, -0.00530744065, -5.266880e-03, -0.0052431752, -0.00524235051, -0.0052018459, -0.0052242903]> : tensor<8xf32>
    %cst_983 = arith.constant dense_resource<__elided__> : tensor<8x32x1x1xf32>
    %cst_984 = arith.constant dense_resource<__elided__> : tensor<32xf32>
    %cst_985 = arith.constant dense_resource<__elided__> : tensor<32xf32>
    %cst_986 = arith.constant dense_resource<__elided__> : tensor<32xf32>
    %cst_987 = arith.constant dense_resource<__elided__> : tensor<32xf32>
    %cst_988 = arith.constant dense_resource<__elided__> : tensor<32x1x3x3xf32>
    %cst_989 = arith.constant dense_resource<__elided__> : tensor<32xf32>
    %cst_990 = arith.constant dense_resource<__elided__> : tensor<32xf32>
    %cst_991 = arith.constant dense_resource<__elided__> : tensor<32xf32>
    %cst_992 = arith.constant dense_resource<__elided__> : tensor<32xf32>
    %cst_993 = arith.constant dense_resource<__elided__> : tensor<32x32x1x1xf32>
    %cst_994 = arith.constant dense_resource<__elided__> : tensor<32xf32>
    %cst_995 = arith.constant dense_resource<__elided__> : tensor<32x8x1x1xf32>
    %cst_996 = arith.constant dense<[0.0525394827, 0.0527744927, 0.0466452651, 0.0219270587, 0.0319869705, 0.0210196599, 0.0135361683, 0.0773443803]> : tensor<8xf32>
    %cst_997 = arith.constant dense_resource<__elided__> : tensor<8x32x1x1xf32>
    %cst_998 = arith.constant dense_resource<__elided__> : tensor<32xf32>
    %cst_999 = arith.constant dense_resource<__elided__> : tensor<32xf32>
    %cst_1000 = arith.constant dense_resource<__elided__> : tensor<32xf32>
    %cst_1001 = arith.constant dense_resource<__elided__> : tensor<32xf32>
    %cst_1002 = arith.constant dense_resource<__elided__> : tensor<32x1x3x3xf32>
    %cst_1003 = arith.constant dense_resource<__elided__> : tensor<32xf32>
    %cst_1004 = arith.constant dense_resource<__elided__> : tensor<32xf32>
    %cst_1005 = arith.constant dense_resource<__elided__> : tensor<32xf32>
    %cst_1006 = arith.constant dense_resource<__elided__> : tensor<32xf32>
    %cst_1007 = arith.constant dense_resource<__elided__> : tensor<32x32x1x1xf32>
    %cst_1008 = arith.constant dense_resource<__elided__> : tensor<32xf32>
    %cst_1009 = arith.constant dense_resource<__elided__> : tensor<32x8x1x1xf32>
    %cst_1010 = arith.constant dense<[-0.00243191281, 0.0282418616, -0.00250339904, -0.0020024816, 0.0321315862, -0.00249919901, -0.00252722809, 0.0247825421]> : tensor<8xf32>
    %cst_1011 = arith.constant dense_resource<__elided__> : tensor<8x32x1x1xf32>
    %cst_1012 = arith.constant dense_resource<__elided__> : tensor<32xf32>
    %cst_1013 = arith.constant dense_resource<__elided__> : tensor<32xf32>
    %cst_1014 = arith.constant dense_resource<__elided__> : tensor<32xf32>
    %cst_1015 = arith.constant dense_resource<__elided__> : tensor<32xf32>
    %cst_1016 = arith.constant dense_resource<__elided__> : tensor<32x1x3x3xf32>
    %cst_1017 = arith.constant dense_resource<__elided__> : tensor<32xf32>
    %cst_1018 = arith.constant dense_resource<__elided__> : tensor<32xf32>
    %cst_1019 = arith.constant dense_resource<__elided__> : tensor<32xf32>
    %cst_1020 = arith.constant dense_resource<__elided__> : tensor<32xf32>
    %cst_1021 = arith.constant dense_resource<__elided__> : tensor<32x64x1x1xf32>
    %cst_1022 = arith.constant dense_resource<__elided__> : tensor<64xf32>
    %cst_1023 = arith.constant dense_resource<__elided__> : tensor<64x16x1x1xf32>
    %cst_1024 = arith.constant dense_resource<__elided__> : tensor<16xf32>
    %cst_1025 = arith.constant dense_resource<__elided__> : tensor<16x64x1x1xf32>
    %cst_1026 = arith.constant dense_resource<__elided__> : tensor<64xf32>
    %cst_1027 = arith.constant dense_resource<__elided__> : tensor<64xf32>
    %cst_1028 = arith.constant dense_resource<__elided__> : tensor<64xf32>
    %cst_1029 = arith.constant dense_resource<__elided__> : tensor<64xf32>
    %cst_1030 = arith.constant dense_resource<__elided__> : tensor<64x1x3x3xf32>
    %cst_1031 = arith.constant dense_resource<__elided__> : tensor<64xf32>
    %cst_1032 = arith.constant dense_resource<__elided__> : tensor<64xf32>
    %cst_1033 = arith.constant dense_resource<__elided__> : tensor<64xf32>
    %cst_1034 = arith.constant dense_resource<__elided__> : tensor<64xf32>
    %cst_1035 = arith.constant dense_resource<__elided__> : tensor<64x3x3x3xf32>
    %false = arith.constant false
    %cst_1036 = arith.constant 0.000000e+00 : f32
    %cst_1037 = arith.constant 1.000000e+00 : f32
    %cst_1038 = arith.constant 1.000000e-03 : f64
    %c0 = arith.constant 0 : index
    %c1 = arith.constant 1 : index
    %cst_1039 = arith.constant 9.000000e+04 : f32
    %cst_1040 = arith.constant 2.250000e+04 : f32
    %c2 = arith.constant 2 : index
    %cst_1041 = arith.constant 5.625000e+03 : f32
    %cst_1042 = arith.constant 1.444000e+03 : f32
    %cst_1043 = arith.constant 3.610000e+02 : f32
    %padded = tensor.pad %arg0 low[0, 0, 1, 1] high[0, 0, 1, 1] {
    ^bb0(%arg1: index, %arg2: index, %arg3: index, %arg4: index):
      tensor.yield %cst_1036 : f32
    } : tensor<1x3x600x600xf32> to tensor<1x3x602x602xf32>
    %0 = tensor.empty() : tensor<1x64x300x300xf32>
    %1 = linalg.fill ins(%cst_1036 : f32) outs(%0 : tensor<1x64x300x300xf32>) -> tensor<1x64x300x300xf32>
    %2 = linalg.conv_2d_nchw_fchw {dilations = dense<1> : vector<2xi64>, strides = dense<2> : vector<2xi64>} ins(%padded, %cst_1035 : tensor<1x3x602x602xf32>, tensor<64x3x3x3xf32>) outs(%1 : tensor<1x64x300x300xf32>) -> tensor<1x64x300x300xf32>
    %3 = arith.cmpi eq, %false, %false : i1
    cf.assert %3, "training is not supported for now"
    %4 = linalg.generic {indexing_maps = [#map, #map1, #map1, #map1, #map1, #map], iterator_types = ["parallel", "parallel", "parallel", "parallel"]} ins(%2, %cst_1032, %cst_1031, %cst_1034, %cst_1033 : tensor<1x64x300x300xf32>, tensor<64xf32>, tensor<64xf32>, tensor<64xf32>, tensor<64xf32>) outs(%2 : tensor<1x64x300x300xf32>) {
    ^bb0(%in: f32, %in_1154: f32, %in_1155: f32, %in_1156: f32, %in_1157: f32, %out: f32):
      %1222 = arith.truncf %cst_1038 : f64 to f32
      %1223 = arith.addf %in_1157, %1222 : f32
      %1224 = math.rsqrt %1223 : f32
      %1225 = arith.subf %in, %in_1156 : f32
      %1226 = arith.mulf %1225, %1224 : f32
      %1227 = arith.mulf %1226, %in_1154 : f32
      %1228 = arith.addf %1227, %in_1155 : f32
      linalg.yield %1228 : f32
    } -> tensor<1x64x300x300xf32>
    %5 = linalg.generic {indexing_maps = [#map2, #map], iterator_types = ["parallel", "parallel", "parallel", "parallel"]} ins(%4 : tensor<1x64x300x300xf32>) outs(%0 : tensor<1x64x300x300xf32>) {
    ^bb0(%in: f32, %out: f32):
      %1222 = arith.negf %in : f32
      %1223 = math.exp %1222 : f32
      %1224 = arith.addf %1223, %cst_1037 : f32
      %1225 = arith.divf %cst_1037, %1224 : f32
      linalg.yield %1225 : f32
    } -> tensor<1x64x300x300xf32>
    %6 = linalg.generic {indexing_maps = [#map2, #map2, #map], iterator_types = ["parallel", "parallel", "parallel", "parallel"]} ins(%5, %4 : tensor<1x64x300x300xf32>, tensor<1x64x300x300xf32>) outs(%0 : tensor<1x64x300x300xf32>) {
    ^bb0(%in: f32, %in_1154: f32, %out: f32):
      %1222 = arith.mulf %in, %in_1154 : f32
      linalg.yield %1222 : f32
    } -> tensor<1x64x300x300xf32>
    %padded_1044 = tensor.pad %6 low[0, 0, 1, 1] high[0, 0, 1, 1] {
    ^bb0(%arg1: index, %arg2: index, %arg3: index, %arg4: index):
      tensor.yield %cst_1036 : f32
    } : tensor<1x64x300x300xf32> to tensor<1x64x302x302xf32>
    %collapsed = tensor.collapse_shape %cst_1030 [[0, 1], [2], [3]] : tensor<64x1x3x3xf32> into tensor<64x3x3xf32>
    %7 = linalg.depthwise_conv_2d_nchw_chw {dilations = dense<1> : vector<2xi64>, strides = dense<1> : vector<2xi64>} ins(%padded_1044, %collapsed : tensor<1x64x302x302xf32>, tensor<64x3x3xf32>) outs(%1 : tensor<1x64x300x300xf32>) -> tensor<1x64x300x300xf32>
    cf.assert %3, "training is not supported for now"
    %8 = linalg.generic {indexing_maps = [#map, #map1, #map1, #map1, #map1, #map], iterator_types = ["parallel", "parallel", "parallel", "parallel"]} ins(%7, %cst_1027, %cst_1026, %cst_1029, %cst_1028 : tensor<1x64x300x300xf32>, tensor<64xf32>, tensor<64xf32>, tensor<64xf32>, tensor<64xf32>) outs(%7 : tensor<1x64x300x300xf32>) {
    ^bb0(%in: f32, %in_1154: f32, %in_1155: f32, %in_1156: f32, %in_1157: f32, %out: f32):
      %1222 = arith.truncf %cst_1038 : f64 to f32
      %1223 = arith.addf %in_1157, %1222 : f32
      %1224 = math.rsqrt %1223 : f32
      %1225 = arith.subf %in, %in_1156 : f32
      %1226 = arith.mulf %1225, %1224 : f32
      %1227 = arith.mulf %1226, %in_1154 : f32
      %1228 = arith.addf %1227, %in_1155 : f32
      linalg.yield %1228 : f32
    } -> tensor<1x64x300x300xf32>
    %9 = linalg.generic {indexing_maps = [#map2, #map], iterator_types = ["parallel", "parallel", "parallel", "parallel"]} ins(%8 : tensor<1x64x300x300xf32>) outs(%0 : tensor<1x64x300x300xf32>) {
    ^bb0(%in: f32, %out: f32):
      %1222 = arith.negf %in : f32
      %1223 = math.exp %1222 : f32
      %1224 = arith.addf %1223, %cst_1037 : f32
      %1225 = arith.divf %cst_1037, %1224 : f32
      linalg.yield %1225 : f32
    } -> tensor<1x64x300x300xf32>
    %10 = linalg.generic {indexing_maps = [#map2, #map2, #map], iterator_types = ["parallel", "parallel", "parallel", "parallel"]} ins(%9, %8 : tensor<1x64x300x300xf32>, tensor<1x64x300x300xf32>) outs(%0 : tensor<1x64x300x300xf32>) {
    ^bb0(%in: f32, %in_1154: f32, %out: f32):
      %1222 = arith.mulf %in, %in_1154 : f32
      linalg.yield %1222 : f32
    } -> tensor<1x64x300x300xf32>
    %11 = tensor.empty() : tensor<1x64x1x1xf32>
    %12 = linalg.fill ins(%cst_1036 : f32) outs(%11 : tensor<1x64x1x1xf32>) -> tensor<1x64x1x1xf32>
    %13 = tensor.empty() : tensor<300x300xf32>
    %14 = linalg.pooling_nchw_sum {dilations = dense<1> : vector<2xi64>, strides = dense<1> : vector<2xi64>} ins(%10, %13 : tensor<1x64x300x300xf32>, tensor<300x300xf32>) outs(%12 : tensor<1x64x1x1xf32>) -> tensor<1x64x1x1xf32>
    %15 = linalg.generic {indexing_maps = [#map, #map], iterator_types = ["parallel", "parallel", "parallel", "parallel"]} ins(%14 : tensor<1x64x1x1xf32>) outs(%11 : tensor<1x64x1x1xf32>) {
    ^bb0(%in: f32, %out: f32):
      %1222 = arith.divf %in, %cst_1039 : f32
      linalg.yield %1222 : f32
    } -> tensor<1x64x1x1xf32>
    %16 = tensor.empty() : tensor<1x16x1x1xf32>
    %17 = linalg.generic {indexing_maps = [#map1, #map], iterator_types = ["parallel", "parallel", "parallel", "parallel"]} ins(%cst_1024 : tensor<16xf32>) outs(%16 : tensor<1x16x1x1xf32>) {
    ^bb0(%in: f32, %out: f32):
      linalg.yield %in : f32
    } -> tensor<1x16x1x1xf32>
    %18 = linalg.conv_2d_nchw_fchw {dilations = dense<1> : vector<2xi64>, strides = dense<1> : vector<2xi64>} ins(%15, %cst_1025 : tensor<1x64x1x1xf32>, tensor<16x64x1x1xf32>) outs(%17 : tensor<1x16x1x1xf32>) -> tensor<1x16x1x1xf32>
    %19 = linalg.generic {indexing_maps = [#map3, #map], iterator_types = ["parallel", "parallel", "parallel", "parallel"]} ins(%18 : tensor<1x16x1x1xf32>) outs(%16 : tensor<1x16x1x1xf32>) {
    ^bb0(%in: f32, %out: f32):
      %1222 = arith.negf %in : f32
      %1223 = math.exp %1222 : f32
      %1224 = arith.addf %1223, %cst_1037 : f32
      %1225 = arith.divf %cst_1037, %1224 : f32
      linalg.yield %1225 : f32
    } -> tensor<1x16x1x1xf32>
    %20 = linalg.generic {indexing_maps = [#map3, #map3, #map], iterator_types = ["parallel", "parallel", "parallel", "parallel"]} ins(%19, %18 : tensor<1x16x1x1xf32>, tensor<1x16x1x1xf32>) outs(%16 : tensor<1x16x1x1xf32>) {
    ^bb0(%in: f32, %in_1154: f32, %out: f32):
      %1222 = arith.mulf %in, %in_1154 : f32
      linalg.yield %1222 : f32
    } -> tensor<1x16x1x1xf32>
    %21 = linalg.generic {indexing_maps = [#map1, #map], iterator_types = ["parallel", "parallel", "parallel", "parallel"]} ins(%cst_1022 : tensor<64xf32>) outs(%11 : tensor<1x64x1x1xf32>) {
    ^bb0(%in: f32, %out: f32):
      linalg.yield %in : f32
    } -> tensor<1x64x1x1xf32>
    %22 = linalg.conv_2d_nchw_fchw {dilations = dense<1> : vector<2xi64>, strides = dense<1> : vector<2xi64>} ins(%20, %cst_1023 : tensor<1x16x1x1xf32>, tensor<64x16x1x1xf32>) outs(%21 : tensor<1x64x1x1xf32>) -> tensor<1x64x1x1xf32>
    %23 = linalg.generic {indexing_maps = [#map3, #map], iterator_types = ["parallel", "parallel", "parallel", "parallel"]} ins(%22 : tensor<1x64x1x1xf32>) outs(%11 : tensor<1x64x1x1xf32>) {
    ^bb0(%in: f32, %out: f32):
      %1222 = arith.negf %in : f32
      %1223 = math.exp %1222 : f32
      %1224 = arith.addf %1223, %cst_1037 : f32
      %1225 = arith.divf %cst_1037, %1224 : f32
      linalg.yield %1225 : f32
    } -> tensor<1x64x1x1xf32>
    %24 = linalg.generic {indexing_maps = [#map3, #map2, #map], iterator_types = ["parallel", "parallel", "parallel", "parallel"]} ins(%23, %10 : tensor<1x64x1x1xf32>, tensor<1x64x300x300xf32>) outs(%0 : tensor<1x64x300x300xf32>) {
    ^bb0(%in: f32, %in_1154: f32, %out: f32):
      %1222 = arith.mulf %in, %in_1154 : f32
      linalg.yield %1222 : f32
    } -> tensor<1x64x300x300xf32>
    %25 = tensor.empty() : tensor<1x32x300x300xf32>
    %26 = linalg.fill ins(%cst_1036 : f32) outs(%25 : tensor<1x32x300x300xf32>) -> tensor<1x32x300x300xf32>
    %27 = linalg.conv_2d_nchw_fchw {dilations = dense<1> : vector<2xi64>, strides = dense<1> : vector<2xi64>} ins(%24, %cst_1021 : tensor<1x64x300x300xf32>, tensor<32x64x1x1xf32>) outs(%26 : tensor<1x32x300x300xf32>) -> tensor<1x32x300x300xf32>
    cf.assert %3, "training is not supported for now"
    %28 = linalg.generic {indexing_maps = [#map, #map1, #map1, #map1, #map1, #map], iterator_types = ["parallel", "parallel", "parallel", "parallel"]} ins(%27, %cst_1018, %cst_1017, %cst_1020, %cst_1019 : tensor<1x32x300x300xf32>, tensor<32xf32>, tensor<32xf32>, tensor<32xf32>, tensor<32xf32>) outs(%27 : tensor<1x32x300x300xf32>) {
    ^bb0(%in: f32, %in_1154: f32, %in_1155: f32, %in_1156: f32, %in_1157: f32, %out: f32):
      %1222 = arith.truncf %cst_1038 : f64 to f32
      %1223 = arith.addf %in_1157, %1222 : f32
      %1224 = math.rsqrt %1223 : f32
      %1225 = arith.subf %in, %in_1156 : f32
      %1226 = arith.mulf %1225, %1224 : f32
      %1227 = arith.mulf %1226, %in_1154 : f32
      %1228 = arith.addf %1227, %in_1155 : f32
      linalg.yield %1228 : f32
    } -> tensor<1x32x300x300xf32>
    %padded_1045 = tensor.pad %28 low[0, 0, 1, 1] high[0, 0, 1, 1] {
    ^bb0(%arg1: index, %arg2: index, %arg3: index, %arg4: index):
      tensor.yield %cst_1036 : f32
    } : tensor<1x32x300x300xf32> to tensor<1x32x302x302xf32>
    %collapsed_1046 = tensor.collapse_shape %cst_1016 [[0, 1], [2], [3]] : tensor<32x1x3x3xf32> into tensor<32x3x3xf32>
    %29 = linalg.depthwise_conv_2d_nchw_chw {dilations = dense<1> : vector<2xi64>, strides = dense<1> : vector<2xi64>} ins(%padded_1045, %collapsed_1046 : tensor<1x32x302x302xf32>, tensor<32x3x3xf32>) outs(%26 : tensor<1x32x300x300xf32>) -> tensor<1x32x300x300xf32>
    cf.assert %3, "training is not supported for now"
    %30 = linalg.generic {indexing_maps = [#map, #map1, #map1, #map1, #map1, #map], iterator_types = ["parallel", "parallel", "parallel", "parallel"]} ins(%29, %cst_1013, %cst_1012, %cst_1015, %cst_1014 : tensor<1x32x300x300xf32>, tensor<32xf32>, tensor<32xf32>, tensor<32xf32>, tensor<32xf32>) outs(%29 : tensor<1x32x300x300xf32>) {
    ^bb0(%in: f32, %in_1154: f32, %in_1155: f32, %in_1156: f32, %in_1157: f32, %out: f32):
      %1222 = arith.truncf %cst_1038 : f64 to f32
      %1223 = arith.addf %in_1157, %1222 : f32
      %1224 = math.rsqrt %1223 : f32
      %1225 = arith.subf %in, %in_1156 : f32
      %1226 = arith.mulf %1225, %1224 : f32
      %1227 = arith.mulf %1226, %in_1154 : f32
      %1228 = arith.addf %1227, %in_1155 : f32
      linalg.yield %1228 : f32
    } -> tensor<1x32x300x300xf32>
    %31 = linalg.generic {indexing_maps = [#map2, #map], iterator_types = ["parallel", "parallel", "parallel", "parallel"]} ins(%30 : tensor<1x32x300x300xf32>) outs(%25 : tensor<1x32x300x300xf32>) {
    ^bb0(%in: f32, %out: f32):
      %1222 = arith.negf %in : f32
      %1223 = math.exp %1222 : f32
      %1224 = arith.addf %1223, %cst_1037 : f32
      %1225 = arith.divf %cst_1037, %1224 : f32
      linalg.yield %1225 : f32
    } -> tensor<1x32x300x300xf32>
    %32 = linalg.generic {indexing_maps = [#map2, #map2, #map], iterator_types = ["parallel", "parallel", "parallel", "parallel"]} ins(%31, %30 : tensor<1x32x300x300xf32>, tensor<1x32x300x300xf32>) outs(%25 : tensor<1x32x300x300xf32>) {
    ^bb0(%in: f32, %in_1154: f32, %out: f32):
      %1222 = arith.mulf %in, %in_1154 : f32
      linalg.yield %1222 : f32
    } -> tensor<1x32x300x300xf32>
    %33 = tensor.empty() : tensor<1x32x1x1xf32>
    %34 = linalg.fill ins(%cst_1036 : f32) outs(%33 : tensor<1x32x1x1xf32>) -> tensor<1x32x1x1xf32>
    %35 = linalg.pooling_nchw_sum {dilations = dense<1> : vector<2xi64>, strides = dense<1> : vector<2xi64>} ins(%32, %13 : tensor<1x32x300x300xf32>, tensor<300x300xf32>) outs(%34 : tensor<1x32x1x1xf32>) -> tensor<1x32x1x1xf32>
    %36 = linalg.generic {indexing_maps = [#map, #map], iterator_types = ["parallel", "parallel", "parallel", "parallel"]} ins(%35 : tensor<1x32x1x1xf32>) outs(%33 : tensor<1x32x1x1xf32>) {
    ^bb0(%in: f32, %out: f32):
      %1222 = arith.divf %in, %cst_1039 : f32
      linalg.yield %1222 : f32
    } -> tensor<1x32x1x1xf32>
    %37 = tensor.empty() : tensor<1x8x1x1xf32>
    %38 = linalg.generic {indexing_maps = [#map1, #map], iterator_types = ["parallel", "parallel", "parallel", "parallel"]} ins(%cst_1010 : tensor<8xf32>) outs(%37 : tensor<1x8x1x1xf32>) {
    ^bb0(%in: f32, %out: f32):
      linalg.yield %in : f32
    } -> tensor<1x8x1x1xf32>
    %39 = linalg.conv_2d_nchw_fchw {dilations = dense<1> : vector<2xi64>, strides = dense<1> : vector<2xi64>} ins(%36, %cst_1011 : tensor<1x32x1x1xf32>, tensor<8x32x1x1xf32>) outs(%38 : tensor<1x8x1x1xf32>) -> tensor<1x8x1x1xf32>
    %40 = linalg.generic {indexing_maps = [#map3, #map], iterator_types = ["parallel", "parallel", "parallel", "parallel"]} ins(%39 : tensor<1x8x1x1xf32>) outs(%37 : tensor<1x8x1x1xf32>) {
    ^bb0(%in: f32, %out: f32):
      %1222 = arith.negf %in : f32
      %1223 = math.exp %1222 : f32
      %1224 = arith.addf %1223, %cst_1037 : f32
      %1225 = arith.divf %cst_1037, %1224 : f32
      linalg.yield %1225 : f32
    } -> tensor<1x8x1x1xf32>
    %41 = linalg.generic {indexing_maps = [#map3, #map3, #map], iterator_types = ["parallel", "parallel", "parallel", "parallel"]} ins(%40, %39 : tensor<1x8x1x1xf32>, tensor<1x8x1x1xf32>) outs(%37 : tensor<1x8x1x1xf32>) {
    ^bb0(%in: f32, %in_1154: f32, %out: f32):
      %1222 = arith.mulf %in, %in_1154 : f32
      linalg.yield %1222 : f32
    } -> tensor<1x8x1x1xf32>
    %42 = linalg.generic {indexing_maps = [#map1, #map], iterator_types = ["parallel", "parallel", "parallel", "parallel"]} ins(%cst_1008 : tensor<32xf32>) outs(%33 : tensor<1x32x1x1xf32>) {
    ^bb0(%in: f32, %out: f32):
      linalg.yield %in : f32
    } -> tensor<1x32x1x1xf32>
    %43 = linalg.conv_2d_nchw_fchw {dilations = dense<1> : vector<2xi64>, strides = dense<1> : vector<2xi64>} ins(%41, %cst_1009 : tensor<1x8x1x1xf32>, tensor<32x8x1x1xf32>) outs(%42 : tensor<1x32x1x1xf32>) -> tensor<1x32x1x1xf32>
    %44 = linalg.generic {indexing_maps = [#map3, #map], iterator_types = ["parallel", "parallel", "parallel", "parallel"]} ins(%43 : tensor<1x32x1x1xf32>) outs(%33 : tensor<1x32x1x1xf32>) {
    ^bb0(%in: f32, %out: f32):
      %1222 = arith.negf %in : f32
      %1223 = math.exp %1222 : f32
      %1224 = arith.addf %1223, %cst_1037 : f32
      %1225 = arith.divf %cst_1037, %1224 : f32
      linalg.yield %1225 : f32
    } -> tensor<1x32x1x1xf32>
    %45 = linalg.generic {indexing_maps = [#map3, #map2, #map], iterator_types = ["parallel", "parallel", "parallel", "parallel"]} ins(%44, %32 : tensor<1x32x1x1xf32>, tensor<1x32x300x300xf32>) outs(%25 : tensor<1x32x300x300xf32>) {
    ^bb0(%in: f32, %in_1154: f32, %out: f32):
      %1222 = arith.mulf %in, %in_1154 : f32
      linalg.yield %1222 : f32
    } -> tensor<1x32x300x300xf32>
    %46 = linalg.conv_2d_nchw_fchw {dilations = dense<1> : vector<2xi64>, strides = dense<1> : vector<2xi64>} ins(%45, %cst_1007 : tensor<1x32x300x300xf32>, tensor<32x32x1x1xf32>) outs(%26 : tensor<1x32x300x300xf32>) -> tensor<1x32x300x300xf32>
    cf.assert %3, "training is not supported for now"
    %47 = linalg.generic {indexing_maps = [#map, #map1, #map1, #map1, #map1, #map], iterator_types = ["parallel", "parallel", "parallel", "parallel"]} ins(%46, %cst_1004, %cst_1003, %cst_1006, %cst_1005 : tensor<1x32x300x300xf32>, tensor<32xf32>, tensor<32xf32>, tensor<32xf32>, tensor<32xf32>) outs(%46 : tensor<1x32x300x300xf32>) {
    ^bb0(%in: f32, %in_1154: f32, %in_1155: f32, %in_1156: f32, %in_1157: f32, %out: f32):
      %1222 = arith.truncf %cst_1038 : f64 to f32
      %1223 = arith.addf %in_1157, %1222 : f32
      %1224 = math.rsqrt %1223 : f32
      %1225 = arith.subf %in, %in_1156 : f32
      %1226 = arith.mulf %1225, %1224 : f32
      %1227 = arith.mulf %1226, %in_1154 : f32
      %1228 = arith.addf %1227, %in_1155 : f32
      linalg.yield %1228 : f32
    } -> tensor<1x32x300x300xf32>
    %48 = linalg.generic {indexing_maps = [#map2, #map2, #map], iterator_types = ["parallel", "parallel", "parallel", "parallel"]} ins(%47, %28 : tensor<1x32x300x300xf32>, tensor<1x32x300x300xf32>) outs(%25 : tensor<1x32x300x300xf32>) {
    ^bb0(%in: f32, %in_1154: f32, %out: f32):
      %1222 = arith.addf %in, %in_1154 : f32
      linalg.yield %1222 : f32
    } -> tensor<1x32x300x300xf32>
    %padded_1047 = tensor.pad %48 low[0, 0, 1, 1] high[0, 0, 1, 1] {
    ^bb0(%arg1: index, %arg2: index, %arg3: index, %arg4: index):
      tensor.yield %cst_1036 : f32
    } : tensor<1x32x300x300xf32> to tensor<1x32x302x302xf32>
    %collapsed_1048 = tensor.collapse_shape %cst_1002 [[0, 1], [2], [3]] : tensor<32x1x3x3xf32> into tensor<32x3x3xf32>
    %49 = linalg.depthwise_conv_2d_nchw_chw {dilations = dense<1> : vector<2xi64>, strides = dense<1> : vector<2xi64>} ins(%padded_1047, %collapsed_1048 : tensor<1x32x302x302xf32>, tensor<32x3x3xf32>) outs(%26 : tensor<1x32x300x300xf32>) -> tensor<1x32x300x300xf32>
    cf.assert %3, "training is not supported for now"
    %50 = linalg.generic {indexing_maps = [#map, #map1, #map1, #map1, #map1, #map], iterator_types = ["parallel", "parallel", "parallel", "parallel"]} ins(%49, %cst_999, %cst_998, %cst_1001, %cst_1000 : tensor<1x32x300x300xf32>, tensor<32xf32>, tensor<32xf32>, tensor<32xf32>, tensor<32xf32>) outs(%49 : tensor<1x32x300x300xf32>) {
    ^bb0(%in: f32, %in_1154: f32, %in_1155: f32, %in_1156: f32, %in_1157: f32, %out: f32):
      %1222 = arith.truncf %cst_1038 : f64 to f32
      %1223 = arith.addf %in_1157, %1222 : f32
      %1224 = math.rsqrt %1223 : f32
      %1225 = arith.subf %in, %in_1156 : f32
      %1226 = arith.mulf %1225, %1224 : f32
      %1227 = arith.mulf %1226, %in_1154 : f32
      %1228 = arith.addf %1227, %in_1155 : f32
      linalg.yield %1228 : f32
    } -> tensor<1x32x300x300xf32>
    %51 = linalg.generic {indexing_maps = [#map2, #map], iterator_types = ["parallel", "parallel", "parallel", "parallel"]} ins(%50 : tensor<1x32x300x300xf32>) outs(%25 : tensor<1x32x300x300xf32>) {
    ^bb0(%in: f32, %out: f32):
      %1222 = arith.negf %in : f32
      %1223 = math.exp %1222 : f32
      %1224 = arith.addf %1223, %cst_1037 : f32
      %1225 = arith.divf %cst_1037, %1224 : f32
      linalg.yield %1225 : f32
    } -> tensor<1x32x300x300xf32>
    %52 = linalg.generic {indexing_maps = [#map2, #map2, #map], iterator_types = ["parallel", "parallel", "parallel", "parallel"]} ins(%51, %50 : tensor<1x32x300x300xf32>, tensor<1x32x300x300xf32>) outs(%25 : tensor<1x32x300x300xf32>) {
    ^bb0(%in: f32, %in_1154: f32, %out: f32):
      %1222 = arith.mulf %in, %in_1154 : f32
      linalg.yield %1222 : f32
    } -> tensor<1x32x300x300xf32>
    %53 = linalg.pooling_nchw_sum {dilations = dense<1> : vector<2xi64>, strides = dense<1> : vector<2xi64>} ins(%52, %13 : tensor<1x32x300x300xf32>, tensor<300x300xf32>) outs(%34 : tensor<1x32x1x1xf32>) -> tensor<1x32x1x1xf32>
    %54 = linalg.generic {indexing_maps = [#map, #map], iterator_types = ["parallel", "parallel", "parallel", "parallel"]} ins(%53 : tensor<1x32x1x1xf32>) outs(%33 : tensor<1x32x1x1xf32>) {
    ^bb0(%in: f32, %out: f32):
      %1222 = arith.divf %in, %cst_1039 : f32
      linalg.yield %1222 : f32
    } -> tensor<1x32x1x1xf32>
    %55 = linalg.generic {indexing_maps = [#map1, #map], iterator_types = ["parallel", "parallel", "parallel", "parallel"]} ins(%cst_996 : tensor<8xf32>) outs(%37 : tensor<1x8x1x1xf32>) {
    ^bb0(%in: f32, %out: f32):
      linalg.yield %in : f32
    } -> tensor<1x8x1x1xf32>
    %56 = linalg.conv_2d_nchw_fchw {dilations = dense<1> : vector<2xi64>, strides = dense<1> : vector<2xi64>} ins(%54, %cst_997 : tensor<1x32x1x1xf32>, tensor<8x32x1x1xf32>) outs(%55 : tensor<1x8x1x1xf32>) -> tensor<1x8x1x1xf32>
    %57 = linalg.generic {indexing_maps = [#map3, #map], iterator_types = ["parallel", "parallel", "parallel", "parallel"]} ins(%56 : tensor<1x8x1x1xf32>) outs(%37 : tensor<1x8x1x1xf32>) {
    ^bb0(%in: f32, %out: f32):
      %1222 = arith.negf %in : f32
      %1223 = math.exp %1222 : f32
      %1224 = arith.addf %1223, %cst_1037 : f32
      %1225 = arith.divf %cst_1037, %1224 : f32
      linalg.yield %1225 : f32
    } -> tensor<1x8x1x1xf32>
    %58 = linalg.generic {indexing_maps = [#map3, #map3, #map], iterator_types = ["parallel", "parallel", "parallel", "parallel"]} ins(%57, %56 : tensor<1x8x1x1xf32>, tensor<1x8x1x1xf32>) outs(%37 : tensor<1x8x1x1xf32>) {
    ^bb0(%in: f32, %in_1154: f32, %out: f32):
      %1222 = arith.mulf %in, %in_1154 : f32
      linalg.yield %1222 : f32
    } -> tensor<1x8x1x1xf32>
    %59 = linalg.generic {indexing_maps = [#map1, #map], iterator_types = ["parallel", "parallel", "parallel", "parallel"]} ins(%cst_994 : tensor<32xf32>) outs(%33 : tensor<1x32x1x1xf32>) {
    ^bb0(%in: f32, %out: f32):
      linalg.yield %in : f32
    } -> tensor<1x32x1x1xf32>
    %60 = linalg.conv_2d_nchw_fchw {dilations = dense<1> : vector<2xi64>, strides = dense<1> : vector<2xi64>} ins(%58, %cst_995 : tensor<1x8x1x1xf32>, tensor<32x8x1x1xf32>) outs(%59 : tensor<1x32x1x1xf32>) -> tensor<1x32x1x1xf32>
    %61 = linalg.generic {indexing_maps = [#map3, #map], iterator_types = ["parallel", "parallel", "parallel", "parallel"]} ins(%60 : tensor<1x32x1x1xf32>) outs(%33 : tensor<1x32x1x1xf32>) {
    ^bb0(%in: f32, %out: f32):
      %1222 = arith.negf %in : f32
      %1223 = math.exp %1222 : f32
      %1224 = arith.addf %1223, %cst_1037 : f32
      %1225 = arith.divf %cst_1037, %1224 : f32
      linalg.yield %1225 : f32
    } -> tensor<1x32x1x1xf32>
    %62 = linalg.generic {indexing_maps = [#map3, #map2, #map], iterator_types = ["parallel", "parallel", "parallel", "parallel"]} ins(%61, %52 : tensor<1x32x1x1xf32>, tensor<1x32x300x300xf32>) outs(%25 : tensor<1x32x300x300xf32>) {
    ^bb0(%in: f32, %in_1154: f32, %out: f32):
      %1222 = arith.mulf %in, %in_1154 : f32
      linalg.yield %1222 : f32
    } -> tensor<1x32x300x300xf32>
    %63 = linalg.conv_2d_nchw_fchw {dilations = dense<1> : vector<2xi64>, strides = dense<1> : vector<2xi64>} ins(%62, %cst_993 : tensor<1x32x300x300xf32>, tensor<32x32x1x1xf32>) outs(%26 : tensor<1x32x300x300xf32>) -> tensor<1x32x300x300xf32>
    cf.assert %3, "training is not supported for now"
    %64 = linalg.generic {indexing_maps = [#map, #map1, #map1, #map1, #map1, #map], iterator_types = ["parallel", "parallel", "parallel", "parallel"]} ins(%63, %cst_990, %cst_989, %cst_992, %cst_991 : tensor<1x32x300x300xf32>, tensor<32xf32>, tensor<32xf32>, tensor<32xf32>, tensor<32xf32>) outs(%63 : tensor<1x32x300x300xf32>) {
    ^bb0(%in: f32, %in_1154: f32, %in_1155: f32, %in_1156: f32, %in_1157: f32, %out: f32):
      %1222 = arith.truncf %cst_1038 : f64 to f32
      %1223 = arith.addf %in_1157, %1222 : f32
      %1224 = math.rsqrt %1223 : f32
      %1225 = arith.subf %in, %in_1156 : f32
      %1226 = arith.mulf %1225, %1224 : f32
      %1227 = arith.mulf %1226, %in_1154 : f32
      %1228 = arith.addf %1227, %in_1155 : f32
      linalg.yield %1228 : f32
    } -> tensor<1x32x300x300xf32>
    %65 = linalg.generic {indexing_maps = [#map2, #map2, #map], iterator_types = ["parallel", "parallel", "parallel", "parallel"]} ins(%64, %48 : tensor<1x32x300x300xf32>, tensor<1x32x300x300xf32>) outs(%25 : tensor<1x32x300x300xf32>) {
    ^bb0(%in: f32, %in_1154: f32, %out: f32):
      %1222 = arith.addf %in, %in_1154 : f32
      linalg.yield %1222 : f32
    } -> tensor<1x32x300x300xf32>
    %padded_1049 = tensor.pad %65 low[0, 0, 1, 1] high[0, 0, 1, 1] {
    ^bb0(%arg1: index, %arg2: index, %arg3: index, %arg4: index):
      tensor.yield %cst_1036 : f32
    } : tensor<1x32x300x300xf32> to tensor<1x32x302x302xf32>
    %collapsed_1050 = tensor.collapse_shape %cst_988 [[0, 1], [2], [3]] : tensor<32x1x3x3xf32> into tensor<32x3x3xf32>
    %66 = linalg.depthwise_conv_2d_nchw_chw {dilations = dense<1> : vector<2xi64>, strides = dense<1> : vector<2xi64>} ins(%padded_1049, %collapsed_1050 : tensor<1x32x302x302xf32>, tensor<32x3x3xf32>) outs(%26 : tensor<1x32x300x300xf32>) -> tensor<1x32x300x300xf32>
    cf.assert %3, "training is not supported for now"
    %67 = linalg.generic {indexing_maps = [#map, #map1, #map1, #map1, #map1, #map], iterator_types = ["parallel", "parallel", "parallel", "parallel"]} ins(%66, %cst_985, %cst_984, %cst_987, %cst_986 : tensor<1x32x300x300xf32>, tensor<32xf32>, tensor<32xf32>, tensor<32xf32>, tensor<32xf32>) outs(%66 : tensor<1x32x300x300xf32>) {
    ^bb0(%in: f32, %in_1154: f32, %in_1155: f32, %in_1156: f32, %in_1157: f32, %out: f32):
      %1222 = arith.truncf %cst_1038 : f64 to f32
      %1223 = arith.addf %in_1157, %1222 : f32
      %1224 = math.rsqrt %1223 : f32
      %1225 = arith.subf %in, %in_1156 : f32
      %1226 = arith.mulf %1225, %1224 : f32
      %1227 = arith.mulf %1226, %in_1154 : f32
      %1228 = arith.addf %1227, %in_1155 : f32
      linalg.yield %1228 : f32
    } -> tensor<1x32x300x300xf32>
    %68 = linalg.generic {indexing_maps = [#map2, #map], iterator_types = ["parallel", "parallel", "parallel", "parallel"]} ins(%67 : tensor<1x32x300x300xf32>) outs(%25 : tensor<1x32x300x300xf32>) {
    ^bb0(%in: f32, %out: f32):
      %1222 = arith.negf %in : f32
      %1223 = math.exp %1222 : f32
      %1224 = arith.addf %1223, %cst_1037 : f32
      %1225 = arith.divf %cst_1037, %1224 : f32
      linalg.yield %1225 : f32
    } -> tensor<1x32x300x300xf32>
    %69 = linalg.generic {indexing_maps = [#map2, #map2, #map], iterator_types = ["parallel", "parallel", "parallel", "parallel"]} ins(%68, %67 : tensor<1x32x300x300xf32>, tensor<1x32x300x300xf32>) outs(%25 : tensor<1x32x300x300xf32>) {
    ^bb0(%in: f32, %in_1154: f32, %out: f32):
      %1222 = arith.mulf %in, %in_1154 : f32
      linalg.yield %1222 : f32
    } -> tensor<1x32x300x300xf32>
    %70 = linalg.pooling_nchw_sum {dilations = dense<1> : vector<2xi64>, strides = dense<1> : vector<2xi64>} ins(%69, %13 : tensor<1x32x300x300xf32>, tensor<300x300xf32>) outs(%34 : tensor<1x32x1x1xf32>) -> tensor<1x32x1x1xf32>
    %71 = linalg.generic {indexing_maps = [#map, #map], iterator_types = ["parallel", "parallel", "parallel", "parallel"]} ins(%70 : tensor<1x32x1x1xf32>) outs(%33 : tensor<1x32x1x1xf32>) {
    ^bb0(%in: f32, %out: f32):
      %1222 = arith.divf %in, %cst_1039 : f32
      linalg.yield %1222 : f32
    } -> tensor<1x32x1x1xf32>
    %72 = linalg.generic {indexing_maps = [#map1, #map], iterator_types = ["parallel", "parallel", "parallel", "parallel"]} ins(%cst_982 : tensor<8xf32>) outs(%37 : tensor<1x8x1x1xf32>) {
    ^bb0(%in: f32, %out: f32):
      linalg.yield %in : f32
    } -> tensor<1x8x1x1xf32>
    %73 = linalg.conv_2d_nchw_fchw {dilations = dense<1> : vector<2xi64>, strides = dense<1> : vector<2xi64>} ins(%71, %cst_983 : tensor<1x32x1x1xf32>, tensor<8x32x1x1xf32>) outs(%72 : tensor<1x8x1x1xf32>) -> tensor<1x8x1x1xf32>
    %74 = linalg.generic {indexing_maps = [#map3, #map], iterator_types = ["parallel", "parallel", "parallel", "parallel"]} ins(%73 : tensor<1x8x1x1xf32>) outs(%37 : tensor<1x8x1x1xf32>) {
    ^bb0(%in: f32, %out: f32):
      %1222 = arith.negf %in : f32
      %1223 = math.exp %1222 : f32
      %1224 = arith.addf %1223, %cst_1037 : f32
      %1225 = arith.divf %cst_1037, %1224 : f32
      linalg.yield %1225 : f32
    } -> tensor<1x8x1x1xf32>
    %75 = linalg.generic {indexing_maps = [#map3, #map3, #map], iterator_types = ["parallel", "parallel", "parallel", "parallel"]} ins(%74, %73 : tensor<1x8x1x1xf32>, tensor<1x8x1x1xf32>) outs(%37 : tensor<1x8x1x1xf32>) {
    ^bb0(%in: f32, %in_1154: f32, %out: f32):
      %1222 = arith.mulf %in, %in_1154 : f32
      linalg.yield %1222 : f32
    } -> tensor<1x8x1x1xf32>
    %76 = linalg.generic {indexing_maps = [#map1, #map], iterator_types = ["parallel", "parallel", "parallel", "parallel"]} ins(%cst_980 : tensor<32xf32>) outs(%33 : tensor<1x32x1x1xf32>) {
    ^bb0(%in: f32, %out: f32):
      linalg.yield %in : f32
    } -> tensor<1x32x1x1xf32>
    %77 = linalg.conv_2d_nchw_fchw {dilations = dense<1> : vector<2xi64>, strides = dense<1> : vector<2xi64>} ins(%75, %cst_981 : tensor<1x8x1x1xf32>, tensor<32x8x1x1xf32>) outs(%76 : tensor<1x32x1x1xf32>) -> tensor<1x32x1x1xf32>
    %78 = linalg.generic {indexing_maps = [#map3, #map], iterator_types = ["parallel", "parallel", "parallel", "parallel"]} ins(%77 : tensor<1x32x1x1xf32>) outs(%33 : tensor<1x32x1x1xf32>) {
    ^bb0(%in: f32, %out: f32):
      %1222 = arith.negf %in : f32
      %1223 = math.exp %1222 : f32
      %1224 = arith.addf %1223, %cst_1037 : f32
      %1225 = arith.divf %cst_1037, %1224 : f32
      linalg.yield %1225 : f32
    } -> tensor<1x32x1x1xf32>
    %79 = linalg.generic {indexing_maps = [#map3, #map2, #map], iterator_types = ["parallel", "parallel", "parallel", "parallel"]} ins(%78, %69 : tensor<1x32x1x1xf32>, tensor<1x32x300x300xf32>) outs(%25 : tensor<1x32x300x300xf32>) {
    ^bb0(%in: f32, %in_1154: f32, %out: f32):
      %1222 = arith.mulf %in, %in_1154 : f32
      linalg.yield %1222 : f32
    } -> tensor<1x32x300x300xf32>
    %80 = linalg.conv_2d_nchw_fchw {dilations = dense<1> : vector<2xi64>, strides = dense<1> : vector<2xi64>} ins(%79, %cst_979 : tensor<1x32x300x300xf32>, tensor<32x32x1x1xf32>) outs(%26 : tensor<1x32x300x300xf32>) -> tensor<1x32x300x300xf32>
    cf.assert %3, "training is not supported for now"
    %81 = linalg.generic {indexing_maps = [#map, #map1, #map1, #map1, #map1, #map], iterator_types = ["parallel", "parallel", "parallel", "parallel"]} ins(%80, %cst_976, %cst_975, %cst_978, %cst_977 : tensor<1x32x300x300xf32>, tensor<32xf32>, tensor<32xf32>, tensor<32xf32>, tensor<32xf32>) outs(%80 : tensor<1x32x300x300xf32>) {
    ^bb0(%in: f32, %in_1154: f32, %in_1155: f32, %in_1156: f32, %in_1157: f32, %out: f32):
      %1222 = arith.truncf %cst_1038 : f64 to f32
      %1223 = arith.addf %in_1157, %1222 : f32
      %1224 = math.rsqrt %1223 : f32
      %1225 = arith.subf %in, %in_1156 : f32
      %1226 = arith.mulf %1225, %1224 : f32
      %1227 = arith.mulf %1226, %in_1154 : f32
      %1228 = arith.addf %1227, %in_1155 : f32
      linalg.yield %1228 : f32
    } -> tensor<1x32x300x300xf32>
    %82 = linalg.generic {indexing_maps = [#map2, #map2, #map], iterator_types = ["parallel", "parallel", "parallel", "parallel"]} ins(%81, %65 : tensor<1x32x300x300xf32>, tensor<1x32x300x300xf32>) outs(%25 : tensor<1x32x300x300xf32>) {
    ^bb0(%in: f32, %in_1154: f32, %out: f32):
      %1222 = arith.addf %in, %in_1154 : f32
      linalg.yield %1222 : f32
    } -> tensor<1x32x300x300xf32>
    %83 = tensor.empty() : tensor<1x192x300x300xf32>
    %84 = linalg.fill ins(%cst_1036 : f32) outs(%83 : tensor<1x192x300x300xf32>) -> tensor<1x192x300x300xf32>
    %85 = linalg.conv_2d_nchw_fchw {dilations = dense<1> : vector<2xi64>, strides = dense<1> : vector<2xi64>} ins(%82, %cst_974 : tensor<1x32x300x300xf32>, tensor<192x32x1x1xf32>) outs(%84 : tensor<1x192x300x300xf32>) -> tensor<1x192x300x300xf32>
    cf.assert %3, "training is not supported for now"
    %86 = linalg.generic {indexing_maps = [#map, #map1, #map1, #map1, #map1, #map], iterator_types = ["parallel", "parallel", "parallel", "parallel"]} ins(%85, %cst_971, %cst_970, %cst_973, %cst_972 : tensor<1x192x300x300xf32>, tensor<192xf32>, tensor<192xf32>, tensor<192xf32>, tensor<192xf32>) outs(%85 : tensor<1x192x300x300xf32>) {
    ^bb0(%in: f32, %in_1154: f32, %in_1155: f32, %in_1156: f32, %in_1157: f32, %out: f32):
      %1222 = arith.truncf %cst_1038 : f64 to f32
      %1223 = arith.addf %in_1157, %1222 : f32
      %1224 = math.rsqrt %1223 : f32
      %1225 = arith.subf %in, %in_1156 : f32
      %1226 = arith.mulf %1225, %1224 : f32
      %1227 = arith.mulf %1226, %in_1154 : f32
      %1228 = arith.addf %1227, %in_1155 : f32
      linalg.yield %1228 : f32
    } -> tensor<1x192x300x300xf32>
    %87 = linalg.generic {indexing_maps = [#map2, #map], iterator_types = ["parallel", "parallel", "parallel", "parallel"]} ins(%86 : tensor<1x192x300x300xf32>) outs(%83 : tensor<1x192x300x300xf32>) {
    ^bb0(%in: f32, %out: f32):
      %1222 = arith.negf %in : f32
      %1223 = math.exp %1222 : f32
      %1224 = arith.addf %1223, %cst_1037 : f32
      %1225 = arith.divf %cst_1037, %1224 : f32
      linalg.yield %1225 : f32
    } -> tensor<1x192x300x300xf32>
    %88 = linalg.generic {indexing_maps = [#map2, #map2, #map], iterator_types = ["parallel", "parallel", "parallel", "parallel"]} ins(%87, %86 : tensor<1x192x300x300xf32>, tensor<1x192x300x300xf32>) outs(%83 : tensor<1x192x300x300xf32>) {
    ^bb0(%in: f32, %in_1154: f32, %out: f32):
      %1222 = arith.mulf %in, %in_1154 : f32
      linalg.yield %1222 : f32
    } -> tensor<1x192x300x300xf32>
    %padded_1051 = tensor.pad %88 low[0, 0, 1, 1] high[0, 0, 1, 1] {
    ^bb0(%arg1: index, %arg2: index, %arg3: index, %arg4: index):
      tensor.yield %cst_1036 : f32
    } : tensor<1x192x300x300xf32> to tensor<1x192x302x302xf32>
    %89 = tensor.empty() : tensor<1x192x150x150xf32>
    %90 = linalg.fill ins(%cst_1036 : f32) outs(%89 : tensor<1x192x150x150xf32>) -> tensor<1x192x150x150xf32>
    %collapsed_1052 = tensor.collapse_shape %cst_969 [[0, 1], [2], [3]] : tensor<192x1x3x3xf32> into tensor<192x3x3xf32>
    %91 = linalg.depthwise_conv_2d_nchw_chw {dilations = dense<1> : vector<2xi64>, strides = dense<2> : vector<2xi64>} ins(%padded_1051, %collapsed_1052 : tensor<1x192x302x302xf32>, tensor<192x3x3xf32>) outs(%90 : tensor<1x192x150x150xf32>) -> tensor<1x192x150x150xf32>
    cf.assert %3, "training is not supported for now"
    %92 = linalg.generic {indexing_maps = [#map, #map1, #map1, #map1, #map1, #map], iterator_types = ["parallel", "parallel", "parallel", "parallel"]} ins(%91, %cst_966, %cst_965, %cst_968, %cst_967 : tensor<1x192x150x150xf32>, tensor<192xf32>, tensor<192xf32>, tensor<192xf32>, tensor<192xf32>) outs(%91 : tensor<1x192x150x150xf32>) {
    ^bb0(%in: f32, %in_1154: f32, %in_1155: f32, %in_1156: f32, %in_1157: f32, %out: f32):
      %1222 = arith.truncf %cst_1038 : f64 to f32
      %1223 = arith.addf %in_1157, %1222 : f32
      %1224 = math.rsqrt %1223 : f32
      %1225 = arith.subf %in, %in_1156 : f32
      %1226 = arith.mulf %1225, %1224 : f32
      %1227 = arith.mulf %1226, %in_1154 : f32
      %1228 = arith.addf %1227, %in_1155 : f32
      linalg.yield %1228 : f32
    } -> tensor<1x192x150x150xf32>
    %93 = linalg.generic {indexing_maps = [#map2, #map], iterator_types = ["parallel", "parallel", "parallel", "parallel"]} ins(%92 : tensor<1x192x150x150xf32>) outs(%89 : tensor<1x192x150x150xf32>) {
    ^bb0(%in: f32, %out: f32):
      %1222 = arith.negf %in : f32
      %1223 = math.exp %1222 : f32
      %1224 = arith.addf %1223, %cst_1037 : f32
      %1225 = arith.divf %cst_1037, %1224 : f32
      linalg.yield %1225 : f32
    } -> tensor<1x192x150x150xf32>
    %94 = linalg.generic {indexing_maps = [#map2, #map2, #map], iterator_types = ["parallel", "parallel", "parallel", "parallel"]} ins(%93, %92 : tensor<1x192x150x150xf32>, tensor<1x192x150x150xf32>) outs(%89 : tensor<1x192x150x150xf32>) {
    ^bb0(%in: f32, %in_1154: f32, %out: f32):
      %1222 = arith.mulf %in, %in_1154 : f32
      linalg.yield %1222 : f32
    } -> tensor<1x192x150x150xf32>
    %95 = tensor.empty() : tensor<1x192x1x1xf32>
    %96 = linalg.fill ins(%cst_1036 : f32) outs(%95 : tensor<1x192x1x1xf32>) -> tensor<1x192x1x1xf32>
    %97 = tensor.empty() : tensor<150x150xf32>
    %98 = linalg.pooling_nchw_sum {dilations = dense<1> : vector<2xi64>, strides = dense<1> : vector<2xi64>} ins(%94, %97 : tensor<1x192x150x150xf32>, tensor<150x150xf32>) outs(%96 : tensor<1x192x1x1xf32>) -> tensor<1x192x1x1xf32>
    %99 = linalg.generic {indexing_maps = [#map, #map], iterator_types = ["parallel", "parallel", "parallel", "parallel"]} ins(%98 : tensor<1x192x1x1xf32>) outs(%95 : tensor<1x192x1x1xf32>) {
    ^bb0(%in: f32, %out: f32):
      %1222 = arith.divf %in, %cst_1040 : f32
      linalg.yield %1222 : f32
    } -> tensor<1x192x1x1xf32>
    %100 = linalg.generic {indexing_maps = [#map1, #map], iterator_types = ["parallel", "parallel", "parallel", "parallel"]} ins(%cst_963 : tensor<8xf32>) outs(%37 : tensor<1x8x1x1xf32>) {
    ^bb0(%in: f32, %out: f32):
      linalg.yield %in : f32
    } -> tensor<1x8x1x1xf32>
    %101 = linalg.conv_2d_nchw_fchw {dilations = dense<1> : vector<2xi64>, strides = dense<1> : vector<2xi64>} ins(%99, %cst_964 : tensor<1x192x1x1xf32>, tensor<8x192x1x1xf32>) outs(%100 : tensor<1x8x1x1xf32>) -> tensor<1x8x1x1xf32>
    %102 = linalg.generic {indexing_maps = [#map3, #map], iterator_types = ["parallel", "parallel", "parallel", "parallel"]} ins(%101 : tensor<1x8x1x1xf32>) outs(%37 : tensor<1x8x1x1xf32>) {
    ^bb0(%in: f32, %out: f32):
      %1222 = arith.negf %in : f32
      %1223 = math.exp %1222 : f32
      %1224 = arith.addf %1223, %cst_1037 : f32
      %1225 = arith.divf %cst_1037, %1224 : f32
      linalg.yield %1225 : f32
    } -> tensor<1x8x1x1xf32>
    %103 = linalg.generic {indexing_maps = [#map3, #map3, #map], iterator_types = ["parallel", "parallel", "parallel", "parallel"]} ins(%102, %101 : tensor<1x8x1x1xf32>, tensor<1x8x1x1xf32>) outs(%37 : tensor<1x8x1x1xf32>) {
    ^bb0(%in: f32, %in_1154: f32, %out: f32):
      %1222 = arith.mulf %in, %in_1154 : f32
      linalg.yield %1222 : f32
    } -> tensor<1x8x1x1xf32>
    %104 = linalg.generic {indexing_maps = [#map1, #map], iterator_types = ["parallel", "parallel", "parallel", "parallel"]} ins(%cst_961 : tensor<192xf32>) outs(%95 : tensor<1x192x1x1xf32>) {
    ^bb0(%in: f32, %out: f32):
      linalg.yield %in : f32
    } -> tensor<1x192x1x1xf32>
    %105 = linalg.conv_2d_nchw_fchw {dilations = dense<1> : vector<2xi64>, strides = dense<1> : vector<2xi64>} ins(%103, %cst_962 : tensor<1x8x1x1xf32>, tensor<192x8x1x1xf32>) outs(%104 : tensor<1x192x1x1xf32>) -> tensor<1x192x1x1xf32>
    %106 = linalg.generic {indexing_maps = [#map3, #map], iterator_types = ["parallel", "parallel", "parallel", "parallel"]} ins(%105 : tensor<1x192x1x1xf32>) outs(%95 : tensor<1x192x1x1xf32>) {
    ^bb0(%in: f32, %out: f32):
      %1222 = arith.negf %in : f32
      %1223 = math.exp %1222 : f32
      %1224 = arith.addf %1223, %cst_1037 : f32
      %1225 = arith.divf %cst_1037, %1224 : f32
      linalg.yield %1225 : f32
    } -> tensor<1x192x1x1xf32>
    %107 = linalg.generic {indexing_maps = [#map3, #map2, #map], iterator_types = ["parallel", "parallel", "parallel", "parallel"]} ins(%106, %94 : tensor<1x192x1x1xf32>, tensor<1x192x150x150xf32>) outs(%89 : tensor<1x192x150x150xf32>) {
    ^bb0(%in: f32, %in_1154: f32, %out: f32):
      %1222 = arith.mulf %in, %in_1154 : f32
      linalg.yield %1222 : f32
    } -> tensor<1x192x150x150xf32>
    %108 = tensor.empty() : tensor<1x48x150x150xf32>
    %109 = linalg.fill ins(%cst_1036 : f32) outs(%108 : tensor<1x48x150x150xf32>) -> tensor<1x48x150x150xf32>
    %110 = linalg.conv_2d_nchw_fchw {dilations = dense<1> : vector<2xi64>, strides = dense<1> : vector<2xi64>} ins(%107, %cst_960 : tensor<1x192x150x150xf32>, tensor<48x192x1x1xf32>) outs(%109 : tensor<1x48x150x150xf32>) -> tensor<1x48x150x150xf32>
    cf.assert %3, "training is not supported for now"
    %111 = linalg.generic {indexing_maps = [#map, #map1, #map1, #map1, #map1, #map], iterator_types = ["parallel", "parallel", "parallel", "parallel"]} ins(%110, %cst_957, %cst_956, %cst_959, %cst_958 : tensor<1x48x150x150xf32>, tensor<48xf32>, tensor<48xf32>, tensor<48xf32>, tensor<48xf32>) outs(%110 : tensor<1x48x150x150xf32>) {
    ^bb0(%in: f32, %in_1154: f32, %in_1155: f32, %in_1156: f32, %in_1157: f32, %out: f32):
      %1222 = arith.truncf %cst_1038 : f64 to f32
      %1223 = arith.addf %in_1157, %1222 : f32
      %1224 = math.rsqrt %1223 : f32
      %1225 = arith.subf %in, %in_1156 : f32
      %1226 = arith.mulf %1225, %1224 : f32
      %1227 = arith.mulf %1226, %in_1154 : f32
      %1228 = arith.addf %1227, %in_1155 : f32
      linalg.yield %1228 : f32
    } -> tensor<1x48x150x150xf32>
    %112 = tensor.empty() : tensor<1x288x150x150xf32>
    %113 = linalg.fill ins(%cst_1036 : f32) outs(%112 : tensor<1x288x150x150xf32>) -> tensor<1x288x150x150xf32>
    %114 = linalg.conv_2d_nchw_fchw {dilations = dense<1> : vector<2xi64>, strides = dense<1> : vector<2xi64>} ins(%111, %cst_955 : tensor<1x48x150x150xf32>, tensor<288x48x1x1xf32>) outs(%113 : tensor<1x288x150x150xf32>) -> tensor<1x288x150x150xf32>
    cf.assert %3, "training is not supported for now"
    %115 = linalg.generic {indexing_maps = [#map, #map1, #map1, #map1, #map1, #map], iterator_types = ["parallel", "parallel", "parallel", "parallel"]} ins(%114, %cst_952, %cst_951, %cst_954, %cst_953 : tensor<1x288x150x150xf32>, tensor<288xf32>, tensor<288xf32>, tensor<288xf32>, tensor<288xf32>) outs(%114 : tensor<1x288x150x150xf32>) {
    ^bb0(%in: f32, %in_1154: f32, %in_1155: f32, %in_1156: f32, %in_1157: f32, %out: f32):
      %1222 = arith.truncf %cst_1038 : f64 to f32
      %1223 = arith.addf %in_1157, %1222 : f32
      %1224 = math.rsqrt %1223 : f32
      %1225 = arith.subf %in, %in_1156 : f32
      %1226 = arith.mulf %1225, %1224 : f32
      %1227 = arith.mulf %1226, %in_1154 : f32
      %1228 = arith.addf %1227, %in_1155 : f32
      linalg.yield %1228 : f32
    } -> tensor<1x288x150x150xf32>
    %116 = linalg.generic {indexing_maps = [#map2, #map], iterator_types = ["parallel", "parallel", "parallel", "parallel"]} ins(%115 : tensor<1x288x150x150xf32>) outs(%112 : tensor<1x288x150x150xf32>) {
    ^bb0(%in: f32, %out: f32):
      %1222 = arith.negf %in : f32
      %1223 = math.exp %1222 : f32
      %1224 = arith.addf %1223, %cst_1037 : f32
      %1225 = arith.divf %cst_1037, %1224 : f32
      linalg.yield %1225 : f32
    } -> tensor<1x288x150x150xf32>
    %117 = linalg.generic {indexing_maps = [#map2, #map2, #map], iterator_types = ["parallel", "parallel", "parallel", "parallel"]} ins(%116, %115 : tensor<1x288x150x150xf32>, tensor<1x288x150x150xf32>) outs(%112 : tensor<1x288x150x150xf32>) {
    ^bb0(%in: f32, %in_1154: f32, %out: f32):
      %1222 = arith.mulf %in, %in_1154 : f32
      linalg.yield %1222 : f32
    } -> tensor<1x288x150x150xf32>
    %padded_1053 = tensor.pad %117 low[0, 0, 1, 1] high[0, 0, 1, 1] {
    ^bb0(%arg1: index, %arg2: index, %arg3: index, %arg4: index):
      tensor.yield %cst_1036 : f32
    } : tensor<1x288x150x150xf32> to tensor<1x288x152x152xf32>
    %collapsed_1054 = tensor.collapse_shape %cst_950 [[0, 1], [2], [3]] : tensor<288x1x3x3xf32> into tensor<288x3x3xf32>
    %118 = linalg.depthwise_conv_2d_nchw_chw {dilations = dense<1> : vector<2xi64>, strides = dense<1> : vector<2xi64>} ins(%padded_1053, %collapsed_1054 : tensor<1x288x152x152xf32>, tensor<288x3x3xf32>) outs(%113 : tensor<1x288x150x150xf32>) -> tensor<1x288x150x150xf32>
    cf.assert %3, "training is not supported for now"
    %119 = linalg.generic {indexing_maps = [#map, #map1, #map1, #map1, #map1, #map], iterator_types = ["parallel", "parallel", "parallel", "parallel"]} ins(%118, %cst_947, %cst_946, %cst_949, %cst_948 : tensor<1x288x150x150xf32>, tensor<288xf32>, tensor<288xf32>, tensor<288xf32>, tensor<288xf32>) outs(%118 : tensor<1x288x150x150xf32>) {
    ^bb0(%in: f32, %in_1154: f32, %in_1155: f32, %in_1156: f32, %in_1157: f32, %out: f32):
      %1222 = arith.truncf %cst_1038 : f64 to f32
      %1223 = arith.addf %in_1157, %1222 : f32
      %1224 = math.rsqrt %1223 : f32
      %1225 = arith.subf %in, %in_1156 : f32
      %1226 = arith.mulf %1225, %1224 : f32
      %1227 = arith.mulf %1226, %in_1154 : f32
      %1228 = arith.addf %1227, %in_1155 : f32
      linalg.yield %1228 : f32
    } -> tensor<1x288x150x150xf32>
    %120 = linalg.generic {indexing_maps = [#map2, #map], iterator_types = ["parallel", "parallel", "parallel", "parallel"]} ins(%119 : tensor<1x288x150x150xf32>) outs(%112 : tensor<1x288x150x150xf32>) {
    ^bb0(%in: f32, %out: f32):
      %1222 = arith.negf %in : f32
      %1223 = math.exp %1222 : f32
      %1224 = arith.addf %1223, %cst_1037 : f32
      %1225 = arith.divf %cst_1037, %1224 : f32
      linalg.yield %1225 : f32
    } -> tensor<1x288x150x150xf32>
    %121 = linalg.generic {indexing_maps = [#map2, #map2, #map], iterator_types = ["parallel", "parallel", "parallel", "parallel"]} ins(%120, %119 : tensor<1x288x150x150xf32>, tensor<1x288x150x150xf32>) outs(%112 : tensor<1x288x150x150xf32>) {
    ^bb0(%in: f32, %in_1154: f32, %out: f32):
      %1222 = arith.mulf %in, %in_1154 : f32
      linalg.yield %1222 : f32
    } -> tensor<1x288x150x150xf32>
    %122 = tensor.empty() : tensor<1x288x1x1xf32>
    %123 = linalg.fill ins(%cst_1036 : f32) outs(%122 : tensor<1x288x1x1xf32>) -> tensor<1x288x1x1xf32>
    %124 = linalg.pooling_nchw_sum {dilations = dense<1> : vector<2xi64>, strides = dense<1> : vector<2xi64>} ins(%121, %97 : tensor<1x288x150x150xf32>, tensor<150x150xf32>) outs(%123 : tensor<1x288x1x1xf32>) -> tensor<1x288x1x1xf32>
    %125 = linalg.generic {indexing_maps = [#map, #map], iterator_types = ["parallel", "parallel", "parallel", "parallel"]} ins(%124 : tensor<1x288x1x1xf32>) outs(%122 : tensor<1x288x1x1xf32>) {
    ^bb0(%in: f32, %out: f32):
      %1222 = arith.divf %in, %cst_1040 : f32
      linalg.yield %1222 : f32
    } -> tensor<1x288x1x1xf32>
    %126 = tensor.empty() : tensor<1x12x1x1xf32>
    %127 = linalg.generic {indexing_maps = [#map1, #map], iterator_types = ["parallel", "parallel", "parallel", "parallel"]} ins(%cst_944 : tensor<12xf32>) outs(%126 : tensor<1x12x1x1xf32>) {
    ^bb0(%in: f32, %out: f32):
      linalg.yield %in : f32
    } -> tensor<1x12x1x1xf32>
    %128 = linalg.conv_2d_nchw_fchw {dilations = dense<1> : vector<2xi64>, strides = dense<1> : vector<2xi64>} ins(%125, %cst_945 : tensor<1x288x1x1xf32>, tensor<12x288x1x1xf32>) outs(%127 : tensor<1x12x1x1xf32>) -> tensor<1x12x1x1xf32>
    %129 = linalg.generic {indexing_maps = [#map3, #map], iterator_types = ["parallel", "parallel", "parallel", "parallel"]} ins(%128 : tensor<1x12x1x1xf32>) outs(%126 : tensor<1x12x1x1xf32>) {
    ^bb0(%in: f32, %out: f32):
      %1222 = arith.negf %in : f32
      %1223 = math.exp %1222 : f32
      %1224 = arith.addf %1223, %cst_1037 : f32
      %1225 = arith.divf %cst_1037, %1224 : f32
      linalg.yield %1225 : f32
    } -> tensor<1x12x1x1xf32>
    %130 = linalg.generic {indexing_maps = [#map3, #map3, #map], iterator_types = ["parallel", "parallel", "parallel", "parallel"]} ins(%129, %128 : tensor<1x12x1x1xf32>, tensor<1x12x1x1xf32>) outs(%126 : tensor<1x12x1x1xf32>) {
    ^bb0(%in: f32, %in_1154: f32, %out: f32):
      %1222 = arith.mulf %in, %in_1154 : f32
      linalg.yield %1222 : f32
    } -> tensor<1x12x1x1xf32>
    %131 = linalg.generic {indexing_maps = [#map1, #map], iterator_types = ["parallel", "parallel", "parallel", "parallel"]} ins(%cst_942 : tensor<288xf32>) outs(%122 : tensor<1x288x1x1xf32>) {
    ^bb0(%in: f32, %out: f32):
      linalg.yield %in : f32
    } -> tensor<1x288x1x1xf32>
    %132 = linalg.conv_2d_nchw_fchw {dilations = dense<1> : vector<2xi64>, strides = dense<1> : vector<2xi64>} ins(%130, %cst_943 : tensor<1x12x1x1xf32>, tensor<288x12x1x1xf32>) outs(%131 : tensor<1x288x1x1xf32>) -> tensor<1x288x1x1xf32>
    %133 = linalg.generic {indexing_maps = [#map3, #map], iterator_types = ["parallel", "parallel", "parallel", "parallel"]} ins(%132 : tensor<1x288x1x1xf32>) outs(%122 : tensor<1x288x1x1xf32>) {
    ^bb0(%in: f32, %out: f32):
      %1222 = arith.negf %in : f32
      %1223 = math.exp %1222 : f32
      %1224 = arith.addf %1223, %cst_1037 : f32
      %1225 = arith.divf %cst_1037, %1224 : f32
      linalg.yield %1225 : f32
    } -> tensor<1x288x1x1xf32>
    %134 = linalg.generic {indexing_maps = [#map3, #map2, #map], iterator_types = ["parallel", "parallel", "parallel", "parallel"]} ins(%133, %121 : tensor<1x288x1x1xf32>, tensor<1x288x150x150xf32>) outs(%112 : tensor<1x288x150x150xf32>) {
    ^bb0(%in: f32, %in_1154: f32, %out: f32):
      %1222 = arith.mulf %in, %in_1154 : f32
      linalg.yield %1222 : f32
    } -> tensor<1x288x150x150xf32>
    %135 = linalg.conv_2d_nchw_fchw {dilations = dense<1> : vector<2xi64>, strides = dense<1> : vector<2xi64>} ins(%134, %cst_941 : tensor<1x288x150x150xf32>, tensor<48x288x1x1xf32>) outs(%109 : tensor<1x48x150x150xf32>) -> tensor<1x48x150x150xf32>
    cf.assert %3, "training is not supported for now"
    %136 = linalg.generic {indexing_maps = [#map, #map1, #map1, #map1, #map1, #map], iterator_types = ["parallel", "parallel", "parallel", "parallel"]} ins(%135, %cst_938, %cst_937, %cst_940, %cst_939 : tensor<1x48x150x150xf32>, tensor<48xf32>, tensor<48xf32>, tensor<48xf32>, tensor<48xf32>) outs(%135 : tensor<1x48x150x150xf32>) {
    ^bb0(%in: f32, %in_1154: f32, %in_1155: f32, %in_1156: f32, %in_1157: f32, %out: f32):
      %1222 = arith.truncf %cst_1038 : f64 to f32
      %1223 = arith.addf %in_1157, %1222 : f32
      %1224 = math.rsqrt %1223 : f32
      %1225 = arith.subf %in, %in_1156 : f32
      %1226 = arith.mulf %1225, %1224 : f32
      %1227 = arith.mulf %1226, %in_1154 : f32
      %1228 = arith.addf %1227, %in_1155 : f32
      linalg.yield %1228 : f32
    } -> tensor<1x48x150x150xf32>
    %137 = linalg.generic {indexing_maps = [#map2, #map2, #map], iterator_types = ["parallel", "parallel", "parallel", "parallel"]} ins(%136, %111 : tensor<1x48x150x150xf32>, tensor<1x48x150x150xf32>) outs(%108 : tensor<1x48x150x150xf32>) {
    ^bb0(%in: f32, %in_1154: f32, %out: f32):
      %1222 = arith.addf %in, %in_1154 : f32
      linalg.yield %1222 : f32
    } -> tensor<1x48x150x150xf32>
    %138 = linalg.conv_2d_nchw_fchw {dilations = dense<1> : vector<2xi64>, strides = dense<1> : vector<2xi64>} ins(%137, %cst_936 : tensor<1x48x150x150xf32>, tensor<288x48x1x1xf32>) outs(%113 : tensor<1x288x150x150xf32>) -> tensor<1x288x150x150xf32>
    cf.assert %3, "training is not supported for now"
    %139 = linalg.generic {indexing_maps = [#map, #map1, #map1, #map1, #map1, #map], iterator_types = ["parallel", "parallel", "parallel", "parallel"]} ins(%138, %cst_933, %cst_932, %cst_935, %cst_934 : tensor<1x288x150x150xf32>, tensor<288xf32>, tensor<288xf32>, tensor<288xf32>, tensor<288xf32>) outs(%138 : tensor<1x288x150x150xf32>) {
    ^bb0(%in: f32, %in_1154: f32, %in_1155: f32, %in_1156: f32, %in_1157: f32, %out: f32):
      %1222 = arith.truncf %cst_1038 : f64 to f32
      %1223 = arith.addf %in_1157, %1222 : f32
      %1224 = math.rsqrt %1223 : f32
      %1225 = arith.subf %in, %in_1156 : f32
      %1226 = arith.mulf %1225, %1224 : f32
      %1227 = arith.mulf %1226, %in_1154 : f32
      %1228 = arith.addf %1227, %in_1155 : f32
      linalg.yield %1228 : f32
    } -> tensor<1x288x150x150xf32>
    %140 = linalg.generic {indexing_maps = [#map2, #map], iterator_types = ["parallel", "parallel", "parallel", "parallel"]} ins(%139 : tensor<1x288x150x150xf32>) outs(%112 : tensor<1x288x150x150xf32>) {
    ^bb0(%in: f32, %out: f32):
      %1222 = arith.negf %in : f32
      %1223 = math.exp %1222 : f32
      %1224 = arith.addf %1223, %cst_1037 : f32
      %1225 = arith.divf %cst_1037, %1224 : f32
      linalg.yield %1225 : f32
    } -> tensor<1x288x150x150xf32>
    %141 = linalg.generic {indexing_maps = [#map2, #map2, #map], iterator_types = ["parallel", "parallel", "parallel", "parallel"]} ins(%140, %139 : tensor<1x288x150x150xf32>, tensor<1x288x150x150xf32>) outs(%112 : tensor<1x288x150x150xf32>) {
    ^bb0(%in: f32, %in_1154: f32, %out: f32):
      %1222 = arith.mulf %in, %in_1154 : f32
      linalg.yield %1222 : f32
    } -> tensor<1x288x150x150xf32>
    %padded_1055 = tensor.pad %141 low[0, 0, 1, 1] high[0, 0, 1, 1] {
    ^bb0(%arg1: index, %arg2: index, %arg3: index, %arg4: index):
      tensor.yield %cst_1036 : f32
    } : tensor<1x288x150x150xf32> to tensor<1x288x152x152xf32>
    %collapsed_1056 = tensor.collapse_shape %cst_931 [[0, 1], [2], [3]] : tensor<288x1x3x3xf32> into tensor<288x3x3xf32>
    %142 = linalg.depthwise_conv_2d_nchw_chw {dilations = dense<1> : vector<2xi64>, strides = dense<1> : vector<2xi64>} ins(%padded_1055, %collapsed_1056 : tensor<1x288x152x152xf32>, tensor<288x3x3xf32>) outs(%113 : tensor<1x288x150x150xf32>) -> tensor<1x288x150x150xf32>
    cf.assert %3, "training is not supported for now"
    %143 = linalg.generic {indexing_maps = [#map, #map1, #map1, #map1, #map1, #map], iterator_types = ["parallel", "parallel", "parallel", "parallel"]} ins(%142, %cst_928, %cst_927, %cst_930, %cst_929 : tensor<1x288x150x150xf32>, tensor<288xf32>, tensor<288xf32>, tensor<288xf32>, tensor<288xf32>) outs(%142 : tensor<1x288x150x150xf32>) {
    ^bb0(%in: f32, %in_1154: f32, %in_1155: f32, %in_1156: f32, %in_1157: f32, %out: f32):
      %1222 = arith.truncf %cst_1038 : f64 to f32
      %1223 = arith.addf %in_1157, %1222 : f32
      %1224 = math.rsqrt %1223 : f32
      %1225 = arith.subf %in, %in_1156 : f32
      %1226 = arith.mulf %1225, %1224 : f32
      %1227 = arith.mulf %1226, %in_1154 : f32
      %1228 = arith.addf %1227, %in_1155 : f32
      linalg.yield %1228 : f32
    } -> tensor<1x288x150x150xf32>
    %144 = linalg.generic {indexing_maps = [#map2, #map], iterator_types = ["parallel", "parallel", "parallel", "parallel"]} ins(%143 : tensor<1x288x150x150xf32>) outs(%112 : tensor<1x288x150x150xf32>) {
    ^bb0(%in: f32, %out: f32):
      %1222 = arith.negf %in : f32
      %1223 = math.exp %1222 : f32
      %1224 = arith.addf %1223, %cst_1037 : f32
      %1225 = arith.divf %cst_1037, %1224 : f32
      linalg.yield %1225 : f32
    } -> tensor<1x288x150x150xf32>
    %145 = linalg.generic {indexing_maps = [#map2, #map2, #map], iterator_types = ["parallel", "parallel", "parallel", "parallel"]} ins(%144, %143 : tensor<1x288x150x150xf32>, tensor<1x288x150x150xf32>) outs(%112 : tensor<1x288x150x150xf32>) {
    ^bb0(%in: f32, %in_1154: f32, %out: f32):
      %1222 = arith.mulf %in, %in_1154 : f32
      linalg.yield %1222 : f32
    } -> tensor<1x288x150x150xf32>
    %146 = linalg.pooling_nchw_sum {dilations = dense<1> : vector<2xi64>, strides = dense<1> : vector<2xi64>} ins(%145, %97 : tensor<1x288x150x150xf32>, tensor<150x150xf32>) outs(%123 : tensor<1x288x1x1xf32>) -> tensor<1x288x1x1xf32>
    %147 = linalg.generic {indexing_maps = [#map, #map], iterator_types = ["parallel", "parallel", "parallel", "parallel"]} ins(%146 : tensor<1x288x1x1xf32>) outs(%122 : tensor<1x288x1x1xf32>) {
    ^bb0(%in: f32, %out: f32):
      %1222 = arith.divf %in, %cst_1040 : f32
      linalg.yield %1222 : f32
    } -> tensor<1x288x1x1xf32>
    %148 = linalg.generic {indexing_maps = [#map1, #map], iterator_types = ["parallel", "parallel", "parallel", "parallel"]} ins(%cst_925 : tensor<12xf32>) outs(%126 : tensor<1x12x1x1xf32>) {
    ^bb0(%in: f32, %out: f32):
      linalg.yield %in : f32
    } -> tensor<1x12x1x1xf32>
    %149 = linalg.conv_2d_nchw_fchw {dilations = dense<1> : vector<2xi64>, strides = dense<1> : vector<2xi64>} ins(%147, %cst_926 : tensor<1x288x1x1xf32>, tensor<12x288x1x1xf32>) outs(%148 : tensor<1x12x1x1xf32>) -> tensor<1x12x1x1xf32>
    %150 = linalg.generic {indexing_maps = [#map3, #map], iterator_types = ["parallel", "parallel", "parallel", "parallel"]} ins(%149 : tensor<1x12x1x1xf32>) outs(%126 : tensor<1x12x1x1xf32>) {
    ^bb0(%in: f32, %out: f32):
      %1222 = arith.negf %in : f32
      %1223 = math.exp %1222 : f32
      %1224 = arith.addf %1223, %cst_1037 : f32
      %1225 = arith.divf %cst_1037, %1224 : f32
      linalg.yield %1225 : f32
    } -> tensor<1x12x1x1xf32>
    %151 = linalg.generic {indexing_maps = [#map3, #map3, #map], iterator_types = ["parallel", "parallel", "parallel", "parallel"]} ins(%150, %149 : tensor<1x12x1x1xf32>, tensor<1x12x1x1xf32>) outs(%126 : tensor<1x12x1x1xf32>) {
    ^bb0(%in: f32, %in_1154: f32, %out: f32):
      %1222 = arith.mulf %in, %in_1154 : f32
      linalg.yield %1222 : f32
    } -> tensor<1x12x1x1xf32>
    %152 = linalg.generic {indexing_maps = [#map1, #map], iterator_types = ["parallel", "parallel", "parallel", "parallel"]} ins(%cst_923 : tensor<288xf32>) outs(%122 : tensor<1x288x1x1xf32>) {
    ^bb0(%in: f32, %out: f32):
      linalg.yield %in : f32
    } -> tensor<1x288x1x1xf32>
    %153 = linalg.conv_2d_nchw_fchw {dilations = dense<1> : vector<2xi64>, strides = dense<1> : vector<2xi64>} ins(%151, %cst_924 : tensor<1x12x1x1xf32>, tensor<288x12x1x1xf32>) outs(%152 : tensor<1x288x1x1xf32>) -> tensor<1x288x1x1xf32>
    %154 = linalg.generic {indexing_maps = [#map3, #map], iterator_types = ["parallel", "parallel", "parallel", "parallel"]} ins(%153 : tensor<1x288x1x1xf32>) outs(%122 : tensor<1x288x1x1xf32>) {
    ^bb0(%in: f32, %out: f32):
      %1222 = arith.negf %in : f32
      %1223 = math.exp %1222 : f32
      %1224 = arith.addf %1223, %cst_1037 : f32
      %1225 = arith.divf %cst_1037, %1224 : f32
      linalg.yield %1225 : f32
    } -> tensor<1x288x1x1xf32>
    %155 = linalg.generic {indexing_maps = [#map3, #map2, #map], iterator_types = ["parallel", "parallel", "parallel", "parallel"]} ins(%154, %145 : tensor<1x288x1x1xf32>, tensor<1x288x150x150xf32>) outs(%112 : tensor<1x288x150x150xf32>) {
    ^bb0(%in: f32, %in_1154: f32, %out: f32):
      %1222 = arith.mulf %in, %in_1154 : f32
      linalg.yield %1222 : f32
    } -> tensor<1x288x150x150xf32>
    %156 = linalg.conv_2d_nchw_fchw {dilations = dense<1> : vector<2xi64>, strides = dense<1> : vector<2xi64>} ins(%155, %cst_922 : tensor<1x288x150x150xf32>, tensor<48x288x1x1xf32>) outs(%109 : tensor<1x48x150x150xf32>) -> tensor<1x48x150x150xf32>
    cf.assert %3, "training is not supported for now"
    %157 = linalg.generic {indexing_maps = [#map, #map1, #map1, #map1, #map1, #map], iterator_types = ["parallel", "parallel", "parallel", "parallel"]} ins(%156, %cst_919, %cst_918, %cst_921, %cst_920 : tensor<1x48x150x150xf32>, tensor<48xf32>, tensor<48xf32>, tensor<48xf32>, tensor<48xf32>) outs(%156 : tensor<1x48x150x150xf32>) {
    ^bb0(%in: f32, %in_1154: f32, %in_1155: f32, %in_1156: f32, %in_1157: f32, %out: f32):
      %1222 = arith.truncf %cst_1038 : f64 to f32
      %1223 = arith.addf %in_1157, %1222 : f32
      %1224 = math.rsqrt %1223 : f32
      %1225 = arith.subf %in, %in_1156 : f32
      %1226 = arith.mulf %1225, %1224 : f32
      %1227 = arith.mulf %1226, %in_1154 : f32
      %1228 = arith.addf %1227, %in_1155 : f32
      linalg.yield %1228 : f32
    } -> tensor<1x48x150x150xf32>
    %158 = linalg.generic {indexing_maps = [#map2, #map2, #map], iterator_types = ["parallel", "parallel", "parallel", "parallel"]} ins(%157, %137 : tensor<1x48x150x150xf32>, tensor<1x48x150x150xf32>) outs(%108 : tensor<1x48x150x150xf32>) {
    ^bb0(%in: f32, %in_1154: f32, %out: f32):
      %1222 = arith.addf %in, %in_1154 : f32
      linalg.yield %1222 : f32
    } -> tensor<1x48x150x150xf32>
    %159 = linalg.conv_2d_nchw_fchw {dilations = dense<1> : vector<2xi64>, strides = dense<1> : vector<2xi64>} ins(%158, %cst_917 : tensor<1x48x150x150xf32>, tensor<288x48x1x1xf32>) outs(%113 : tensor<1x288x150x150xf32>) -> tensor<1x288x150x150xf32>
    cf.assert %3, "training is not supported for now"
    %160 = linalg.generic {indexing_maps = [#map, #map1, #map1, #map1, #map1, #map], iterator_types = ["parallel", "parallel", "parallel", "parallel"]} ins(%159, %cst_914, %cst_913, %cst_916, %cst_915 : tensor<1x288x150x150xf32>, tensor<288xf32>, tensor<288xf32>, tensor<288xf32>, tensor<288xf32>) outs(%159 : tensor<1x288x150x150xf32>) {
    ^bb0(%in: f32, %in_1154: f32, %in_1155: f32, %in_1156: f32, %in_1157: f32, %out: f32):
      %1222 = arith.truncf %cst_1038 : f64 to f32
      %1223 = arith.addf %in_1157, %1222 : f32
      %1224 = math.rsqrt %1223 : f32
      %1225 = arith.subf %in, %in_1156 : f32
      %1226 = arith.mulf %1225, %1224 : f32
      %1227 = arith.mulf %1226, %in_1154 : f32
      %1228 = arith.addf %1227, %in_1155 : f32
      linalg.yield %1228 : f32
    } -> tensor<1x288x150x150xf32>
    %161 = linalg.generic {indexing_maps = [#map2, #map], iterator_types = ["parallel", "parallel", "parallel", "parallel"]} ins(%160 : tensor<1x288x150x150xf32>) outs(%112 : tensor<1x288x150x150xf32>) {
    ^bb0(%in: f32, %out: f32):
      %1222 = arith.negf %in : f32
      %1223 = math.exp %1222 : f32
      %1224 = arith.addf %1223, %cst_1037 : f32
      %1225 = arith.divf %cst_1037, %1224 : f32
      linalg.yield %1225 : f32
    } -> tensor<1x288x150x150xf32>
    %162 = linalg.generic {indexing_maps = [#map2, #map2, #map], iterator_types = ["parallel", "parallel", "parallel", "parallel"]} ins(%161, %160 : tensor<1x288x150x150xf32>, tensor<1x288x150x150xf32>) outs(%112 : tensor<1x288x150x150xf32>) {
    ^bb0(%in: f32, %in_1154: f32, %out: f32):
      %1222 = arith.mulf %in, %in_1154 : f32
      linalg.yield %1222 : f32
    } -> tensor<1x288x150x150xf32>
    %padded_1057 = tensor.pad %162 low[0, 0, 1, 1] high[0, 0, 1, 1] {
    ^bb0(%arg1: index, %arg2: index, %arg3: index, %arg4: index):
      tensor.yield %cst_1036 : f32
    } : tensor<1x288x150x150xf32> to tensor<1x288x152x152xf32>
    %collapsed_1058 = tensor.collapse_shape %cst_912 [[0, 1], [2], [3]] : tensor<288x1x3x3xf32> into tensor<288x3x3xf32>
    %163 = linalg.depthwise_conv_2d_nchw_chw {dilations = dense<1> : vector<2xi64>, strides = dense<1> : vector<2xi64>} ins(%padded_1057, %collapsed_1058 : tensor<1x288x152x152xf32>, tensor<288x3x3xf32>) outs(%113 : tensor<1x288x150x150xf32>) -> tensor<1x288x150x150xf32>
    cf.assert %3, "training is not supported for now"
    %164 = linalg.generic {indexing_maps = [#map, #map1, #map1, #map1, #map1, #map], iterator_types = ["parallel", "parallel", "parallel", "parallel"]} ins(%163, %cst_909, %cst_908, %cst_911, %cst_910 : tensor<1x288x150x150xf32>, tensor<288xf32>, tensor<288xf32>, tensor<288xf32>, tensor<288xf32>) outs(%163 : tensor<1x288x150x150xf32>) {
    ^bb0(%in: f32, %in_1154: f32, %in_1155: f32, %in_1156: f32, %in_1157: f32, %out: f32):
      %1222 = arith.truncf %cst_1038 : f64 to f32
      %1223 = arith.addf %in_1157, %1222 : f32
      %1224 = math.rsqrt %1223 : f32
      %1225 = arith.subf %in, %in_1156 : f32
      %1226 = arith.mulf %1225, %1224 : f32
      %1227 = arith.mulf %1226, %in_1154 : f32
      %1228 = arith.addf %1227, %in_1155 : f32
      linalg.yield %1228 : f32
    } -> tensor<1x288x150x150xf32>
    %165 = linalg.generic {indexing_maps = [#map2, #map], iterator_types = ["parallel", "parallel", "parallel", "parallel"]} ins(%164 : tensor<1x288x150x150xf32>) outs(%112 : tensor<1x288x150x150xf32>) {
    ^bb0(%in: f32, %out: f32):
      %1222 = arith.negf %in : f32
      %1223 = math.exp %1222 : f32
      %1224 = arith.addf %1223, %cst_1037 : f32
      %1225 = arith.divf %cst_1037, %1224 : f32
      linalg.yield %1225 : f32
    } -> tensor<1x288x150x150xf32>
    %166 = linalg.generic {indexing_maps = [#map2, #map2, #map], iterator_types = ["parallel", "parallel", "parallel", "parallel"]} ins(%165, %164 : tensor<1x288x150x150xf32>, tensor<1x288x150x150xf32>) outs(%112 : tensor<1x288x150x150xf32>) {
    ^bb0(%in: f32, %in_1154: f32, %out: f32):
      %1222 = arith.mulf %in, %in_1154 : f32
      linalg.yield %1222 : f32
    } -> tensor<1x288x150x150xf32>
    %167 = linalg.pooling_nchw_sum {dilations = dense<1> : vector<2xi64>, strides = dense<1> : vector<2xi64>} ins(%166, %97 : tensor<1x288x150x150xf32>, tensor<150x150xf32>) outs(%123 : tensor<1x288x1x1xf32>) -> tensor<1x288x1x1xf32>
    %168 = linalg.generic {indexing_maps = [#map, #map], iterator_types = ["parallel", "parallel", "parallel", "parallel"]} ins(%167 : tensor<1x288x1x1xf32>) outs(%122 : tensor<1x288x1x1xf32>) {
    ^bb0(%in: f32, %out: f32):
      %1222 = arith.divf %in, %cst_1040 : f32
      linalg.yield %1222 : f32
    } -> tensor<1x288x1x1xf32>
    %169 = linalg.generic {indexing_maps = [#map1, #map], iterator_types = ["parallel", "parallel", "parallel", "parallel"]} ins(%cst_906 : tensor<12xf32>) outs(%126 : tensor<1x12x1x1xf32>) {
    ^bb0(%in: f32, %out: f32):
      linalg.yield %in : f32
    } -> tensor<1x12x1x1xf32>
    %170 = linalg.conv_2d_nchw_fchw {dilations = dense<1> : vector<2xi64>, strides = dense<1> : vector<2xi64>} ins(%168, %cst_907 : tensor<1x288x1x1xf32>, tensor<12x288x1x1xf32>) outs(%169 : tensor<1x12x1x1xf32>) -> tensor<1x12x1x1xf32>
    %171 = linalg.generic {indexing_maps = [#map3, #map], iterator_types = ["parallel", "parallel", "parallel", "parallel"]} ins(%170 : tensor<1x12x1x1xf32>) outs(%126 : tensor<1x12x1x1xf32>) {
    ^bb0(%in: f32, %out: f32):
      %1222 = arith.negf %in : f32
      %1223 = math.exp %1222 : f32
      %1224 = arith.addf %1223, %cst_1037 : f32
      %1225 = arith.divf %cst_1037, %1224 : f32
      linalg.yield %1225 : f32
    } -> tensor<1x12x1x1xf32>
    %172 = linalg.generic {indexing_maps = [#map3, #map3, #map], iterator_types = ["parallel", "parallel", "parallel", "parallel"]} ins(%171, %170 : tensor<1x12x1x1xf32>, tensor<1x12x1x1xf32>) outs(%126 : tensor<1x12x1x1xf32>) {
    ^bb0(%in: f32, %in_1154: f32, %out: f32):
      %1222 = arith.mulf %in, %in_1154 : f32
      linalg.yield %1222 : f32
    } -> tensor<1x12x1x1xf32>
    %173 = linalg.generic {indexing_maps = [#map1, #map], iterator_types = ["parallel", "parallel", "parallel", "parallel"]} ins(%cst_904 : tensor<288xf32>) outs(%122 : tensor<1x288x1x1xf32>) {
    ^bb0(%in: f32, %out: f32):
      linalg.yield %in : f32
    } -> tensor<1x288x1x1xf32>
    %174 = linalg.conv_2d_nchw_fchw {dilations = dense<1> : vector<2xi64>, strides = dense<1> : vector<2xi64>} ins(%172, %cst_905 : tensor<1x12x1x1xf32>, tensor<288x12x1x1xf32>) outs(%173 : tensor<1x288x1x1xf32>) -> tensor<1x288x1x1xf32>
    %175 = linalg.generic {indexing_maps = [#map3, #map], iterator_types = ["parallel", "parallel", "parallel", "parallel"]} ins(%174 : tensor<1x288x1x1xf32>) outs(%122 : tensor<1x288x1x1xf32>) {
    ^bb0(%in: f32, %out: f32):
      %1222 = arith.negf %in : f32
      %1223 = math.exp %1222 : f32
      %1224 = arith.addf %1223, %cst_1037 : f32
      %1225 = arith.divf %cst_1037, %1224 : f32
      linalg.yield %1225 : f32
    } -> tensor<1x288x1x1xf32>
    %176 = linalg.generic {indexing_maps = [#map3, #map2, #map], iterator_types = ["parallel", "parallel", "parallel", "parallel"]} ins(%175, %166 : tensor<1x288x1x1xf32>, tensor<1x288x150x150xf32>) outs(%112 : tensor<1x288x150x150xf32>) {
    ^bb0(%in: f32, %in_1154: f32, %out: f32):
      %1222 = arith.mulf %in, %in_1154 : f32
      linalg.yield %1222 : f32
    } -> tensor<1x288x150x150xf32>
    %177 = linalg.conv_2d_nchw_fchw {dilations = dense<1> : vector<2xi64>, strides = dense<1> : vector<2xi64>} ins(%176, %cst_903 : tensor<1x288x150x150xf32>, tensor<48x288x1x1xf32>) outs(%109 : tensor<1x48x150x150xf32>) -> tensor<1x48x150x150xf32>
    cf.assert %3, "training is not supported for now"
    %178 = linalg.generic {indexing_maps = [#map, #map1, #map1, #map1, #map1, #map], iterator_types = ["parallel", "parallel", "parallel", "parallel"]} ins(%177, %cst_900, %cst_899, %cst_902, %cst_901 : tensor<1x48x150x150xf32>, tensor<48xf32>, tensor<48xf32>, tensor<48xf32>, tensor<48xf32>) outs(%177 : tensor<1x48x150x150xf32>) {
    ^bb0(%in: f32, %in_1154: f32, %in_1155: f32, %in_1156: f32, %in_1157: f32, %out: f32):
      %1222 = arith.truncf %cst_1038 : f64 to f32
      %1223 = arith.addf %in_1157, %1222 : f32
      %1224 = math.rsqrt %1223 : f32
      %1225 = arith.subf %in, %in_1156 : f32
      %1226 = arith.mulf %1225, %1224 : f32
      %1227 = arith.mulf %1226, %in_1154 : f32
      %1228 = arith.addf %1227, %in_1155 : f32
      linalg.yield %1228 : f32
    } -> tensor<1x48x150x150xf32>
    %179 = linalg.generic {indexing_maps = [#map2, #map2, #map], iterator_types = ["parallel", "parallel", "parallel", "parallel"]} ins(%178, %158 : tensor<1x48x150x150xf32>, tensor<1x48x150x150xf32>) outs(%108 : tensor<1x48x150x150xf32>) {
    ^bb0(%in: f32, %in_1154: f32, %out: f32):
      %1222 = arith.addf %in, %in_1154 : f32
      linalg.yield %1222 : f32
    } -> tensor<1x48x150x150xf32>
    %180 = linalg.conv_2d_nchw_fchw {dilations = dense<1> : vector<2xi64>, strides = dense<1> : vector<2xi64>} ins(%179, %cst_898 : tensor<1x48x150x150xf32>, tensor<288x48x1x1xf32>) outs(%113 : tensor<1x288x150x150xf32>) -> tensor<1x288x150x150xf32>
    cf.assert %3, "training is not supported for now"
    %181 = linalg.generic {indexing_maps = [#map, #map1, #map1, #map1, #map1, #map], iterator_types = ["parallel", "parallel", "parallel", "parallel"]} ins(%180, %cst_895, %cst_894, %cst_897, %cst_896 : tensor<1x288x150x150xf32>, tensor<288xf32>, tensor<288xf32>, tensor<288xf32>, tensor<288xf32>) outs(%180 : tensor<1x288x150x150xf…
    %1095 = linalg.conv_2d_nchw_fchw {dilations = dense<1> : vector<2xi64>, strides = dense<1> : vector<2xi64>} ins(%1094, %cst_100 : tensor<1x384x19x19xf32>, tensor<2304x384x1x1xf32>) outs(%860 : tensor<1x2304x19x19xf32>) -> tensor<1x2304x19x19xf32>
    cf.assert %3, "training is not supported for now"
    %1096 = linalg.generic {indexing_maps = [#map, #map1, #map1, #map1, #map1, #map], iterator_types = ["parallel", "parallel", "parallel", "parallel"]} ins(%1095, %cst_97, %cst_96, %cst_99, %cst_98 : tensor<1x2304x19x19xf32>, tensor<2304xf32>, tensor<2304xf32>, tensor<2304xf32>, tensor<2304xf32>) outs(%1095 : tensor<1x2304x19x19xf32>) {
    ^bb0(%in: f32, %in_1154: f32, %in_1155: f32, %in_1156: f32, %in_1157: f32, %out: f32):
      %1222 = arith.truncf %cst_1038 : f64 to f32
      %1223 = arith.addf %in_1157, %1222 : f32
      %1224 = math.rsqrt %1223 : f32
      %1225 = arith.subf %in, %in_1156 : f32
      %1226 = arith.mulf %1225, %1224 : f32
      %1227 = arith.mulf %1226, %in_1154 : f32
      %1228 = arith.addf %1227, %in_1155 : f32
      linalg.yield %1228 : f32
    } -> tensor<1x2304x19x19xf32>
    %1097 = linalg.generic {indexing_maps = [#map2, #map], iterator_types = ["parallel", "parallel", "parallel", "parallel"]} ins(%1096 : tensor<1x2304x19x19xf32>) outs(%859 : tensor<1x2304x19x19xf32>) {
    ^bb0(%in: f32, %out: f32):
      %1222 = arith.negf %in : f32
      %1223 = math.exp %1222 : f32
      %1224 = arith.addf %1223, %cst_1037 : f32
      %1225 = arith.divf %cst_1037, %1224 : f32
      linalg.yield %1225 : f32
    } -> tensor<1x2304x19x19xf32>
    %1098 = linalg.generic {indexing_maps = [#map2, #map2, #map], iterator_types = ["parallel", "parallel", "parallel", "parallel"]} ins(%1097, %1096 : tensor<1x2304x19x19xf32>, tensor<1x2304x19x19xf32>) outs(%859 : tensor<1x2304x19x19xf32>) {
    ^bb0(%in: f32, %in_1154: f32, %out: f32):
      %1222 = arith.mulf %in, %in_1154 : f32
      linalg.yield %1222 : f32
    } -> tensor<1x2304x19x19xf32>
    %padded_1143 = tensor.pad %1098 low[0, 0, 2, 2] high[0, 0, 2, 2] {
    ^bb0(%arg1: index, %arg2: index, %arg3: index, %arg4: index):
      tensor.yield %cst_1036 : f32
    } : tensor<1x2304x19x19xf32> to tensor<1x2304x23x23xf32>
    %collapsed_1144 = tensor.collapse_shape %cst_95 [[0, 1], [2], [3]] : tensor<2304x1x5x5xf32> into tensor<2304x5x5xf32>
    %1099 = linalg.depthwise_conv_2d_nchw_chw {dilations = dense<1> : vector<2xi64>, strides = dense<1> : vector<2xi64>} ins(%padded_1143, %collapsed_1144 : tensor<1x2304x23x23xf32>, tensor<2304x5x5xf32>) outs(%860 : tensor<1x2304x19x19xf32>) -> tensor<1x2304x19x19xf32>
    cf.assert %3, "training is not supported for now"
    %1100 = linalg.generic {indexing_maps = [#map, #map1, #map1, #map1, #map1, #map], iterator_types = ["parallel", "parallel", "parallel", "parallel"]} ins(%1099, %cst_92, %cst_91, %cst_94, %cst_93 : tensor<1x2304x19x19xf32>, tensor<2304xf32>, tensor<2304xf32>, tensor<2304xf32>, tensor<2304xf32>) outs(%1099 : tensor<1x2304x19x19xf32>) {
    ^bb0(%in: f32, %in_1154: f32, %in_1155: f32, %in_1156: f32, %in_1157: f32, %out: f32):
      %1222 = arith.truncf %cst_1038 : f64 to f32
      %1223 = arith.addf %in_1157, %1222 : f32
      %1224 = math.rsqrt %1223 : f32
      %1225 = arith.subf %in, %in_1156 : f32
      %1226 = arith.mulf %1225, %1224 : f32
      %1227 = arith.mulf %1226, %in_1154 : f32
      %1228 = arith.addf %1227, %in_1155 : f32
      linalg.yield %1228 : f32
    } -> tensor<1x2304x19x19xf32>
    %1101 = linalg.generic {indexing_maps = [#map2, #map], iterator_types = ["parallel", "parallel", "parallel", "parallel"]} ins(%1100 : tensor<1x2304x19x19xf32>) outs(%859 : tensor<1x2304x19x19xf32>) {
    ^bb0(%in: f32, %out: f32):
      %1222 = arith.negf %in : f32
      %1223 = math.exp %1222 : f32
      %1224 = arith.addf %1223, %cst_1037 : f32
      %1225 = arith.divf %cst_1037, %1224 : f32
      linalg.yield %1225 : f32
    } -> tensor<1x2304x19x19xf32>
    %1102 = linalg.generic {indexing_maps = [#map2, #map2, #map], iterator_types = ["parallel", "parallel", "parallel", "parallel"]} ins(%1101, %1100 : tensor<1x2304x19x19xf32>, tensor<1x2304x19x19xf32>) outs(%859 : tensor<1x2304x19x19xf32>) {
    ^bb0(%in: f32, %in_1154: f32, %out: f32):
      %1222 = arith.mulf %in, %in_1154 : f32
      linalg.yield %1222 : f32
    } -> tensor<1x2304x19x19xf32>
    %1103 = linalg.pooling_nchw_sum {dilations = dense<1> : vector<2xi64>, strides = dense<1> : vector<2xi64>} ins(%1102, %844 : tensor<1x2304x19x19xf32>, tensor<19x19xf32>) outs(%870 : tensor<1x2304x1x1xf32>) -> tensor<1x2304x1x1xf32>
    %1104 = linalg.generic {indexing_maps = [#map, #map], iterator_types = ["parallel", "parallel", "parallel", "parallel"]} ins(%1103 : tensor<1x2304x1x1xf32>) outs(%869 : tensor<1x2304x1x1xf32>) {
    ^bb0(%in: f32, %out: f32):
      %1222 = arith.divf %in, %cst_1043 : f32
      linalg.yield %1222 : f32
    } -> tensor<1x2304x1x1xf32>
    %1105 = linalg.generic {indexing_maps = [#map1, #map], iterator_types = ["parallel", "parallel", "parallel", "parallel"]} ins(%cst_89 : tensor<96xf32>) outs(%873 : tensor<1x96x1x1xf32>) {
    ^bb0(%in: f32, %out: f32):
      linalg.yield %in : f32
    } -> tensor<1x96x1x1xf32>
    %1106 = linalg.conv_2d_nchw_fchw {dilations = dense<1> : vector<2xi64>, strides = dense<1> : vector<2xi64>} ins(%1104, %cst_90 : tensor<1x2304x1x1xf32>, tensor<96x2304x1x1xf32>) outs(%1105 : tensor<1x96x1x1xf32>) -> tensor<1x96x1x1xf32>
    %1107 = linalg.generic {indexing_maps = [#map3, #map], iterator_types = ["parallel", "parallel", "parallel", "parallel"]} ins(%1106 : tensor<1x96x1x1xf32>) outs(%873 : tensor<1x96x1x1xf32>) {
    ^bb0(%in: f32, %out: f32):
      %1222 = arith.negf %in : f32
      %1223 = math.exp %1222 : f32
      %1224 = arith.addf %1223, %cst_1037 : f32
      %1225 = arith.divf %cst_1037, %1224 : f32
      linalg.yield %1225 : f32
    } -> tensor<1x96x1x1xf32>
    %1108 = linalg.generic {indexing_maps = [#map3, #map3, #map], iterator_types = ["parallel", "parallel", "parallel", "parallel"]} ins(%1107, %1106 : tensor<1x96x1x1xf32>, tensor<1x96x1x1xf32>) outs(%873 : tensor<1x96x1x1xf32>) {
    ^bb0(%in: f32, %in_1154: f32, %out: f32):
      %1222 = arith.mulf %in, %in_1154 : f32
      linalg.yield %1222 : f32
    } -> tensor<1x96x1x1xf32>
    %1109 = linalg.generic {indexing_maps = [#map1, #map], iterator_types = ["parallel", "parallel", "parallel", "parallel"]} ins(%cst_87 : tensor<2304xf32>) outs(%869 : tensor<1x2304x1x1xf32>) {
    ^bb0(%in: f32, %out: f32):
      linalg.yield %in : f32
    } -> tensor<1x2304x1x1xf32>
    %1110 = linalg.conv_2d_nchw_fchw {dilations = dense<1> : vector<2xi64>, strides = dense<1> : vector<2xi64>} ins(%1108, %cst_88 : tensor<1x96x1x1xf32>, tensor<2304x96x1x1xf32>) outs(%1109 : tensor<1x2304x1x1xf32>) -> tensor<1x2304x1x1xf32>
    %1111 = linalg.generic {indexing_maps = [#map3, #map], iterator_types = ["parallel", "parallel", "parallel", "parallel"]} ins(%1110 : tensor<1x2304x1x1xf32>) outs(%869 : tensor<1x2304x1x1xf32>) {
    ^bb0(%in: f32, %out: f32):
      %1222 = arith.negf %in : f32
      %1223 = math.exp %1222 : f32
      %1224 = arith.addf %1223, %cst_1037 : f32
      %1225 = arith.divf %cst_1037, %1224 : f32
      linalg.yield %1225 : f32
    } -> tensor<1x2304x1x1xf32>
    %1112 = linalg.generic {indexing_maps = [#map3, #map2, #map], iterator_types = ["parallel", "parallel", "parallel", "parallel"]} ins(%1111, %1102 : tensor<1x2304x1x1xf32>, tensor<1x2304x19x19xf32>) outs(%859 : tensor<1x2304x19x19xf32>) {
    ^bb0(%in: f32, %in_1154: f32, %out: f32):
      %1222 = arith.mulf %in, %in_1154 : f32
      linalg.yield %1222 : f32
    } -> tensor<1x2304x19x19xf32>
    %1113 = linalg.conv_2d_nchw_fchw {dilations = dense<1> : vector<2xi64>, strides = dense<1> : vector<2xi64>} ins(%1112, %cst_86 : tensor<1x2304x19x19xf32>, tensor<384x2304x1x1xf32>) outs(%856 : tensor<1x384x19x19xf32>) -> tensor<1x384x19x19xf32>
    cf.assert %3, "training is not supported for now"
    %1114 = linalg.generic {indexing_maps = [#map, #map1, #map1, #map1, #map1, #map], iterator_types = ["parallel", "parallel", "parallel", "parallel"]} ins(%1113, %cst_83, %cst_82, %cst_85, %cst_84 : tensor<1x384x19x19xf32>, tensor<384xf32>, tensor<384xf32>, tensor<384xf32>, tensor<384xf32>) outs(%1113 : tensor<1x384x19x19xf32>) {
    ^bb0(%in: f32, %in_1154: f32, %in_1155: f32, %in_1156: f32, %in_1157: f32, %out: f32):
      %1222 = arith.truncf %cst_1038 : f64 to f32
      %1223 = arith.addf %in_1157, %1222 : f32
      %1224 = math.rsqrt %1223 : f32
      %1225 = arith.subf %in, %in_1156 : f32
      %1226 = arith.mulf %1225, %1224 : f32
      %1227 = arith.mulf %1226, %in_1154 : f32
      %1228 = arith.addf %1227, %in_1155 : f32
      linalg.yield %1228 : f32
    } -> tensor<1x384x19x19xf32>
    %1115 = linalg.generic {indexing_maps = [#map2, #map2, #map], iterator_types = ["parallel", "parallel", "parallel", "parallel"]} ins(%1114, %1094 : tensor<1x384x19x19xf32>, tensor<1x384x19x19xf32>) outs(%855 : tensor<1x384x19x19xf32>) {
    ^bb0(%in: f32, %in_1154: f32, %out: f32):
      %1222 = arith.addf %in, %in_1154 : f32
      linalg.yield %1222 : f32
    } -> tensor<1x384x19x19xf32>
    %1116 = linalg.conv_2d_nchw_fchw {dilations = dense<1> : vector<2xi64>, strides = dense<1> : vector<2xi64>} ins(%1115, %cst_81 : tensor<1x384x19x19xf32>, tensor<2304x384x1x1xf32>) outs(%860 : tensor<1x2304x19x19xf32>) -> tensor<1x2304x19x19xf32>
    cf.assert %3, "training is not supported for now"
    %1117 = linalg.generic {indexing_maps = [#map, #map1, #map1, #map1, #map1, #map], iterator_types = ["parallel", "parallel", "parallel", "parallel"]} ins(%1116, %cst_78, %cst_77, %cst_80, %cst_79 : tensor<1x2304x19x19xf32>, tensor<2304xf32>, tensor<2304xf32>, tensor<2304xf32>, tensor<2304xf32>) outs(%1116 : tensor<1x2304x19x19xf32>) {
    ^bb0(%in: f32, %in_1154: f32, %in_1155: f32, %in_1156: f32, %in_1157: f32, %out: f32):
      %1222 = arith.truncf %cst_1038 : f64 to f32
      %1223 = arith.addf %in_1157, %1222 : f32
      %1224 = math.rsqrt %1223 : f32
      %1225 = arith.subf %in, %in_1156 : f32
      %1226 = arith.mulf %1225, %1224 : f32
      %1227 = arith.mulf %1226, %in_1154 : f32
      %1228 = arith.addf %1227, %in_1155 : f32
      linalg.yield %1228 : f32
    } -> tensor<1x2304x19x19xf32>
    %1118 = linalg.generic {indexing_maps = [#map2, #map], iterator_types = ["parallel", "parallel", "parallel", "parallel"]} ins(%1117 : tensor<1x2304x19x19xf32>) outs(%859 : tensor<1x2304x19x19xf32>) {
    ^bb0(%in: f32, %out: f32):
      %1222 = arith.negf %in : f32
      %1223 = math.exp %1222 : f32
      %1224 = arith.addf %1223, %cst_1037 : f32
      %1225 = arith.divf %cst_1037, %1224 : f32
      linalg.yield %1225 : f32
    } -> tensor<1x2304x19x19xf32>
    %1119 = linalg.generic {indexing_maps = [#map2, #map2, #map], iterator_types = ["parallel", "parallel", "parallel", "parallel"]} ins(%1118, %1117 : tensor<1x2304x19x19xf32>, tensor<1x2304x19x19xf32>) outs(%859 : tensor<1x2304x19x19xf32>) {
    ^bb0(%in: f32, %in_1154: f32, %out: f32):
      %1222 = arith.mulf %in, %in_1154 : f32
      linalg.yield %1222 : f32
    } -> tensor<1x2304x19x19xf32>
    %padded_1145 = tensor.pad %1119 low[0, 0, 1, 1] high[0, 0, 1, 1] {
    ^bb0(%arg1: index, %arg2: index, %arg3: index, %arg4: index):
      tensor.yield %cst_1036 : f32
    } : tensor<1x2304x19x19xf32> to tensor<1x2304x21x21xf32>
    %collapsed_1146 = tensor.collapse_shape %cst_76 [[0, 1], [2], [3]] : tensor<2304x1x3x3xf32> into tensor<2304x3x3xf32>
    %1120 = linalg.depthwise_conv_2d_nchw_chw {dilations = dense<1> : vector<2xi64>, strides = dense<1> : vector<2xi64>} ins(%padded_1145, %collapsed_1146 : tensor<1x2304x21x21xf32>, tensor<2304x3x3xf32>) outs(%860 : tensor<1x2304x19x19xf32>) -> tensor<1x2304x19x19xf32>
    cf.assert %3, "training is not supported for now"
    %1121 = linalg.generic {indexing_maps = [#map, #map1, #map1, #map1, #map1, #map], iterator_types = ["parallel", "parallel", "parallel", "parallel"]} ins(%1120, %cst_73, %cst_72, %cst_75, %cst_74 : tensor<1x2304x19x19xf32>, tensor<2304xf32>, tensor<2304xf32>, tensor<2304xf32>, tensor<2304xf32>) outs(%1120 : tensor<1x2304x19x19xf32>) {
    ^bb0(%in: f32, %in_1154: f32, %in_1155: f32, %in_1156: f32, %in_1157: f32, %out: f32):
      %1222 = arith.truncf %cst_1038 : f64 to f32
      %1223 = arith.addf %in_1157, %1222 : f32
      %1224 = math.rsqrt %1223 : f32
      %1225 = arith.subf %in, %in_1156 : f32
      %1226 = arith.mulf %1225, %1224 : f32
      %1227 = arith.mulf %1226, %in_1154 : f32
      %1228 = arith.addf %1227, %in_1155 : f32
      linalg.yield %1228 : f32
    } -> tensor<1x2304x19x19xf32>
    %1122 = linalg.generic {indexing_maps = [#map2, #map], iterator_types = ["parallel", "parallel", "parallel", "parallel"]} ins(%1121 : tensor<1x2304x19x19xf32>) outs(%859 : tensor<1x2304x19x19xf32>) {
    ^bb0(%in: f32, %out: f32):
      %1222 = arith.negf %in : f32
      %1223 = math.exp %1222 : f32
      %1224 = arith.addf %1223, %cst_1037 : f32
      %1225 = arith.divf %cst_1037, %1224 : f32
      linalg.yield %1225 : f32
    } -> tensor<1x2304x19x19xf32>
    %1123 = linalg.generic {indexing_maps = [#map2, #map2, #map], iterator_types = ["parallel", "parallel", "parallel", "parallel"]} ins(%1122, %1121 : tensor<1x2304x19x19xf32>, tensor<1x2304x19x19xf32>) outs(%859 : tensor<1x2304x19x19xf32>) {
    ^bb0(%in: f32, %in_1154: f32, %out: f32):
      %1222 = arith.mulf %in, %in_1154 : f32
      linalg.yield %1222 : f32
    } -> tensor<1x2304x19x19xf32>
    %1124 = linalg.pooling_nchw_sum {dilations = dense<1> : vector<2xi64>, strides = dense<1> : vector<2xi64>} ins(%1123, %844 : tensor<1x2304x19x19xf32>, tensor<19x19xf32>) outs(%870 : tensor<1x2304x1x1xf32>) -> tensor<1x2304x1x1xf32>
    %1125 = linalg.generic {indexing_maps = [#map, #map], iterator_types = ["parallel", "parallel", "parallel", "parallel"]} ins(%1124 : tensor<1x2304x1x1xf32>) outs(%869 : tensor<1x2304x1x1xf32>) {
    ^bb0(%in: f32, %out: f32):
      %1222 = arith.divf %in, %cst_1043 : f32
      linalg.yield %1222 : f32
    } -> tensor<1x2304x1x1xf32>
    %1126 = linalg.generic {indexing_maps = [#map1, #map], iterator_types = ["parallel", "parallel", "parallel", "parallel"]} ins(%cst_70 : tensor<96xf32>) outs(%873 : tensor<1x96x1x1xf32>) {
    ^bb0(%in: f32, %out: f32):
      linalg.yield %in : f32
    } -> tensor<1x96x1x1xf32>
    %1127 = linalg.conv_2d_nchw_fchw {dilations = dense<1> : vector<2xi64>, strides = dense<1> : vector<2xi64>} ins(%1125, %cst_71 : tensor<1x2304x1x1xf32>, tensor<96x2304x1x1xf32>) outs(%1126 : tensor<1x96x1x1xf32>) -> tensor<1x96x1x1xf32>
    %1128 = linalg.generic {indexing_maps = [#map3, #map], iterator_types = ["parallel", "parallel", "parallel", "parallel"]} ins(%1127 : tensor<1x96x1x1xf32>) outs(%873 : tensor<1x96x1x1xf32>) {
    ^bb0(%in: f32, %out: f32):
      %1222 = arith.negf %in : f32
      %1223 = math.exp %1222 : f32
      %1224 = arith.addf %1223, %cst_1037 : f32
      %1225 = arith.divf %cst_1037, %1224 : f32
      linalg.yield %1225 : f32
    } -> tensor<1x96x1x1xf32>
    %1129 = linalg.generic {indexing_maps = [#map3, #map3, #map], iterator_types = ["parallel", "parallel", "parallel", "parallel"]} ins(%1128, %1127 : tensor<1x96x1x1xf32>, tensor<1x96x1x1xf32>) outs(%873 : tensor<1x96x1x1xf32>) {
    ^bb0(%in: f32, %in_1154: f32, %out: f32):
      %1222 = arith.mulf %in, %in_1154 : f32
      linalg.yield %1222 : f32
    } -> tensor<1x96x1x1xf32>
    %1130 = linalg.generic {indexing_maps = [#map1, #map], iterator_types = ["parallel", "parallel", "parallel", "parallel"]} ins(%cst_68 : tensor<2304xf32>) outs(%869 : tensor<1x2304x1x1xf32>) {
    ^bb0(%in: f32, %out: f32):
      linalg.yield %in : f32
    } -> tensor<1x2304x1x1xf32>
    %1131 = linalg.conv_2d_nchw_fchw {dilations = dense<1> : vector<2xi64>, strides = dense<1> : vector<2xi64>} ins(%1129, %cst_69 : tensor<1x96x1x1xf32>, tensor<2304x96x1x1xf32>) outs(%1130 : tensor<1x2304x1x1xf32>) -> tensor<1x2304x1x1xf32>
    %1132 = linalg.generic {indexing_maps = [#map3, #map], iterator_types = ["parallel", "parallel", "parallel", "parallel"]} ins(%1131 : tensor<1x2304x1x1xf32>) outs(%869 : tensor<1x2304x1x1xf32>) {
    ^bb0(%in: f32, %out: f32):
      %1222 = arith.negf %in : f32
      %1223 = math.exp %1222 : f32
      %1224 = arith.addf %1223, %cst_1037 : f32
      %1225 = arith.divf %cst_1037, %1224 : f32
      linalg.yield %1225 : f32
    } -> tensor<1x2304x1x1xf32>
    %1133 = linalg.generic {indexing_maps = [#map3, #map2, #map], iterator_types = ["parallel", "parallel", "parallel", "parallel"]} ins(%1132, %1123 : tensor<1x2304x1x1xf32>, tensor<1x2304x19x19xf32>) outs(%859 : tensor<1x2304x19x19xf32>) {
    ^bb0(%in: f32, %in_1154: f32, %out: f32):
      %1222 = arith.mulf %in, %in_1154 : f32
      linalg.yield %1222 : f32
    } -> tensor<1x2304x19x19xf32>
    %1134 = tensor.empty() : tensor<1x640x19x19xf32>
    %1135 = linalg.fill ins(%cst_1036 : f32) outs(%1134 : tensor<1x640x19x19xf32>) -> tensor<1x640x19x19xf32>
    %1136 = linalg.conv_2d_nchw_fchw {dilations = dense<1> : vector<2xi64>, strides = dense<1> : vector<2xi64>} ins(%1133, %cst_67 : tensor<1x2304x19x19xf32>, tensor<640x2304x1x1xf32>) outs(%1135 : tensor<1x640x19x19xf32>) -> tensor<1x640x19x19xf32>
    cf.assert %3, "training is not supported for now"
    %1137 = linalg.generic {indexing_maps = [#map, #map1, #map1, #map1, #map1, #map], iterator_types = ["parallel", "parallel", "parallel", "parallel"]} ins(%1136, %cst_64, %cst_63, %cst_66, %cst_65 : tensor<1x640x19x19xf32>, tensor<640xf32>, tensor<640xf32>, tensor<640xf32>, tensor<640xf32>) outs(%1136 : tensor<1x640x19x19xf32>) {
    ^bb0(%in: f32, %in_1154: f32, %in_1155: f32, %in_1156: f32, %in_1157: f32, %out: f32):
      %1222 = arith.truncf %cst_1038 : f64 to f32
      %1223 = arith.addf %in_1157, %1222 : f32
      %1224 = math.rsqrt %1223 : f32
      %1225 = arith.subf %in, %in_1156 : f32
      %1226 = arith.mulf %1225, %1224 : f32
      %1227 = arith.mulf %1226, %in_1154 : f32
      %1228 = arith.addf %1227, %in_1155 : f32
      linalg.yield %1228 : f32
    } -> tensor<1x640x19x19xf32>
    %1138 = tensor.empty() : tensor<1x3840x19x19xf32>
    %1139 = linalg.fill ins(%cst_1036 : f32) outs(%1138 : tensor<1x3840x19x19xf32>) -> tensor<1x3840x19x19xf32>
    %1140 = linalg.conv_2d_nchw_fchw {dilations = dense<1> : vector<2xi64>, strides = dense<1> : vector<2xi64>} ins(%1137, %cst_62 : tensor<1x640x19x19xf32>, tensor<3840x640x1x1xf32>) outs(%1139 : tensor<1x3840x19x19xf32>) -> tensor<1x3840x19x19xf32>
    cf.assert %3, "training is not supported for now"
    %1141 = linalg.generic {indexing_maps = [#map, #map1, #map1, #map1, #map1, #map], iterator_types = ["parallel", "parallel", "parallel", "parallel"]} ins(%1140, %cst_59, %cst_58, %cst_61, %cst_60 : tensor<1x3840x19x19xf32>, tensor<3840xf32>, tensor<3840xf32>, tensor<3840xf32>, tensor<3840xf32>) outs(%1140 : tensor<1x3840x19x19xf32>) {
    ^bb0(%in: f32, %in_1154: f32, %in_1155: f32, %in_1156: f32, %in_1157: f32, %out: f32):
      %1222 = arith.truncf %cst_1038 : f64 to f32
      %1223 = arith.addf %in_1157, %1222 : f32
      %1224 = math.rsqrt %1223 : f32
      %1225 = arith.subf %in, %in_1156 : f32
      %1226 = arith.mulf %1225, %1224 : f32
      %1227 = arith.mulf %1226, %in_1154 : f32
      %1228 = arith.addf %1227, %in_1155 : f32
      linalg.yield %1228 : f32
    } -> tensor<1x3840x19x19xf32>
    %1142 = linalg.generic {indexing_maps = [#map2, #map], iterator_types = ["parallel", "parallel", "parallel", "parallel"]} ins(%1141 : tensor<1x3840x19x19xf32>) outs(%1138 : tensor<1x3840x19x19xf32>) {
    ^bb0(%in: f32, %out: f32):
      %1222 = arith.negf %in : f32
      %1223 = math.exp %1222 : f32
      %1224 = arith.addf %1223, %cst_1037 : f32
      %1225 = arith.divf %cst_1037, %1224 : f32
      linalg.yield %1225 : f32
    } -> tensor<1x3840x19x19xf32>
    %1143 = linalg.generic {indexing_maps = [#map2, #map2, #map], iterator_types = ["parallel", "parallel", "parallel", "parallel"]} ins(%1142, %1141 : tensor<1x3840x19x19xf32>, tensor<1x3840x19x19xf32>) outs(%1138 : tensor<1x3840x19x19xf32>) {
    ^bb0(%in: f32, %in_1154: f32, %out: f32):
      %1222 = arith.mulf %in, %in_1154 : f32
      linalg.yield %1222 : f32
    } -> tensor<1x3840x19x19xf32>
    %padded_1147 = tensor.pad %1143 low[0, 0, 1, 1] high[0, 0, 1, 1] {
    ^bb0(%arg1: index, %arg2: index, %arg3: index, %arg4: index):
      tensor.yield %cst_1036 : f32
    } : tensor<1x3840x19x19xf32> to tensor<1x3840x21x21xf32>
    %collapsed_1148 = tensor.collapse_shape %cst_57 [[0, 1], [2], [3]] : tensor<3840x1x3x3xf32> into tensor<3840x3x3xf32>
    %1144 = linalg.depthwise_conv_2d_nchw_chw {dilations = dense<1> : vector<2xi64>, strides = dense<1> : vector<2xi64>} ins(%padded_1147, %collapsed_1148 : tensor<1x3840x21x21xf32>, tensor<3840x3x3xf32>) outs(%1139 : tensor<1x3840x19x19xf32>) -> tensor<1x3840x19x19xf32>
    cf.assert %3, "training is not supported for now"
    %1145 = linalg.generic {indexing_maps = [#map, #map1, #map1, #map1, #map1, #map], iterator_types = ["parallel", "parallel", "parallel", "parallel"]} ins(%1144, %cst_54, %cst_53, %cst_56, %cst_55 : tensor<1x3840x19x19xf32>, tensor<3840xf32>, tensor<3840xf32>, tensor<3840xf32>, tensor<3840xf32>) outs(%1144 : tensor<1x3840x19x19xf32>) {
    ^bb0(%in: f32, %in_1154: f32, %in_1155: f32, %in_1156: f32, %in_1157: f32, %out: f32):
      %1222 = arith.truncf %cst_1038 : f64 to f32
      %1223 = arith.addf %in_1157, %1222 : f32
      %1224 = math.rsqrt %1223 : f32
      %1225 = arith.subf %in, %in_1156 : f32
      %1226 = arith.mulf %1225, %1224 : f32
      %1227 = arith.mulf %1226, %in_1154 : f32
      %1228 = arith.addf %1227, %in_1155 : f32
      linalg.yield %1228 : f32
    } -> tensor<1x3840x19x19xf32>
    %1146 = linalg.generic {indexing_maps = [#map2, #map], iterator_types = ["parallel", "parallel", "parallel", "parallel"]} ins(%1145 : tensor<1x3840x19x19xf32>) outs(%1138 : tensor<1x3840x19x19xf32>) {
    ^bb0(%in: f32, %out: f32):
      %1222 = arith.negf %in : f32
      %1223 = math.exp %1222 : f32
      %1224 = arith.addf %1223, %cst_1037 : f32
      %1225 = arith.divf %cst_1037, %1224 : f32
      linalg.yield %1225 : f32
    } -> tensor<1x3840x19x19xf32>
    %1147 = linalg.generic {indexing_maps = [#map2, #map2, #map], iterator_types = ["parallel", "parallel", "parallel", "parallel"]} ins(%1146, %1145 : tensor<1x3840x19x19xf32>, tensor<1x3840x19x19xf32>) outs(%1138 : tensor<1x3840x19x19xf32>) {
    ^bb0(%in: f32, %in_1154: f32, %out: f32):
      %1222 = arith.mulf %in, %in_1154 : f32
      linalg.yield %1222 : f32
    } -> tensor<1x3840x19x19xf32>
    %1148 = tensor.empty() : tensor<1x3840x1x1xf32>
    %1149 = linalg.fill ins(%cst_1036 : f32) outs(%1148 : tensor<1x3840x1x1xf32>) -> tensor<1x3840x1x1xf32>
    %1150 = linalg.pooling_nchw_sum {dilations = dense<1> : vector<2xi64>, strides = dense<1> : vector<2xi64>} ins(%1147, %844 : tensor<1x3840x19x19xf32>, tensor<19x19xf32>) outs(%1149 : tensor<1x3840x1x1xf32>) -> tensor<1x3840x1x1xf32>
    %1151 = linalg.generic {indexing_maps = [#map, #map], iterator_types = ["parallel", "parallel", "parallel", "parallel"]} ins(%1150 : tensor<1x3840x1x1xf32>) outs(%1148 : tensor<1x3840x1x1xf32>) {
    ^bb0(%in: f32, %out: f32):
      %1222 = arith.divf %in, %cst_1043 : f32
      linalg.yield %1222 : f32
    } -> tensor<1x3840x1x1xf32>
    %1152 = tensor.empty() : tensor<1x160x1x1xf32>
    %1153 = linalg.generic {indexing_maps = [#map1, #map], iterator_types = ["parallel", "parallel", "parallel", "parallel"]} ins(%cst_51 : tensor<160xf32>) outs(%1152 : tensor<1x160x1x1xf32>) {
    ^bb0(%in: f32, %out: f32):
      linalg.yield %in : f32
    } -> tensor<1x160x1x1xf32>
    %1154 = linalg.conv_2d_nchw_fchw {dilations = dense<1> : vector<2xi64>, strides = dense<1> : vector<2xi64>} ins(%1151, %cst_52 : tensor<1x3840x1x1xf32>, tensor<160x3840x1x1xf32>) outs(%1153 : tensor<1x160x1x1xf32>) -> tensor<1x160x1x1xf32>
    %1155 = linalg.generic {indexing_maps = [#map3, #map], iterator_types = ["parallel", "parallel", "parallel", "parallel"]} ins(%1154 : tensor<1x160x1x1xf32>) outs(%1152 : tensor<1x160x1x1xf32>) {
    ^bb0(%in: f32, %out: f32):
      %1222 = arith.negf %in : f32
      %1223 = math.exp %1222 : f32
      %1224 = arith.addf %1223, %cst_1037 : f32
      %1225 = arith.divf %cst_1037, %1224 : f32
      linalg.yield %1225 : f32
    } -> tensor<1x160x1x1xf32>
    %1156 = linalg.generic {indexing_maps = [#map3, #map3, #map], iterator_types = ["parallel", "parallel", "parallel", "parallel"]} ins(%1155, %1154 : tensor<1x160x1x1xf32>, tensor<1x160x1x1xf32>) outs(%1152 : tensor<1x160x1x1xf32>) {
    ^bb0(%in: f32, %in_1154: f32, %out: f32):
      %1222 = arith.mulf %in, %in_1154 : f32
      linalg.yield %1222 : f32
    } -> tensor<1x160x1x1xf32>
    %1157 = linalg.generic {indexing_maps = [#map1, #map], iterator_types = ["parallel", "parallel", "parallel", "parallel"]} ins(%cst_49 : tensor<3840xf32>) outs(%1148 : tensor<1x3840x1x1xf32>) {
    ^bb0(%in: f32, %out: f32):
      linalg.yield %in : f32
    } -> tensor<1x3840x1x1xf32>
    %1158 = linalg.conv_2d_nchw_fchw {dilations = dense<1> : vector<2xi64>, strides = dense<1> : vector<2xi64>} ins(%1156, %cst_50 : tensor<1x160x1x1xf32>, tensor<3840x160x1x1xf32>) outs(%1157 : tensor<1x3840x1x1xf32>) -> tensor<1x3840x1x1xf32>
    %1159 = linalg.generic {indexing_maps = [#map3, #map], iterator_types = ["parallel", "parallel", "parallel", "parallel"]} ins(%1158 : tensor<1x3840x1x1xf32>) outs(%1148 : tensor<1x3840x1x1xf32>) {
    ^bb0(%in: f32, %out: f32):
      %1222 = arith.negf %in : f32
      %1223 = math.exp %1222 : f32
      %1224 = arith.addf %1223, %cst_1037 : f32
      %1225 = arith.divf %cst_1037, %1224 : f32
      linalg.yield %1225 : f32
    } -> tensor<1x3840x1x1xf32>
    %1160 = linalg.generic {indexing_maps = [#map3, #map2, #map], iterator_types = ["parallel", "parallel", "parallel", "parallel"]} ins(%1159, %1147 : tensor<1x3840x1x1xf32>, tensor<1x3840x19x19xf32>) outs(%1138 : tensor<1x3840x19x19xf32>) {
    ^bb0(%in: f32, %in_1154: f32, %out: f32):
      %1222 = arith.mulf %in, %in_1154 : f32
      linalg.yield %1222 : f32
    } -> tensor<1x3840x19x19xf32>
    %1161 = linalg.conv_2d_nchw_fchw {dilations = dense<1> : vector<2xi64>, strides = dense<1> : vector<2xi64>} ins(%1160, %cst_48 : tensor<1x3840x19x19xf32>, tensor<640x3840x1x1xf32>) outs(%1135 : tensor<1x640x19x19xf32>) -> tensor<1x640x19x19xf32>
    cf.assert %3, "training is not supported for now"
    %1162 = linalg.generic {indexing_maps = [#map, #map1, #map1, #map1, #map1, #map], iterator_types = ["parallel", "parallel", "parallel", "parallel"]} ins(%1161, %cst_45, %cst_44, %cst_47, %cst_46 : tensor<1x640x19x19xf32>, tensor<640xf32>, tensor<640xf32>, tensor<640xf32>, tensor<640xf32>) outs(%1161 : tensor<1x640x19x19xf32>) {
    ^bb0(%in: f32, %in_1154: f32, %in_1155: f32, %in_1156: f32, %in_1157: f32, %out: f32):
      %1222 = arith.truncf %cst_1038 : f64 to f32
      %1223 = arith.addf %in_1157, %1222 : f32
      %1224 = math.rsqrt %1223 : f32
      %1225 = arith.subf %in, %in_1156 : f32
      %1226 = arith.mulf %1225, %1224 : f32
      %1227 = arith.mulf %1226, %in_1154 : f32
      %1228 = arith.addf %1227, %in_1155 : f32
      linalg.yield %1228 : f32
    } -> tensor<1x640x19x19xf32>
    %1163 = linalg.generic {indexing_maps = [#map2, #map2, #map], iterator_types = ["parallel", "parallel", "parallel", "parallel"]} ins(%1162, %1137 : tensor<1x640x19x19xf32>, tensor<1x640x19x19xf32>) outs(%1134 : tensor<1x640x19x19xf32>) {
    ^bb0(%in: f32, %in_1154: f32, %out: f32):
      %1222 = arith.addf %in, %in_1154 : f32
      linalg.yield %1222 : f32
    } -> tensor<1x640x19x19xf32>
    %1164 = linalg.conv_2d_nchw_fchw {dilations = dense<1> : vector<2xi64>, strides = dense<1> : vector<2xi64>} ins(%1163, %cst_43 : tensor<1x640x19x19xf32>, tensor<3840x640x1x1xf32>) outs(%1139 : tensor<1x3840x19x19xf32>) -> tensor<1x3840x19x19xf32>
    cf.assert %3, "training is not supported for now"
    %1165 = linalg.generic {indexing_maps = [#map, #map1, #map1, #map1, #map1, #map], iterator_types = ["parallel", "parallel", "parallel", "parallel"]} ins(%1164, %cst_40, %cst_39, %cst_42, %cst_41 : tensor<1x3840x19x19xf32>, tensor<3840xf32>, tensor<3840xf32>, tensor<3840xf32>, tensor<3840xf32>) outs(%1164 : tensor<1x3840x19x19xf32>) {
    ^bb0(%in: f32, %in_1154: f32, %in_1155: f32, %in_1156: f32, %in_1157: f32, %out: f32):
      %1222 = arith.truncf %cst_1038 : f64 to f32
      %1223 = arith.addf %in_1157, %1222 : f32
      %1224 = math.rsqrt %1223 : f32
      %1225 = arith.subf %in, %in_1156 : f32
      %1226 = arith.mulf %1225, %1224 : f32
      %1227 = arith.mulf %1226, %in_1154 : f32
      %1228 = arith.addf %1227, %in_1155 : f32
      linalg.yield %1228 : f32
    } -> tensor<1x3840x19x19xf32>
    %1166 = linalg.generic {indexing_maps = [#map2, #map], iterator_types = ["parallel", "parallel", "parallel", "parallel"]} ins(%1165 : tensor<1x3840x19x19xf32>) outs(%1138 : tensor<1x3840x19x19xf32>) {
    ^bb0(%in: f32, %out: f32):
      %1222 = arith.negf %in : f32
      %1223 = math.exp %1222 : f32
      %1224 = arith.addf %1223, %cst_1037 : f32
      %1225 = arith.divf %cst_1037, %1224 : f32
      linalg.yield %1225 : f32
    } -> tensor<1x3840x19x19xf32>
    %1167 = linalg.generic {indexing_maps = [#map2, #map2, #map], iterator_types = ["parallel", "parallel", "parallel", "parallel"]} ins(%1166, %1165 : tensor<1x3840x19x19xf32>, tensor<1x3840x19x19xf32>) outs(%1138 : tensor<1x3840x19x19xf32>) {
    ^bb0(%in: f32, %in_1154: f32, %out: f32):
      %1222 = arith.mulf %in, %in_1154 : f32
      linalg.yield %1222 : f32
    } -> tensor<1x3840x19x19xf32>
    %padded_1149 = tensor.pad %1167 low[0, 0, 1, 1] high[0, 0, 1, 1] {
    ^bb0(%arg1: index, %arg2: index, %arg3: index, %arg4: index):
      tensor.yield %cst_1036 : f32
    } : tensor<1x3840x19x19xf32> to tensor<1x3840x21x21xf32>
    %collapsed_1150 = tensor.collapse_shape %cst_38 [[0, 1], [2], [3]] : tensor<3840x1x3x3xf32> into tensor<3840x3x3xf32>
    %1168 = linalg.depthwise_conv_2d_nchw_chw {dilations = dense<1> : vector<2xi64>, strides = dense<1> : vector<2xi64>} ins(%padded_1149, %collapsed_1150 : tensor<1x3840x21x21xf32>, tensor<3840x3x3xf32>) outs(%1139 : tensor<1x3840x19x19xf32>) -> tensor<1x3840x19x19xf32>
    cf.assert %3, "training is not supported for now"
    %1169 = linalg.generic {indexing_maps = [#map, #map1, #map1, #map1, #map1, #map], iterator_types = ["parallel", "parallel", "parallel", "parallel"]} ins(%1168, %cst_35, %cst_34, %cst_37, %cst_36 : tensor<1x3840x19x19xf32>, tensor<3840xf32>, tensor<3840xf32>, tensor<3840xf32>, tensor<3840xf32>) outs(%1168 : tensor<1x3840x19x19xf32>) {
    ^bb0(%in: f32, %in_1154: f32, %in_1155: f32, %in_1156: f32, %in_1157: f32, %out: f32):
      %1222 = arith.truncf %cst_1038 : f64 to f32
      %1223 = arith.addf %in_1157, %1222 : f32
      %1224 = math.rsqrt %1223 : f32
      %1225 = arith.subf %in, %in_1156 : f32
      %1226 = arith.mulf %1225, %1224 : f32
      %1227 = arith.mulf %1226, %in_1154 : f32
      %1228 = arith.addf %1227, %in_1155 : f32
      linalg.yield %1228 : f32
    } -> tensor<1x3840x19x19xf32>
    %1170 = linalg.generic {indexing_maps = [#map2, #map], iterator_types = ["parallel", "parallel", "parallel", "parallel"]} ins(%1169 : tensor<1x3840x19x19xf32>) outs(%1138 : tensor<1x3840x19x19xf32>) {
    ^bb0(%in: f32, %out: f32):
      %1222 = arith.negf %in : f32
      %1223 = math.exp %1222 : f32
      %1224 = arith.addf %1223, %cst_1037 : f32
      %1225 = arith.divf %cst_1037, %1224 : f32
      linalg.yield %1225 : f32
    } -> tensor<1x3840x19x19xf32>
    %1171 = linalg.generic {indexing_maps = [#map2, #map2, #map], iterator_types = ["parallel", "parallel", "parallel", "parallel"]} ins(%1170, %1169 : tensor<1x3840x19x19xf32>, tensor<1x3840x19x19xf32>) outs(%1138 : tensor<1x3840x19x19xf32>) {
    ^bb0(%in: f32, %in_1154: f32, %out: f32):
      %1222 = arith.mulf %in, %in_1154 : f32
      linalg.yield %1222 : f32
    } -> tensor<1x3840x19x19xf32>
    %1172 = linalg.pooling_nchw_sum {dilations = dense<1> : vector<2xi64>, strides = dense<1> : vector<2xi64>} ins(%1171, %844 : tensor<1x3840x19x19xf32>, tensor<19x19xf32>) outs(%1149 : tensor<1x3840x1x1xf32>) -> tensor<1x3840x1x1xf32>
    %1173 = linalg.generic {indexing_maps = [#map, #map], iterator_types = ["parallel", "parallel", "parallel", "parallel"]} ins(%1172 : tensor<1x3840x1x1xf32>) outs(%1148 : tensor<1x3840x1x1xf32>) {
    ^bb0(%in: f32, %out: f32):
      %1222 = arith.divf %in, %cst_1043 : f32
      linalg.yield %1222 : f32
    } -> tensor<1x3840x1x1xf32>
    %1174 = linalg.generic {indexing_maps = [#map1, #map], iterator_types = ["parallel", "parallel", "parallel", "parallel"]} ins(%cst_32 : tensor<160xf32>) outs(%1152 : tensor<1x160x1x1xf32>) {
    ^bb0(%in: f32, %out: f32):
      linalg.yield %in : f32
    } -> tensor<1x160x1x1xf32>
    %1175 = linalg.conv_2d_nchw_fchw {dilations = dense<1> : vector<2xi64>, strides = dense<1> : vector<2xi64>} ins(%1173, %cst_33 : tensor<1x3840x1x1xf32>, tensor<160x3840x1x1xf32>) outs(%1174 : tensor<1x160x1x1xf32>) -> tensor<1x160x1x1xf32>
    %1176 = linalg.generic {indexing_maps = [#map3, #map], iterator_types = ["parallel", "parallel", "parallel", "parallel"]} ins(%1175 : tensor<1x160x1x1xf32>) outs(%1152 : tensor<1x160x1x1xf32>) {
    ^bb0(%in: f32, %out: f32):
      %1222 = arith.negf %in : f32
      %1223 = math.exp %1222 : f32
      %1224 = arith.addf %1223, %cst_1037 : f32
      %1225 = arith.divf %cst_1037, %1224 : f32
      linalg.yield %1225 : f32
    } -> tensor<1x160x1x1xf32>
    %1177 = linalg.generic {indexing_maps = [#map3, #map3, #map], iterator_types = ["parallel", "parallel", "parallel", "parallel"]} ins(%1176, %1175 : tensor<1x160x1x1xf32>, tensor<1x160x1x1xf32>) outs(%1152 : tensor<1x160x1x1xf32>) {
    ^bb0(%in: f32, %in_1154: f32, %out: f32):
      %1222 = arith.mulf %in, %in_1154 : f32
      linalg.yield %1222 : f32
    } -> tensor<1x160x1x1xf32>
    %1178 = linalg.generic {indexing_maps = [#map1, #map], iterator_types = ["parallel", "parallel", "parallel", "parallel"]} ins(%cst_30 : tensor<3840xf32>) outs(%1148 : tensor<1x3840x1x1xf32>) {
    ^bb0(%in: f32, %out: f32):
      linalg.yield %in : f32
    } -> tensor<1x3840x1x1xf32>
    %1179 = linalg.conv_2d_nchw_fchw {dilations = dense<1> : vector<2xi64>, strides = dense<1> : vector<2xi64>} ins(%1177, %cst_31 : tensor<1x160x1x1xf32>, tensor<3840x160x1x1xf32>) outs(%1178 : tensor<1x3840x1x1xf32>) -> tensor<1x3840x1x1xf32>
    %1180 = linalg.generic {indexing_maps = [#map3, #map], iterator_types = ["parallel", "parallel", "parallel", "parallel"]} ins(%1179 : tensor<1x3840x1x1xf32>) outs(%1148 : tensor<1x3840x1x1xf32>) {
    ^bb0(%in: f32, %out: f32):
      %1222 = arith.negf %in : f32
      %1223 = math.exp %1222 : f32
      %1224 = arith.addf %1223, %cst_1037 : f32
      %1225 = arith.divf %cst_1037, %1224 : f32
      linalg.yield %1225 : f32
    } -> tensor<1x3840x1x1xf32>
    %1181 = linalg.generic {indexing_maps = [#map3, #map2, #map], iterator_types = ["parallel", "parallel", "parallel", "parallel"]} ins(%1180, %1171 : tensor<1x3840x1x1xf32>, tensor<1x3840x19x19xf32>) outs(%1138 : tensor<1x3840x19x19xf32>) {
    ^bb0(%in: f32, %in_1154: f32, %out: f32):
      %1222 = arith.mulf %in, %in_1154 : f32
      linalg.yield %1222 : f32
    } -> tensor<1x3840x19x19xf32>
    %1182 = linalg.conv_2d_nchw_fchw {dilations = dense<1> : vector<2xi64>, strides = dense<1> : vector<2xi64>} ins(%1181, %cst_29 : tensor<1x3840x19x19xf32>, tensor<640x3840x1x1xf32>) outs(%1135 : tensor<1x640x19x19xf32>) -> tensor<1x640x19x19xf32>
    cf.assert %3, "training is not supported for now"
    %1183 = linalg.generic {indexing_maps = [#map, #map1, #map1, #map1, #map1, #map], iterator_types = ["parallel", "parallel", "parallel", "parallel"]} ins(%1182, %cst_26, %cst_25, %cst_28, %cst_27 : tensor<1x640x19x19xf32>, tensor<640xf32>, tensor<640xf32>, tensor<640xf32>, tensor<640xf32>) outs(%1182 : tensor<1x640x19x19xf32>) {
    ^bb0(%in: f32, %in_1154: f32, %in_1155: f32, %in_1156: f32, %in_1157: f32, %out: f32):
      %1222 = arith.truncf %cst_1038 : f64 to f32
      %1223 = arith.addf %in_1157, %1222 : f32
      %1224 = math.rsqrt %1223 : f32
      %1225 = arith.subf %in, %in_1156 : f32
      %1226 = arith.mulf %1225, %1224 : f32
      %1227 = arith.mulf %1226, %in_1154 : f32
      %1228 = arith.addf %1227, %in_1155 : f32
      linalg.yield %1228 : f32
    } -> tensor<1x640x19x19xf32>
    %1184 = linalg.generic {indexing_maps = [#map2, #map2, #map], iterator_types = ["parallel", "parallel", "parallel", "parallel"]} ins(%1183, %1163 : tensor<1x640x19x19xf32>, tensor<1x640x19x19xf32>) outs(%1134 : tensor<1x640x19x19xf32>) {
    ^bb0(%in: f32, %in_1154: f32, %out: f32):
      %1222 = arith.addf %in, %in_1154 : f32
      linalg.yield %1222 : f32
    } -> tensor<1x640x19x19xf32>
    %1185 = linalg.conv_2d_nchw_fchw {dilations = dense<1> : vector<2xi64>, strides = dense<1> : vector<2xi64>} ins(%1184, %cst_24 : tensor<1x640x19x19xf32>, tensor<3840x640x1x1xf32>) outs(%1139 : tensor<1x3840x19x19xf32>) -> tensor<1x3840x19x19xf32>
    cf.assert %3, "training is not supported for now"
    %1186 = linalg.generic {indexing_maps = [#map, #map1, #map1, #map1, #map1, #map], iterator_types = ["parallel", "parallel", "parallel", "parallel"]} ins(%1185, %cst_21, %cst_20, %cst_23, %cst_22 : tensor<1x3840x19x19xf32>, tensor<3840xf32>, tensor<3840xf32>, tensor<3840xf32>, tensor<3840xf32>) outs(%1185 : tensor<1x3840x19x19xf32>) {
    ^bb0(%in: f32, %in_1154: f32, %in_1155: f32, %in_1156: f32, %in_1157: f32, %out: f32):
      %1222 = arith.truncf %cst_1038 : f64 to f32
      %1223 = arith.addf %in_1157, %1222 : f32
      %1224 = math.rsqrt %1223 : f32
      %1225 = arith.subf %in, %in_1156 : f32
      %1226 = arith.mulf %1225, %1224 : f32
      %1227 = arith.mulf %1226, %in_1154 : f32
      %1228 = arith.addf %1227, %in_1155 : f32
      linalg.yield %1228 : f32
    } -> tensor<1x3840x19x19xf32>
    %1187 = linalg.generic {indexing_maps = [#map2, #map], iterator_types = ["parallel", "parallel", "parallel", "parallel"]} ins(%1186 : tensor<1x3840x19x19xf32>) outs(%1138 : tensor<1x3840x19x19xf32>) {
    ^bb0(%in: f32, %out: f32):
      %1222 = arith.negf %in : f32
      %1223 = math.exp %1222 : f32
      %1224 = arith.addf %1223, %cst_1037 : f32
      %1225 = arith.divf %cst_1037, %1224 : f32
      linalg.yield %1225 : f32
    } -> tensor<1x3840x19x19xf32>
    %1188 = linalg.generic {indexing_maps = [#map2, #map2, #map], iterator_types = ["parallel", "parallel", "parallel", "parallel"]} ins(%1187, %1186 : tensor<1x3840x19x19xf32>, tensor<1x3840x19x19xf32>) outs(%1138 : tensor<1x3840x19x19xf32>) {
    ^bb0(%in: f32, %in_1154: f32, %out: f32):
      %1222 = arith.mulf %in, %in_1154 : f32
      linalg.yield %1222 : f32
    } -> tensor<1x3840x19x19xf32>
    %padded_1151 = tensor.pad %1188 low[0, 0, 1, 1] high[0, 0, 1, 1] {
    ^bb0(%arg1: index, %arg2: index, %arg3: index, %arg4: index):
      tensor.yield %cst_1036 : f32
    } : tensor<1x3840x19x19xf32> to tensor<1x3840x21x21xf32>
    %collapsed_1152 = tensor.collapse_shape %cst_19 [[0, 1], [2], [3]] : tensor<3840x1x3x3xf32> into tensor<3840x3x3xf32>
    %1189 = linalg.depthwise_conv_2d_nchw_chw {dilations = dense<1> : vector<2xi64>, strides = dense<1> : vector<2xi64>} ins(%padded_1151, %collapsed_1152 : tensor<1x3840x21x21xf32>, tensor<3840x3x3xf32>) outs(%1139 : tensor<1x3840x19x19xf32>) -> tensor<1x3840x19x19xf32>
    cf.assert %3, "training is not supported for now"
    %1190 = linalg.generic {indexing_maps = [#map, #map1, #map1, #map1, #map1, #map], iterator_types = ["parallel", "parallel", "parallel", "parallel"]} ins(%1189, %cst_16, %cst_15, %cst_18, %cst_17 : tensor<1x3840x19x19xf32>, tensor<3840xf32>, tensor<3840xf32>, tensor<3840xf32>, tensor<3840xf32>) outs(%1189 : tensor<1x3840x19x19xf32>) {
    ^bb0(%in: f32, %in_1154: f32, %in_1155: f32, %in_1156: f32, %in_1157: f32, %out: f32):
      %1222 = arith.truncf %cst_1038 : f64 to f32
      %1223 = arith.addf %in_1157, %1222 : f32
      %1224 = math.rsqrt %1223 : f32
      %1225 = arith.subf %in, %in_1156 : f32
      %1226 = arith.mulf %1225, %1224 : f32
      %1227 = arith.mulf %1226, %in_1154 : f32
      %1228 = arith.addf %1227, %in_1155 : f32
      linalg.yield %1228 : f32
    } -> tensor<1x3840x19x19xf32>
    %1191 = linalg.generic {indexing_maps = [#map2, #map], iterator_types = ["parallel", "parallel", "parallel", "parallel"]} ins(%1190 : tensor<1x3840x19x19xf32>) outs(%1138 : tensor<1x3840x19x19xf32>) {
    ^bb0(%in: f32, %out: f32):
      %1222 = arith.negf %in : f32
      %1223 = math.exp %1222 : f32
      %1224 = arith.addf %1223, %cst_1037 : f32
      %1225 = arith.divf %cst_1037, %1224 : f32
      linalg.yield %1225 : f32
    } -> tensor<1x3840x19x19xf32>
    %1192 = linalg.generic {indexing_maps = [#map2, #map2, #map], iterator_types = ["parallel", "parallel", "parallel", "parallel"]} ins(%1191, %1190 : tensor<1x3840x19x19xf32>, tensor<1x3840x19x19xf32>) outs(%1138 : tensor<1x3840x19x19xf32>) {
    ^bb0(%in: f32, %in_1154: f32, %out: f32):
      %1222 = arith.mulf %in, %in_1154 : f32
      linalg.yield %1222 : f32
    } -> tensor<1x3840x19x19xf32>
    %1193 = linalg.pooling_nchw_sum {dilations = dense<1> : vector<2xi64>, strides = dense<1> : vector<2xi64>} ins(%1192, %844 : tensor<1x3840x19x19xf32>, tensor<19x19xf32>) outs(%1149 : tensor<1x3840x1x1xf32>) -> tensor<1x3840x1x1xf32>
    %1194 = linalg.generic {indexing_maps = [#map, #map], iterator_types = ["parallel", "parallel", "parallel", "parallel"]} ins(%1193 : tensor<1x3840x1x1xf32>) outs(%1148 : tensor<1x3840x1x1xf32>) {
    ^bb0(%in: f32, %out: f32):
      %1222 = arith.divf %in, %cst_1043 : f32
      linalg.yield %1222 : f32
    } -> tensor<1x3840x1x1xf32>
    %1195 = linalg.generic {indexing_maps = [#map1, #map], iterator_types = ["parallel", "parallel", "parallel", "parallel"]} ins(%cst_13 : tensor<160xf32>) outs(%1152 : tensor<1x160x1x1xf32>) {
    ^bb0(%in: f32, %out: f32):
      linalg.yield %in : f32
    } -> tensor<1x160x1x1xf32>
    %1196 = linalg.conv_2d_nchw_fchw {dilations = dense<1> : vector<2xi64>, strides = dense<1> : vector<2xi64>} ins(%1194, %cst_14 : tensor<1x3840x1x1xf32>, tensor<160x3840x1x1xf32>) outs(%1195 : tensor<1x160x1x1xf32>) -> tensor<1x160x1x1xf32>
    %1197 = linalg.generic {indexing_maps = [#map3, #map], iterator_types = ["parallel", "parallel", "parallel", "parallel"]} ins(%1196 : tensor<1x160x1x1xf32>) outs(%1152 : tensor<1x160x1x1xf32>) {
    ^bb0(%in: f32, %out: f32):
      %1222 = arith.negf %in : f32
      %1223 = math.exp %1222 : f32
      %1224 = arith.addf %1223, %cst_1037 : f32
      %1225 = arith.divf %cst_1037, %1224 : f32
      linalg.yield %1225 : f32
    } -> tensor<1x160x1x1xf32>
    %1198 = linalg.generic {indexing_maps = [#map3, #map3, #map], iterator_types = ["parallel", "parallel", "parallel", "parallel"]} ins(%1197, %1196 : tensor<1x160x1x1xf32>, tensor<1x160x1x1xf32>) outs(%1152 : tensor<1x160x1x1xf32>) {
    ^bb0(%in: f32, %in_1154: f32, %out: f32):
      %1222 = arith.mulf %in, %in_1154 : f32
      linalg.yield %1222 : f32
    } -> tensor<1x160x1x1xf32>
    %1199 = linalg.generic {indexing_maps = [#map1, #map], iterator_types = ["parallel", "parallel", "parallel", "parallel"]} ins(%cst_11 : tensor<3840xf32>) outs(%1148 : tensor<1x3840x1x1xf32>) {
    ^bb0(%in: f32, %out: f32):
      linalg.yield %in : f32
    } -> tensor<1x3840x1x1xf32>
    %1200 = linalg.conv_2d_nchw_fchw {dilations = dense<1> : vector<2xi64>, strides = dense<1> : vector<2xi64>} ins(%1198, %cst_12 : tensor<1x160x1x1xf32>, tensor<3840x160x1x1xf32>) outs(%1199 : tensor<1x3840x1x1xf32>) -> tensor<1x3840x1x1xf32>
    %1201 = linalg.generic {indexing_maps = [#map3, #map], iterator_types = ["parallel", "parallel", "parallel", "parallel"]} ins(%1200 : tensor<1x3840x1x1xf32>) outs(%1148 : tensor<1x3840x1x1xf32>) {
    ^bb0(%in: f32, %out: f32):
      %1222 = arith.negf %in : f32
      %1223 = math.exp %1222 : f32
      %1224 = arith.addf %1223, %cst_1037 : f32
      %1225 = arith.divf %cst_1037, %1224 : f32
      linalg.yield %1225 : f32
    } -> tensor<1x3840x1x1xf32>
    %1202 = linalg.generic {indexing_maps = [#map3, #map2, #map], iterator_types = ["parallel", "parallel", "parallel", "parallel"]} ins(%1201, %1192 : tensor<1x3840x1x1xf32>, tensor<1x3840x19x19xf32>) outs(%1138 : tensor<1x3840x19x19xf32>) {
    ^bb0(%in: f32, %in_1154: f32, %out: f32):
      %1222 = arith.mulf %in, %in_1154 : f32
      linalg.yield %1222 : f32
    } -> tensor<1x3840x19x19xf32>
    %1203 = linalg.conv_2d_nchw_fchw {dilations = dense<1> : vector<2xi64>, strides = dense<1> : vector<2xi64>} ins(%1202, %cst_10 : tensor<1x3840x19x19xf32>, tensor<640x3840x1x1xf32>) outs(%1135 : tensor<1x640x19x19xf32>) -> tensor<1x640x19x19xf32>
    cf.assert %3, "training is not supported for now"
    %1204 = linalg.generic {indexing_maps = [#map, #map1, #map1, #map1, #map1, #map], iterator_types = ["parallel", "parallel", "parallel", "parallel"]} ins(%1203, %cst_7, %cst_6, %cst_9, %cst_8 : tensor<1x640x19x19xf32>, tensor<640xf32>, tensor<640xf32>, tensor<640xf32>, tensor<640xf32>) outs(%1203 : tensor<1x640x19x19xf32>) {
    ^bb0(%in: f32, %in_1154: f32, %in_1155: f32, %in_1156: f32, %in_1157: f32, %out: f32):
      %1222 = arith.truncf %cst_1038 : f64 to f32
      %1223 = arith.addf %in_1157, %1222 : f32
      %1224 = math.rsqrt %1223 : f32
      %1225 = arith.subf %in, %in_1156 : f32
      %1226 = arith.mulf %1225, %1224 : f32
      %1227 = arith.mulf %1226, %in_1154 : f32
      %1228 = arith.addf %1227, %in_1155 : f32
      linalg.yield %1228 : f32
    } -> tensor<1x640x19x19xf32>
    %1205 = linalg.generic {indexing_maps = [#map2, #map2, #map], iterator_types = ["parallel", "parallel", "parallel", "parallel"]} ins(%1204, %1184 : tensor<1x640x19x19xf32>, tensor<1x640x19x19xf32>) outs(%1134 : tensor<1x640x19x19xf32>) {
    ^bb0(%in: f32, %in_1154: f32, %out: f32):
      %1222 = arith.addf %in, %in_1154 : f32
      linalg.yield %1222 : f32
    } -> tensor<1x640x19x19xf32>
    %1206 = tensor.empty() : tensor<1x2560x19x19xf32>
    %1207 = linalg.fill ins(%cst_1036 : f32) outs(%1206 : tensor<1x2560x19x19xf32>) -> tensor<1x2560x19x19xf32>
    %1208 = linalg.conv_2d_nchw_fchw {dilations = dense<1> : vector<2xi64>, strides = dense<1> : vector<2xi64>} ins(%1205, %cst_5 : tensor<1x640x19x19xf32>, tensor<2560x640x1x1xf32>) outs(%1207 : tensor<1x2560x19x19xf32>) -> tensor<1x2560x19x19xf32>
    cf.assert %3, "training is not supported for now"
    %1209 = linalg.generic {indexing_maps = [#map, #map1, #map1, #map1, #map1, #map], iterator_types = ["parallel", "parallel", "parallel", "parallel"]} ins(%1208, %cst_2, %cst_1, %cst_4, %cst_3 : tensor<1x2560x19x19xf32>, tensor<2560xf32>, tensor<2560xf32>, tensor<2560xf32>, tensor<2560xf32>) outs(%1208 : tensor<1x2560x19x19xf32>) {
    ^bb0(%in: f32, %in_1154: f32, %in_1155: f32, %in_1156: f32, %in_1157: f32, %out: f32):
      %1222 = arith.truncf %cst_1038 : f64 to f32
      %1223 = arith.addf %in_1157, %1222 : f32
      %1224 = math.rsqrt %1223 : f32
      %1225 = arith.subf %in, %in_1156 : f32
      %1226 = arith.mulf %1225, %1224 : f32
      %1227 = arith.mulf %1226, %in_1154 : f32
      %1228 = arith.addf %1227, %in_1155 : f32
      linalg.yield %1228 : f32
    } -> tensor<1x2560x19x19xf32>
    %1210 = linalg.generic {indexing_maps = [#map2, #map], iterator_types = ["parallel", "parallel", "parallel", "parallel"]} ins(%1209 : tensor<1x2560x19x19xf32>) outs(%1206 : tensor<1x2560x19x19xf32>) {
    ^bb0(%in: f32, %out: f32):
      %1222 = arith.negf %in : f32
      %1223 = math.exp %1222 : f32
      %1224 = arith.addf %1223, %cst_1037 : f32
      %1225 = arith.divf %cst_1037, %1224 : f32
      linalg.yield %1225 : f32
    } -> tensor<1x2560x19x19xf32>
    %1211 = linalg.generic {indexing_maps = [#map2, #map2, #map], iterator_types = ["parallel", "parallel", "parallel", "parallel"]} ins(%1210, %1209 : tensor<1x2560x19x19xf32>, tensor<1x2560x19x19xf32>) outs(%1206 : tensor<1x2560x19x19xf32>) {
    ^bb0(%in: f32, %in_1154: f32, %out: f32):
      %1222 = arith.mulf %in, %in_1154 : f32
      linalg.yield %1222 : f32
    } -> tensor<1x2560x19x19xf32>
    %1212 = tensor.empty() : tensor<1x2560x1x1xf32>
    %1213 = linalg.fill ins(%cst_1036 : f32) outs(%1212 : tensor<1x2560x1x1xf32>) -> tensor<1x2560x1x1xf32>
    %1214 = linalg.pooling_nchw_sum {dilations = dense<1> : vector<2xi64>, strides = dense<1> : vector<2xi64>} ins(%1211, %844 : tensor<1x2560x19x19xf32>, tensor<19x19xf32>) outs(%1213 : tensor<1x2560x1x1xf32>) -> tensor<1x2560x1x1xf32>
    %1215 = linalg.generic {indexing_maps = [#map, #map], iterator_types = ["parallel", "parallel", "parallel", "parallel"]} ins(%1214 : tensor<1x2560x1x1xf32>) outs(%1212 : tensor<1x2560x1x1xf32>) {
    ^bb0(%in: f32, %out: f32):
      %1222 = arith.divf %in, %cst_1043 : f32
      linalg.yield %1222 : f32
    } -> tensor<1x2560x1x1xf32>
    %collapsed_1153 = tensor.collapse_shape %1215 [[0], [1, 2, 3]] : tensor<1x2560x1x1xf32> into tensor<1x2560xf32>
    %1216 = tensor.empty() : tensor<2560x1000xf32>
    %1217 = linalg.generic {indexing_maps = [#map4, #map5], iterator_types = ["parallel", "parallel"]} ins(%cst_0 : tensor<1000x2560xf32>) outs(%1216 : tensor<2560x1000xf32>) {
    ^bb0(%in: f32, %out: f32):
      linalg.yield %in : f32
    } -> tensor<2560x1000xf32>
    %1218 = tensor.empty() : tensor<1x1000xf32>
    %1219 = linalg.fill ins(%cst_1036 : f32) outs(%1218 : tensor<1x1000xf32>) -> tensor<1x1000xf32>
    %1220 = linalg.matmul ins(%collapsed_1153, %1217 : tensor<1x2560xf32>, tensor<2560x1000xf32>) outs(%1219 : tensor<1x1000xf32>) -> tensor<1x1000xf32>
    %1221 = linalg.generic {indexing_maps = [#map6, #map7, #map4], iterator_types = ["parallel", "parallel"]} ins(%1220, %cst : tensor<1x1000xf32>, tensor<1000xf32>) outs(%1218 : tensor<1x1000xf32>) {
    ^bb0(%in: f32, %in_1154: f32, %out: f32):
      %1222 = arith.addf %in, %in_1154 : f32
      linalg.yield %1222 : f32
    } -> tensor<1x1000xf32>
    return %1221 : tensor<1x1000xf32>
  }
}
